checkpoint_actor_1.pth (torch_old, 163771 bytes, 10 tensors)

fc1.weight f4 [256, 24]
0.31017137 -0.75169116 0.44510847 -0.29842663 -0.16872069 0.8634115 0.4215262 -0.2994994
0.7528004 -0.75085926 0.3494586 -0.07923215 0.1713031 0.13354497 0.2764337 0.011525317
0.8423157 -0.811512 -0.06982146 0.032567266 0.6481915 -0.7692934 -0.016314 0.073063634
1.7968099 -1.5006049 -0.07475766 0.304992 -0.55514747 0.99873483 -0.12157935 0.3748554
0.6133509 -1.4461359 -0.23281556 0.6737068 -0.18182115 0.01775638 -0.1915079 0.63218063
0.6406545 -1.3193754 -0.0041542277 0.52811235 0.41498467 -1.0344974 0.018476875 0.56841546
0.2258307 -1.1844615 -0.08131398 -0.030999118 -0.6431192 -0.84128714 -0.01151923 -0.043744758
0.4510894 -1.0223712 -0.053671345 0.06590367 -0.85515726 -0.51808405 -0.08922118 0.13350354
0.7514524 -1.1638058 -0.04147766 -0.25246176 -1.3656489 0.28622857 -0.06572461 -0.35384628
-0.5165258 -0.25466132 0.12943323 0.05821263 2.5680318 0.7277528 0.050692074 0.044338316
-0.10182874 -0.13060378 0.07061312 -0.05827215 1.255081 0.88293093 0.04613144 -0.12124782
0.1307012 -0.17912576 -0.046908293 -0.13762228 -0.11190362 0.6056244 -0.054879073 -0.029809881
-0.2624401 0.19214812 0.68784547 -0.3201813 -0.7925911 0.2664519 0.67735255 -0.31585062
-0.13004048 0.23271085 0.07133972 0.11120034 -0.43058184 0.41095284 0.03530724 0.08785089
-0.1540345 0.37597087 -0.039369363 0.120000795 -0.0809414 0.5110522 0.00978762 0.07924786
0.24997085 -0.32870758 -0.020214267 -0.13462572 -0.029230118 -1.8733702 -0.0072023496 -0.13837507
0.29997277 -0.41239148 0.051049497 0.3321705 -0.03559375 -1.7649208 -0.054069165 0.3495318
0.32147688 -0.32436383 -0.31722665 0.26237646 -0.08217385 -1.0179713 -0.3451887 0.2936579
-0.098453045 -1.1473179 -0.042299476 -0.043030616 1.0013301 -1.7865055 0.024672808 -0.058097515
-0.046255436 -1.2844056 -0.026746474 -0.021318996 0.5368487 -0.55101 -0.03515257 0.060526278
0.07666582 -1.228574 -0.025879508 -0.38685918 0.1902583 1.4170269 -0.003667866 -0.3529731
0.8655362 -0.040893603 -0.11075552 -0.10137164 -0.07485577 -1.5812469 -0.11624887 -0.15014426
0.45001337 -0.29413995 -0.41739678 -0.17502223 -0.057055313 -1.251995 -0.38648915 -0.11382885
0.47084415 -0.43849683 0.08223217 -0.19938113 -0.033034354 -1.2322493 0.10771492 -0.19727337
0.31622946 -0.6650905 -0.17892256 -0.51620704 0.78134185 0.02632513 -0.1325105 -0.54079694
0.22619893 -0.9322099 -0.2936622 0.19790347 0.49668387 0.30749834 -0.22920606 0.31292135
0.1781639 -0.2697989 -0.27227592 1.1460422 0.107546985 0.69721305 -0.33365178 1.0755721
0.37548083 0.10945213 -0.2655476 -0.8275381 -0.3055071 -0.66886646 -0.30646205 -0.82838684
0.35540333 -0.35447025 -0.083433785 -0.50242925 -0.2788598 -0.24220607 -0.07846549 -0.4723273
0.2984991 -0.49168172 -0.5447299 -0.6065774 0.040468406 -0.42105258 -0.48500147 -0.5636696
-0.3257558 -1.1387526 -0.29576597 -1.1721362 0.5780503 -0.0016888853 -0.30247363 -1.1324711
0.18654813 -0.9816937 0.14105114 -0.07300763 0.5752312 0.28998944 0.1667761 -0.058044516
00000000: c8ce 9e3e d56e 40bf 42e5 e33e 60cb 98be
00000010: 1ec5 2cbe 8908 5d3f 48d2 d73e fc57 99be
00000020: 87b7 403f 5038 40bf 3dec b23e 7744 a2bd
00000030: 146a 2f3e 03c0 083e b888 8d3e afd4 3c3c
00000040: 00a2 573f 40bf 4fbf 8efe 8ebd 4165 053d
00000050: e1ef 253f 6af0 44bf f0a4 85bc 63a2 953d
00000060: defd e53f d213 c0bf 8b1a 99bd e927 9c3e
00000070: 251e 0ebf 16ad 7f3f 98fe f8bd 0ced bf3e
00000080: 9104 1d3f fb1a b9bf 3467 6ebe 0d78 2c3f
00000090: 532f 3abe d475 913c a61a 44be 97d6 213f
000000a0: ef01 243f 4be1 a8bf 3020 88bb 5f32 073f
000000b0: df78 d43e 696a 84bf d15c 973c ad83 113f
000000c0: 2a40 673e 6f9c 97bf f287 a6bd ddf1 fdbc
000000d0: 76a3 24bf 985e 57bf 27bb 3cbc b42d 33bd
000000e0: 31f5 e63e 0fdd 82bf 7cd6 5bbd 81f8 863d
000000f0: 96eb 5abf 28a1 04bf 98b9 b6bd 27b5 083e
00000100: 2f5f 403f 97f7 94bf 7be4 29bd ab42 81be
00000110: 95cd aebf 8d8c 923e a09a 86bd 572b b5be
00000120: 093b 04bf f862 82be 258a 043e 5e70 6e3d
00000130: a25a 2440 024e 3a3f 7ea2 4f3d 189c 353d
00000140: 968b d0bd ffbc 05be 9d9d 903d c7ae 6ebd
00000150: 7fa6 a03f c307 623f 52f4 3c3d c750 f8bd
00000160: 89d6 053e be6c 37be e922 40bd dbec 0cbe
00000170: ba2d e5bd 330a 1b3f e1c8 60bd da33 f4bc
00000180: 8c5e 86be 7ac2 443e a416 303f ceee a3be
00000190: 40e7 4abf 626c 883e fa66 2d3f 2cb7 a1be
000001a0: 5529 05be c14b 6e3e 8f1a 923d 01bd e33d
000001b0: 3975 dcbe 6968 d23e 539e 103d 2beb b33d
000001c0: 38bb 1dbe 417f c03e c541 21bd fac2 f53d
000001d0: 9bc4 a5bd 51d4 023f 415c 203c b44c a23d
000001e0: 5cf8 7f3e 5c4c a8be 6498 a5bc 53db 09be
000001f0: 0074 efbc 98ca efbf b001 ecbb 32b2 0dbe
00000200: 0896 993e fa24 d3be 4719 513d 4012 aa3e
00000210: c1ca 11bd ede8 e1bf a177 5dbd d5f5 b23e
00000220: 9e98 a43e 0413 a6be 886b a2be 3556 863e
00000230: c34a a8bd e24c 82bf 93bc b0be 545a 963e
00000240: c0a1 c9bd 50db 92bf 3742 2dbd df40 30bd
00000250: 962b 803f 36ac e4bf a11e ca3c a9f7 6dbd
00000260: 5776 3dbd 6767 a4bf 6c1b dbbc 2da5 aebc
00000270: eb6e 093f fe0e 0dbf 24fc 0fbd 67ea 773d
00000280: f802 9d3d ea41 9dbf 4301 d4bc 6812 c6be
00000290: 12d3 423e 2361 b53f 9560 70bb e4b8 b4be
000002a0: c893 5d3f 0d80 27bd cad3 e2bd ef9b cfbd
000002b0: fb4d 99bd 4c66 cabf e313 eebd 6bbf 19be
000002c0: 2768 e63e 8399 96be 08b5 d5be 0739 33be
000002d0: d5b2 69bd 5f41 a0bf e8e1 c5be 1a1f e9bd
000002e0: 7c12 f13e a882 e0be 5769 a83d 912a 4cbe
000002f0: 084f 07bd 58ba 9dbf a499 dc3d 0802 4abe
00000300: d4e8 a13e 5f43 2abf 7a37 37be 2526 04bf
00000310: 0506 483f cda7 d73c d5b0 07be ab71 0abf
00000320: b1a0 673e 4fa5 6ebf e45a 96be 35a7 4a3e
00000330: 594d fe3e 6c70 9d3e feb4 6abe 3a37 a03e
00000340: 9970 363e 1523 8abe c067 8bbe 83b1 923f
00000350: 9841 dc3d 8e7c 323f 68d4 aabe 59ac 893f
00000360: 063f c03e 7028 e03d dbf5 87be 89d9 53bf
00000370: 6d6b 9cbe d53a 2bbf 98e8 9cbe 2911 54bf
00000380: 6df7 b53e 207d b5be 55df aabd 349f 00bf
00000390: b6c6 8ebe de04 78be 84b2 a0bd e2d4 f1be
000003a0: e0d4 983e b5bd fbbe 6b73 0bbf a848 1bbf
000003b0: 33c2 253d 3494 d7be 1d52 f8be a74c 10bf
000003c0: 77c9 a6be a5c2 91bf a36e 97be 8f08 96bf
000003d0: 1bfb 133f 965d ddba d3dd 9abe d0f4 90bf
000003e0: 7906 3f3e 4750 7bbf b66f 103e 0685 95bd
000003f0: 5a42 133f 7f79 943e 5bc7 2a3e 16c0 6dbd

fc1.bias f4 [256]
-1.5054293 -0.08216447 -0.726266 -0.801441 -0.058944445 -0.31256393 -0.417408 -0.19860189
-1.2739849 -0.9076999 -0.85306436 -0.7138417 -0.24277592 -1.3032595 -1.0498251 -0.8136034
-1.205111 -0.45083344 -0.42811906 -0.8974754 -1.1044008 -0.32346871 -0.90407133 -1.2762468
-0.8641431 -2.5228372 -0.9297532 -0.4231051 -1.3301219 -0.6691717 -0.6281269 -1.0854923
-0.49352673 -1.1290185 -0.5055381 -0.34427017 -0.6956597 -0.46579736 -0.3439479 -0.52728134
-0.20960525 -0.83284897 -1.22617 -0.5958068 -0.40967306 0.64528745 -1.6974933 -0.2763773
-0.16813883 -1.1122086 -1.0303168 -0.3671002 -1.2946599 0.26663986 -0.7433938 -0.49598575
-0.77248037 -1.2633281 -0.4902211 -0.05063003 -1.3410194 -0.15557112 -1.014818 -0.9137474
0.08972703 -0.68801254 -1.0827324 -0.64320326 -0.925197 -1.1129848 -0.078069344 -2.0098467
-0.7720586 -0.6117213 -0.33179393 -0.93078786 -0.7329692 -0.9886893 -0.3072264 -1.2303609
-1.0118362 -1.491537 -1.3153199 -1.1844797 -1.3663524 -0.26038086 -0.79749763 -1.3045769
-0.31543654 -0.4509647 -0.7849666 -0.584482 -0.6589568 -0.9274883 -1.4360356 -0.20471056
-0.4626326 -0.73877513 -0.66642207 -0.66519564 -0.53362256 -0.40945992 -1.3565335 -0.4710504
-0.44025248 -0.5947462 -0.67778563 -0.13305058 -0.06609239 -1.2495276 -0.90450656 -1.0465398
-1.76559 -1.6301165 -1.4739785 -1.3117716 -1.85022 -0.41485286 -0.8555409 -0.5030035
-0.7949989 -0.5789294 -0.47563386 -1.1879653 -0.19814655 -0.14791305 -0.97062784 -0.7591527
-0.8528349 -0.594326 -0.875832 -0.07453369 -1.187855 -0.604265 -0.3735571 -0.59513634
-0.20835143 -0.768328 -0.3447111 -0.6960413 -1.6276121 0.23962612 -0.6833589 -0.6084387
0.43047827 -0.547892 -0.9311478 -0.1212812 -0.9717946 -1.0021017 -0.24175042 -1.100612
-0.54919964 -0.984428 -0.8091271 -1.5353856 -0.35920024 -0.17003006 -0.55444545 -0.81663686
-0.7266963 -0.31290466 -0.9023179 -0.36792257 -0.38516423 -0.6709127 0.1718619 -0.7242465
-0.75404745 0.32307732 0.3654266 -0.98358905 -0.043559752 -1.235296 -0.74066824 -0.92009044
-0.5193892 -0.89978725 -0.6929956 -0.7474265 -1.6392263 -0.610132 -0.58878165 -0.14512952
-0.5827171 -1.0326133 -0.4995024 -0.1839664 -0.20921984 0.008718183 -0.14770411 -0.8184143
-0.60568124 0.07632056 -0.6466607 -0.03493106 -1.3941182 -0.18890677 -0.88732946 -0.60098594
-0.6261007 -0.6850477 -1.765473 -0.66266936 -0.51129156 -0.35098976 -1.3020846 -0.38943627
-0.34697565 -0.7860116 0.15541536 -0.9660775 -0.57214206 -0.124491036 -0.7947682 -1.0164669
-0.2628662 -0.07427655 -0.11542709 -0.5559596 -0.56461126 -0.10243064 -0.88022053 -0.6673715
-0.61685586 -0.94827634 -0.3235439 0.48363024 -0.58504736 -0.9593936 -0.2417734 -1.1304315
-0.9014576 -0.3779177 -0.9383001 -1.2358863 -0.2865786 -0.43909043 -0.90357965 0.047688812
-0.7782918 -0.28520817 -0.46930733 -0.9159998 -0.4696968 -0.8313384 -1.2473893 -0.6302679
-0.8920654 -0.52151847 -0.37099752 -1.8311481 0.42967123 0.45127848 -0.97638845 -0.12625864
00000000: e8b1 c0bf d845 a8bd 92ec 39bf 3d2b 4dbf
00000010: bb6f 71bd 6108 a0be 80b6 d5be 4b5e 4bbe
00000020: f011 a3bf 055f 68bf 6d62 5abf 54be 36bf
00000030: 409a 78be 35d1 a6bf ab60 86bf 5048 50bf
00000040: 1441 9abf a4d3 e6be 6c32 dbbe f3c0 65bf
00000050: 015d 8dbf b19d a5be 3871 67bf 0e5c a3bf
00000060: 7b38 5dbf 2a76 21c0 4e04 6ebf 3ba1 d8be
00000070: 6f41 aabf d64e 2bbf edcc 20bf 69f1 8abf
00000080: 89af fcbe ae83 90bf f26a 01bf 2e44 b0be
00000090: c116 32bf fe7c eebe f019 b0be e9fb 06bf
000000a0: c2a2 56be 9735 55bf 23f3 9cbf cb86 18bf
000000b0: abc0 d1be 8f31 253f 7647 d9bf 5381 8dbe
000000c0: 962c 2cbe da5c 8ebf 6ce1 83bf 8ff4 bbbe
000000d0: 6ab7 a5bf 0585 883e 0e4f 3ebf d8f1 fdbe
000000e0: 46c1 45bf bcb4 a1bf 43fe fabe 6f61 4fbd
000000f0: 86a6 abbf 094e 1fbe 8ee5 81bf 59eb 69bf
00000100: cec2 b73d 9721 30bf fa96 8abf f8a8 24bf
00000110: b6d9 6cbf 4976 8ebf d2e2 9fbd 54a1 00c0
00000120: a2a5 45bf c499 1cbf e5e0 a9be 1d48 6ebf
00000130: dfa3 3bbf be1a 7dbf c74c 9dbe 777c 9dbf
00000140: d983 81bf afea bebf 675c a8bf 089d 97bf
00000150: a3e4 aebf a450 85be ce28 4cbf 60fc a6bf
00000160: e680 a1be d8e4 e6be 92f3 48bf 9da0 15bf
00000170: 65b1 28bf e06f 6dbf 04d0 b7bf a59f 51be
00000180: 2ede ecbe 5e20 3dbf a39a 2abf 434a 2abf
00000190: 7d9b 08bf bba4 d1be e4a2 adbf 852d f1be
000001a0: c668 e1be 4941 18bf 5c83 2dbf 693e 08be
000001b0: 725b 87bd 85f0 9fbf be8d 67bf 04f5 85bf
000001c0: dafe e1bf a8a7 d0bf 54ab bcbf 22e8 a7bf
000001d0: 02d4 ecbf 9867 d4be ba04 5bbf d6c4 00bf
000001e0: 0c85 4bbf b834 14bf 4886 f3be 3f0f 98bf
000001f0: eee6 4abe 8576 17be 117b 78bf d557 42bf
00000200: 6353 5abf c025 18bf 8736 60bf 1fa5 98bd
00000210: a20b 98bf 1cb1 1abf e042 bfbe db5a 18bf
00000220: 145a 55be 25b1 44bf f97d b0be c32f 32bf
00000230: 9855 d0bf 8d60 753e 9cf0 2ebf a3c2 1bbf
00000240: a667 dc3e a642 0cbf b45f 6ebf 4762 f8bd
00000250: 88c7 78bf de44 80bf 6c8d 77be dbe0 8cbf
00000260: 5998 0cbf 7903 7cbf f422 4fbf 8487 c4bf
00000270: 18e9 b7be 5c1c 2ebe 23f0 0dbf 1d0f 51bf
00000280: c508 3abf 0a35 a0be 4efe 66bf 5960 bcbe
00000290: 3f34 c5be efc0 2bbf 91fc 2f3e 3868 39bf
000002a0: 4109 41bf 646a a53e 3219 bb3e 7ecc 7bbf
000002b0: b66b 32bd 2e1e 9ebf 6f9c 3dbf 0c8b 6bbf
000002c0: b1f6 04bf 7558 66bf 2968 31bf 5857 3fbf
000002d0: 2bd2 d1bf 9c31 1cbf 65ba 16bf d59c 14be
000002e0: f32c 15bf ac2c 84bf c7be ffbe b061 3cbe
000002f0: ba3d 56be b6d6 0e3c bf3f 17be 9983 51bf
00000300: ed0d 1bbf f44d 9c3d 8e8b 25bf df13 0fbd
00000310: 7772 b2bf c770 41be 0628 63bf 37da 19bf
00000320: 2348 20bf 495f 2fbf 05fb e1bf b3a4 29bf
00000330: 01e4 02bf eeb4 b3be b5aa a6bf 3164 c7be
00000340: cba6 b1be 0e38 49bf 3425 1f3e db50 77bf
00000350: e777 12bf 28f5 febd ee75 4bbf 961b 82bf
00000360: 6696 86be 4e1e 98bd 0a65 ecbd 5e53 0ebf
00000370: 5d8a 10bf 28c7 d1bd 2256 61bf dcd8 2abf
00000380: 44ea 1dbf 3dc2 72bf 8ca7 a5be 629e f73e
00000390: aac5 15bf d29a 75bf 7293 77be fbb1 90bf
000003a0: edc5 66bf 6e7e c1be 6f34 70bf 8631 9ebf
000003b0: 6eba 92be 76d0 e0be ff50 67bf 5855 433d
000003c0: 223e 47bf ce06 92be 0d49 f0be f77e 6abf
000003d0: 197c f0be 98d2 54bf 74aa 9fbf 3d59 21bf
000003e0: 665e 64bf 3c82 05bf 63f3 bdbe 1063 eabf
000003f0: defd db3e f90d e73e 98f4 79bf f249 01be

fc2.weight f4 [128, 256]
-0.42268252 -0.010214582 -0.85923946 -0.31890723 -0.049329605 0.85286504 0.22654982 0.42190498
-0.37311882 -0.37324598 0.15719722 -0.92948425 0.02857749 0.54321307 0.43103266 -0.9280476
-0.2763185 0.09041359 -0.553226 0.123277575 -0.6237757 -0.588383 -0.22277336 -0.24650706
0.22985645 0.4973168 0.22288418 -0.44210422 0.07924728 0.7092044 0.49223205 -0.96143866
-0.03417788 0.23461261 0.014662726 0.45989043 -0.5958674 -0.099034 0.5057155 -0.021599708
0.29402253 0.026882691 0.06765613 0.51048374 0.61219716 -0.5221893 0.29653895 -0.023480013
0.3898399 -0.14444426 -0.0019062579 -0.0068153543 -0.05280053 0.19814695 -0.42801887 0.12454821
-0.82115585 0.30287626 -0.15515226 0.3040071 -0.098894745 0.21400692 0.4696329 0.5075335
0.2719972 0.28782576 0.5845334 0.32523817 0.10893518 0.3450722 0.696454 -0.059552863
-0.64054996 0.45291266 0.04845876 0.20075236 -0.8815603 -0.26809177 0.3414925 -0.29159698
-0.35721043 0.2525437 -0.32689983 0.05982709 0.20891234 0.3604463 -0.2687946 0.37321925
-0.4996707 -0.17096196 0.020181503 -0.5512804 -1.0583861 0.38336143 -0.09565127 0.697548
-0.46234113 0.11458839 -0.19270462 0.24741143 -0.22135434 -0.47581884 0.13206048 -0.31308037
0.4860626 0.118971124 0.15771306 -0.9041932 -0.3011705 -0.34823674 0.21887594 -0.28192985
-0.15861009 -0.20307696 0.005476725 0.24116845 -0.74874 -0.64070773 0.3180663 0.060990814
0.22304489 0.13012056 0.33166257 -1.0509799 0.13703547 0.014423876 -0.3741135 0.13962343
-0.61705613 0.23336476 0.4089675 -0.30999562 0.025194056 0.14567761 -0.0206635 0.09012732
0.0064934203 -0.6092874 -1.0239142 0.26340896 -0.65267175 -0.15630206 -0.28999883 -0.1675316
-0.48225302 0.18806979 0.07040419 -0.0734824 -0.35967192 -0.10004704 -0.2608747 -0.4016264
-0.37867984 0.09920414 0.20567007 -0.33097476 0.15757881 -0.1551598 0.38771552 -0.8169061
0.09455512 0.16376261 0.20032327 -0.5139358 0.16993676 0.32450143 0.7967916 -0.22070247
0.10247421 0.56337106 0.5865009 -0.75563675 1.0931698 0.07309796 0.5854848 -0.104272455
0.034208555 0.028168837 -0.105745345 0.5706085 -0.30298486 -0.5266146 0.27899775 -0.12194182
-0.18999068 -0.14207292 0.11165122 0.16325973 -0.22853455 -0.50195783 -0.33037567 0.05086812
-0.85098416 0.6492164 -0.04821227 0.29937002 -0.057607107 0.115446635 -0.35855377 -0.2304523
-0.55322963 0.7279982 -0.42937073 -0.4644996 1.2430214 -0.5873379 0.31893888 -0.7887971
-0.41510728 0.14510056 0.404226 -0.087226026 0.20447345 0.10224868 -0.29950562 -0.6213431
0.15961623 0.14236175 -0.8760568 -0.4825101 0.3455542 0.39773205 0.5849698 -0.3106382
-0.37784284 -0.16913861 0.7691006 -0.3578581 -0.45158923 -0.6075535 0.03101296 -0.14228624
0.14770262 -0.5868108 -0.6666376 -0.4305586 0.3924451 -0.40704593 -0.26935783 -0.43808237
-0.4453731 -0.006366683 -0.31639814 -0.8148614 0.034911145 0.47022918 0.13897604 -0.027783843
0.3155017 -0.13005729 0.19590957 -0.22298814 0.38565737 -0.3703907 -0.7699062 -0.6363098
00000000: d869 d8be 105b 27bc 1ef7 5bbf cf47 a3be
00000010: d70d 4abd 5d55 5a3f adfc 673e ee03 d83e
00000020: 6e09 bfbe 191a bfbe 4ff8 203e aef2 6dbf
00000030: 571b ea3c 0310 0b3f 50b0 dc3e 8794 6dbf
00000040: 9e79 8dbe c32a b93d 38a0 0dbf f478 fc3d
00000050: c4af 1fbf 45a0 16bf b31e 64be 596c 7cbe
00000060: 7d5f 6b3e 4fa0 fe3e c03b 643e 7c5b e2be
00000070: 664c a23d 6b8e 353f d705 fc3e d820 76bf
00000080: 1bfe 0bbd 4a3e 703e ee3b 703c c276 eb3e
00000090: c48a 18bf 56d2 cabd 9276 013f dff1 b0bc
000000a0: 1f8a 963e 1739 dc3c 4c8f 8a3d 10af 023f
000000b0: f4b8 1c3f 33ae 05bf f4d3 973e 2859 c0bc
000000c0: 1899 c73e 32e9 13be 67db f9ba 5653 dfbb
000000d0: 5e45 58bd 09e7 4a3e 4a25 dbbe 2213 ff3d
000000e0: 4537 52bf 9912 9b3e 3ce0 1ebe d2a6 9b3e
000000f0: 5489 cabd a124 5b3e b973 f03e b7ed 013f
00000100: 3843 8b3e e65d 933e fba3 153f 9e85 a63e
00000110: 6819 df3d 4ead b03e cf4a 323f b4ed 73bd
00000120: 15fb 23bf 2be4 e73e b17c 463d 0792 4d3e
00000130: f0ad 61bf 5343 89be 1bd8 ae3e 334c 95be
00000140: 49e4 b6be 684d 813e 6a5f a7be 400d 753d
00000150: 1eed 553e 6b8c b83e 729f 89be 9816 bf3e
00000160: d7d4 ffbe a710 2fbe ae53 a53c b620 0dbf
00000170: 3279 87bf f347 c43e d0e4 c3bd 8192 323f
00000180: fab7 ecbe 51ad ea3d 5c54 45be 6c59 7d3e
00000190: b6aa 62be 879e f3be dd3a 073e 124c a0be
000001a0: 32dd f83e 22a7 f33d 887f 213e 3579 67bf
000001b0: 0533 9abe 164c b2be 0421 603e 1c59 90be
000001c0: af6a 22be 68f3 4fbe 1976 b33b ddf4 763e
000001d0: 6dad 3fbf 6c05 24bf 96d9 a23e 81d1 793d
000001e0: e165 643e 533e 053e adcf a93e 8286 86bf
000001f0: 0753 0c3e 1f52 6c3c ce8b bfbe 72f9 0e3e
00000200: 64f7 1dbf 2cf7 6e3e 3064 d13e bfb7 9ebe
00000210: c463 ce3c 832c 153e 8046 a9bc ac94 b83d
00000220: c2c6 d43b 42fa 1bbf 9f0f 83bf 8add 863e
00000230: 7f15 27bf a60d 20be ba7a 94be 678d 2bbe
00000240: dee9 f6be 5e95 403e 1230 903d f17d 96bd
00000250: eb26 b8be 76e5 ccbd 5e91 85be faa1 cdbe
00000260: 53e2 c1be 8a2b cb3d 2d9b 523e 8675 a9be
00000270: 575c 213e 36e2 1ebe a682 c63e c220 51bf
00000280: 1da6 c13d 63b1 273e 8b21 4d3e 4c91 03bf
00000290: e703 2e3e 0d25 a63e 89fa 4b3f d4ff 61be
000002a0: 00de d13d 1639 103f ec24 163f 6971 41bf
000002b0: fdec 8b3f 62b4 953d 55e2 153f cc8c d5bd
000002c0: 451e 0c3d 55c2 e63c 0491 d8bd 6613 123f
000002d0: d520 9bbe 37d0 06bf cbd8 8e3e a2bc f9bd
000002e0: eb8c 42be 907b 11be 65a9 e43d 8f2d 273e
000002f0: f604 6abe 4f80 00bf 0027 a9be 175b 503d
00000300: 19da 59bf 0c33 263f 3b7a 45bd 0747 993e
00000310: 6ef5 6bbd 496f ec3d 5c94 b7be b0fb 6bbe
00000320: 75a0 0dbf 175e 3a3f 7bd6 dbbe e4d2 edbe
00000330: 531b 9f3f c75b 16bf f54b a33e 9bee 49bf
00000340: f188 d4be 3e95 143e b6f6 ce3e 8fa3 b2bd
00000350: 7d61 513e c267 d13d cd58 99be 5710 1fbf
00000360: 7072 233e 47c7 113e 4245 60bf 900b f7be
00000370: 7bec b03e 89a3 cb3e 95c0 153f f80b 9fbe
00000380: 9e74 c1be ac32 2dbe c7e3 443f 2d39 b7be
00000390: b436 e7be a088 1bbf e40e fe3c 7cb3 11be
000003a0: 5b3f 173e 3c39 16bf c3a8 2abf 2d72 dcbe
000003b0: 90ee c83e 5368 d0be 45e9 89be 554c e0be
000003c0: f107 e4be 9c9f d0bb f0fe a1be c29a 50bf
000003d0: fdfe 0e3d e1c1 f03e bc4f 0e3e f19a e3bc
000003e0: 7089 a13e bd2d 05be 859c 483e 0157 64be
000003f0: e274 c53e daa3 bdbe 9318 45bf 33e5 22bf

fc2.bias f4 [128]
-0.7024372 -0.692283 -0.033847205 -0.11278679 -0.26516396 -0.23320894 -0.19402878 -0.3735163
-0.44098613 -0.20565136 -0.41825163 -0.23628214 -0.6596338 -0.76124954 -0.38030535 -0.28485984
-0.7087986 -0.3490016 -0.57172775 -0.24139355 -0.25641787 -0.41173035 -0.27342957 -0.5355537
0.06489923 -0.22168966 -0.9999191 -0.47839957 -0.317675 -0.15742864 -0.4095872 -0.55804914
-0.2931486 0.046823137 -0.36401296 -0.11012255 -0.042049225 -0.3819453 -0.3430169 -0.24661662
-0.42404324 -0.18671587 -0.4055466 -0.41125637 -0.18084413 -0.2261262 -0.7003776 -0.35373023
-0.254655 -0.014867905 -0.7963166 -0.5790669 -0.059723534 -0.23168097 -0.008763547 0.07705761
-0.40910783 -0.07592564 0.013666951 0.048203547 -0.42107162 -0.8076069 0.011211111 -0.3541337
-0.25346887 -0.63357735 -0.12284259 -0.3049645 -0.33869705 -0.1279539 -0.23107845 -0.12218676
-0.10996967 -0.2535849 -0.06336538 -0.38730392 -0.31138048 -0.23343854 -0.27854937 -0.30097583
-0.70464426 -0.5652829 -0.1990265 -0.12935956 -0.62029606 -0.30070743 -0.77836233 -0.94897777
-0.06873947 -0.4347004 -0.72949743 -0.21605521 0.046532385 -0.9005034 -0.09668757 -1.0824547
-0.20426326 -0.14268059 -0.33319473 -0.07852346 -0.5518235 -0.17523761 -0.12120787 -0.004572998
0.046795942 -0.47147614 -1.0660685 0.021549294 -0.17276788 -0.09079918 -0.30235633 -0.64886457
0.29264095 -0.11931357 -0.6748927 -0.47122636 -0.2945028 -0.05117831 -0.2246783 -0.2542673
-0.42275763 -0.3429495 -0.56734294 -0.46960717 -0.8558281 -0.26177046 -0.089983135 -0.35152152
00000000: edd2 33bf 7539 31bf 5ea3 0abd c3fc e6bd
00000010: 92c3 87be 53ce 6ebe 7baf 46be 873d bfbe
00000020: efc8 e1be 4596 52be 1425 d6be f2f3 71be
00000030: c3dd 28bf 40e1 42bf 62b7 c2be 26d9 91be
00000040: d373 35bf 56b0 b2be c05c 12bf df2f 77be
00000050: 3449 83be 52ce d2be f6fe 8bbe 0c1a 09bf
00000060: e3e9 843d 9d02 63be b3fa 7fbf caf0 f4be
00000070: 4ca6 a2be f934 21be 6ab5 d1be 4fdc 0ebf
00000080: 9317 96be 9ec9 3f3d e85f babe ee87 e1bd
00000090: cf3b 2cbd 568e c3be e99f afbe 1189 7cbe
000000a0: 321c d9be 7232 3fbe cea3 cfbe 3290 d2be
000000b0: 342f 39be a08d 67be f24b 33bf 211c b5be
000000c0: 2462 82be 8398 73bc 68db 4bbf ba3d 14bf
000000d0: aaa0 74bd c73d 6dbe fb94 0fbc 61d0 9d3d
000000e0: 9576 d1be e77e 9bbd 59eb 5f3c 1571 453d
000000f0: b396 d7be 53bf 4ebf cfae 373c 0351 b5be
00000100: acc6 81be 2032 22bf e594 fbbd 4f24 9cbe
00000110: b369 adbe 5906 03be d49f 6cbe 0d3d fabd
00000120: c737 e1bd e1d5 81be b5c5 81bd b34c c6be
00000130: 436d 9fbe 830a 6fbe 069e 8ebe 8119 9abe
00000140: 9163 34bf 61b6 10bf 9acd 4bbe d576 04be
00000150: b9cb 1ebf 53f6 99be c142 47bf 35f0 72bf
00000160: 47c7 8cbd 0d91 debe 58c0 3abf 943d 5dbe
00000170: be98 3e3d 6487 66bf 2204 c6bd e08d 8abf
00000180: 632a 51be dc1a 12be 8098 aabe e8d0 a0bd
00000190: 4e44 0dbf 7d71 33be d53b f8bd 16d9 95bb
000001a0: 1aad 3f3d 5265 f1be ef74 88bf 2588 b03c
000001b0: 10ea 30be ecf4 b9bd 73ce 9abe fd1b 26bf
000001c0: 09d5 953e ac5a f4bd c5c5 2cbf 9544 f1be
000001d0: 12c9 96be 59a0 51bd 1112 66be 532f 82be
000001e0: b073 d8be 1497 afbe 633d 11bf 5a70 f0be
000001f0: 8d17 5bbf c706 86be 1449 b8bd a1fa b3be

out.weight f4 [2, 128]
-0.6575334 -0.4137908 -0.008502836 0.353992 -0.011985135 -0.027040025 -0.21053042 0.22998181
-0.40431097 0.25430658 0.47541672 0.79170644 -0.27452573 -0.92078 -0.07432859 0.7292886
-0.037799224 -0.17810927 0.16480197 0.65659106 -0.16485249 -0.49216583 -0.17941196 -0.45592692
0.22286731 0.20138158 -0.15404671 0.46034545 0.024122115 -0.09796931 0.61914736 -0.7717979
-0.554002 -0.021304414 0.49419105 -0.022929661 -0.31584808 0.12615262 0.8199668 0.2929818
-0.41824073 -0.025574544 0.29956692 -0.2596311 0.047213096 -0.010245651 -0.5832658 -0.22608335
0.26925102 0.08239682 -0.37578008 -0.36533913 -0.117937826 -0.21588576 -0.10418767 -0.40507823
-0.24550383 -0.092287146 -0.18063454 0.06604431 0.92109185 -0.5518155 -0.68392634 0.02565041
0.2582052 -0.17721462 -0.21927081 0.43641454 0.4406319 -0.16337301 0.09345377 -0.19441131
0.29452842 0.31661007 -0.25660577 0.31807697 0.30062127 0.005751501 -0.13022529 -0.046916954
0.5768502 0.5065423 0.5694344 -0.10605473 -0.22076899 0.58919346 0.48175198 -0.50770116
0.044219527 0.18647131 0.21187899 -0.08404841 -0.02679707 0.33255237 -0.5688093 -0.66534257
-0.57322246 0.48264512 -0.10319057 -0.0069371555 -0.620981 -0.2560111 -0.25418508 0.011688085
0.009568115 -0.09914926 -0.2658731 -0.38033321 0.099042825 -0.169706 0.33030796 -0.68152183
0.08202041 0.42722735 -0.01707323 0.57114273 -0.008141552 0.01739848 0.08361691 0.7521455
-0.21373348 0.6286692 1.5870945 -0.086616956 -0.7331296 0.59914076 0.10462811 -0.20451498
0.2736983 0.9163651 1.1029525 0.03970513 -1.4721637 1.460774 -0.13707915 -0.01988374
0.7668959 0.038247257 -0.09866462 -0.055311963 -1.3573571 -0.52602124 -0.9924511 0.1326028
1.2374467 -0.3299767 -0.810053 -0.8051972 0.20007974 -0.54046655 -0.3816284 0.20639516
-0.83346 -1.0004839 0.6869213 -0.76687086 0.8709153 0.7449116 -0.6128952 0.66508746
0.41892293 0.86276263 0.7236959 1.320007 0.48558939 0.86091024 -0.17403117 1.0880967
-0.4140697 -1.0213602 -0.73803556 0.06910202 0.76940906 -1.1134912 0.39147708 -0.77177393
-1.1532443 0.453428 -0.99097633 -0.7511013 -0.4246895 -1.0283861 -1.3353087 -0.287161
0.25227433 -0.28059292 -0.7685541 -0.65076596 -0.10049528 -0.49243546 -0.11934517 1.0859572
1.1884495 1.2281178 -0.6624408 0.053557944 0.4113363 0.9347128 -1.2499406 0.08996729
0.7074792 0.23773341 -0.7769463 1.4346668 -0.41340527 0.788988 0.6144362 -0.95857835
-0.3825364 0.8082357 0.49477828 0.8133794 -0.7838685 0.22254865 -0.011252901 -0.020992236
0.63465506 -0.77108246 -1.0395552 0.65979993 0.810017 -1.3535215 -0.55737257 0.5722765
0.60918766 -0.4455297 0.59654844 -1.180484 -0.14600238 0.16196796 -0.6070716 -0.9574272
-0.75099415 -0.29290977 -0.020796858 -0.26445797 -0.5940816 0.34827197 0.42991942 -0.3185095
0.2387023 -0.7382002 1.1479234 0.3513066 -0.87334627 -0.85247135 1.8588375 0.62591356
0.10943639 0.29520473 -0.1340256 0.2082291 0.08844562 0.7165666 0.98699623 0.6436511
00000000: 1c54 28bf 63dc d3be 7b4f 0bbc 703e b53e
00000010: 4d5d 44bc 0b83 ddbc 4995 57be 5a80 6b3e
00000020: d901 cfbe 7934 823e d269 f33e 46ad 4a3f
00000030: a38e 8cbe 3db8 6bbf 9639 98bd a8b2 3a3f
00000040: 5cd3 1abd 4762 36be d9c1 283e 5a16 283f
00000050: 17cf 28be 29fd fbbe c5b7 37be 416f e9be
00000060: 5437 643e f936 4e3e 6cbe 1dbe 66b2 eb3e
00000070: be9b c53c 22a4 c8bd 7180 1e3f 8c94 45bf
00000080: 13d3 0dbf 9886 aebc 9c06 fd3e fcd6 bbbc
00000090: d7b6 a1be 272e 013e 58e9 513f b601 963e
000000a0: a623 d6be b581 d1bc d660 993e 5eee 84be
000000b0: 8562 413d 60dd 27bc e850 15bf 6582 67be
000000c0: 45db 893e aabf a83d 3f66 c0be bb0d bbbe
000000d0: 6389 f1bd 2811 5dbe 5860 d5bd 6a66 cfbe
000000e0: 5b65 7bbe 0b01 bdbd 43f8 38be 3d42 873d
000000f0: adcc 6b3f c843 0dbf cc15 2fbf cf20 d23c
00000100: 7933 843e c077 35be 8788 60be ba71 df3e
00000110: 819a e13e 414b 27be b164 bf3d c213 47be
00000120: 6ecc 963e b71a a23e d561 83be fcda a23e
00000130: 08eb 993e 1677 bc3b c759 05be fe2b 40bd
00000140: 74ac 133f c2ac 013f 74c6 113f 3933 d9bd
00000150: 4411 62be 62d5 163f 32a8 f63e b4f8 01bf
00000160: 891f 353d 56f2 3e3e cef6 583e 9321 acbd
00000170: 8785 dbbc 4e44 aa3e 7c9d 11bf e453 2abf
00000180: b5be 12bf 431d f73e 9455 d3bd 1451 e3bb
00000190: 9cf8 1ebf e313 83be 8c24 82be 627f 3f3c
000001a0: 95c3 1c3c c40e cbbd 8520 88be 09bb c2be
000001b0: f7d6 ca3d 69c7 2dbe 201e a93e 3778 2ebf
000001c0: 51fa a73d 8bbd da3e 29dd 8bbc 6936 123f
000001d0: 2564 05bc 4287 8e3c 583f ab3d 9c8c 403f
000001e0: f3dc 5abe 77f0 203f ea25 cb3f 3b64 b1bd
000001f0: 62ae 3bbf 4a61 193f 4347 d63d 606c 51be
00000200: 2f22 8c3e e796 6a3f 8c2d 8d3f d9a1 223d
00000210: dc6f bcbf a4fa ba3f 7a5e 0cbe 3ae3 a2bc
00000220: 4a53 443f 28a9 1c3d ad10 cabd cc8e 62bd
00000230: e1bd adbf 54a9 06bf 4611 7ebf 07c9 073e
00000240: a764 9e3f b5f2 a8be a25f 4fbf 6721 4ebf
00000250: b4e1 4c3e 045c 0abf cc64 c3be 4159 533e
00000260: a25d 55bf db0f 80bf 13da 2f3f a651 44bf
00000270: 4ef4 5e3f 87b2 3e3f b3e6 1cbf 2c43 2a3f
00000280: 117d d63e 03de 5c3f 2244 393f fdf5 a83f
00000290: 2c9f f83e 9d64 5c3f 3a35 32be c146 8b3f
000002a0: f200 d4be eebb 82bf e6ef 3cbf 5c85 8d3d
000002b0: fef7 443f e186 8ebf af6f c83e fa92 45bf
000002c0: 829d 93bf b727 e83e a0b0 7dbf 2d48 40bf
000002d0: e770 d9be 28a2 83bf 65eb aabf c406 93be
000002e0: 1a2a 813e e0a9 8fbe f6bf 44bf 9998 26bf
000002f0: 78d0 cdbd 8020 fcbe 3e6b f4bd a500 8b3f
00000300: 1d1f 983f f732 9d3f b895 29bf 935f 5b3d
00000310: ac9a d23e 5749 6f3f 0efe 9fbf c540 b83d
00000320: 5b1d 353f 6370 733e f4e5 46bf 29a3 b73f
00000330: dba9 d3be 1efb 493f b14b 1d3f 6465 75bf
00000340: d0db c3be 89e8 4e3f 9453 fd3e a239 503f
00000350: 9bab 48bf cbe3 633e 165e 38bc e9f7 abbc
00000360: c178 223f a965 45bf 2510 85bf a6e8 283f
00000370: 465d 4f3f 3140 adbf f8af 0ebf b680 123f
00000380: b9f3 1b3f 781c e4be 66b7 183f 1a1a 97bf
00000390: a681 15be eeda 253e 0b69 1bbf f319 75bf
000003a0: 2741 40bf 45f8 95be 2c5e aabc 0967 87be
000003b0: bb15 18bf b450 b23e 661e dc3e ad13 a3be
000003c0: 606e 743e b0fa 3cbf 27ef 923f 75de b33e
000003d0: 9f93 5fbf 903b 5abf 63ee ed3f df3b 203f
000003e0: 3020 e03d 1325 973e 023e 09be 023a 553e
000003f0: fa22 b53d e970 373f c9ab 7c3f 52c6 243f

out.bias f4 [2]
-0.2059473 -0.036999363
00000000: d9e3 52be a58c 17bd

bn1.weight f4 [256]
0.13412376 0.6936806 1.1067231 0.9035679 0.023350341 0.30235788 1.08455 0.52404743
0.54405344 0.7249926 0.3301347 0.726331 0.31245553 0.88873994 0.39061356 0.90533894
0.5539885 0.5224574 0.5298484 0.39493918 0.41061908 0.3752282 0.35680312 0.5449868
0.2670411 1.4426126 0.39744103 0.5458698 0.6366222 0.81211156 0.3715122 0.79932326
0.44306323 0.42224842 0.43990996 0.39189705 0.36726138 0.3902221 1.308285 0.49254212
0.75483173 -0.94973105 0.40768826 1.1134945 0.66862386 1.9731579 0.21345127 0.67317414
2.0918405 1.7832373 0.7837122 0.76266664 0.58678156 1.9492314 0.69543767 0.41315344
0.7804454 0.11841716 0.29521868 0.43617356 0.80528325 0.7655712 0.45412567 0.21928337
1.5123873 0.71589285 0.6844042 0.095172614 0.88001037 1.7323543 0.80753195 0.7709296
0.22816534 0.37589347 0.66842896 0.53494 0.5189242 0.8473145 0.54280823 0.49648264
0.2010082 1.3744637 0.18454991 0.59093636 0.8085977 0.7327538 0.522219 1.5533552
0.545149 0.47937787 0.7968331 0.48174685 0.7867866 0.6030084 0.73520356 0.75357366
0.8046913 -0.59521276 0.9233508 0.27505374 0.57337284 0.68847567 0.2956131 0.09400081
0.49577758 0.6857815 0.48043656 0.35108584 0.86350185 0.6874156 0.40840158 0.6713959
0.8778915 0.6307367 0.6746515 0.36853272 1.0349256 0.99256957 0.3528486 0.65355444
0.71523994 0.6044946 0.537453 0.92672086 0.41827247 0.47498673 0.83375967 0.26388606
0.47230834 0.7040819 0.8402071 0.84894925 0.21543147 0.6049135 0.70002186 -0.038278043
0.6729744 0.45029482 0.61705387 0.740674 0.113749765 0.6769451 0.61714375 0.50712824
1.0605339 0.90625316 0.6414881 0.53245074 0.34247756 0.05726957 0.64740235 0.7954347
1.3446798 0.47615406 0.24512628 1.01109 0.4217686 0.9259553 1.0509791 0.75348854
0.39752737 0.08185734 0.65002733 0.1825296 0.2610084 0.05096272 1.204881 1.471152
0.431331 0.84515387 0.012959414 0.8734424 1.6187513 0.62920994 0.33579153 0.46609735
-0.011919837 0.36065167 0.3876453 0.19331422 1.4236804 1.672187 0.403008 0.6694492
0.5984012 0.7006275 0.30181417 0.39105082 0.21165836 2.3574018 0.5983081 0.01578693
0.90561867 1.0633212 0.4677965 0.10148413 0.4625164 0.51675814 1.7381108 0.4622231
0.77207303 0.5872133 1.0128905 0.5897613 1.4897977 0.49952278 0.87682164 0.9127795
0.91328675 0.64945143 1.092862 1.063023 1.2552688 0.81071067 -0.48970538 0.3659935
0.6764848 0.53625214 0.16310774 1.1089468 0.5433915 0.6565338 0.3618686 0.74699587
0.93890065 0.25555283 1.323764 2.2483559 0.4306106 0.6479621 0.21568768 0.78323966
0.5009902 0.5744976 0.45830157 1.1098105 1.0173032 0.3903864 0.83784115 0.5136335
0.21329172 0.9814518 0.2883004 0.30489838 0.19308601 0.46010324 0.28830796 0.57222533
0.8736228 0.6478371 0.63373804 0.22279754 1.2243505 0.5678881 0.19736072 1.1019131
00000000: bd57 093e 0d95 313f 1aa9 8d3f 3a50 673f
00000010: 3749 bf3c a7ce 9a3e 89d2 8a3f f927 063f
00000020: 1647 0b3f 1d99 393f 6a07 a93e d4f0 393f
00000030: 2cfa 9f3e 7684 633f 80fe c73e 4bc4 673f
00000040: 31d2 0d3f c5bf 053f 25a4 073f 7835 ca3e
00000050: aa3c d23e e91d c03e e6ae b63e 4184 0b3f
00000060: 9cb9 883e 88a7 b83f 647d cb3e 20be 0b3f
00000070: acf9 223f 8be6 4f3f d936 be3e 73a0 4c3f
00000080: 2fd9 e23e f230 d83e e13b e13e bba6 c83e
00000090: af09 bc3e 31cb c73e e275 a73f 7b2e fc3e
000000a0: a73c 413f 9321 73bf 84bc d03e fd86 8e3f
000000b0: ef2a 2b3f 7090 fc3f f892 5a3e 2455 2c3f
000000c0: b7e0 0540 1f41 e43f 5da1 483f 1f3e 433f
000000d0: 5137 163f 6a80 f93f 3408 323f d988 d33e
000000e0: 45cb 473f b284 f23d e726 973e 2452 df3e
000000f0: 0b27 4e3f 79fc 433f 2983 e83e d28b 603e
00000100: e895 c13f c144 373f 1d35 2f3f dce9 c23d
00000110: 5c48 613f c9bd dd3f 6aba 4e3f a45b 453f
00000120: 2da4 693e 1c75 c03e 291e 2b3f d4f1 083f
00000130: 37d8 043f 9ae9 583f 7bf5 0a3f f932 fe3e
00000140: 18d5 4d3e 6dee af3f a7fa 3c3e 9b47 173f
00000150: 4200 4f3f c195 3b3f 25b0 053f 58d4 c63f
00000160: e38e 0b3f 0471 f53e 41fd 4b3f 86a7 f63e
00000170: d96a 493f c25e 1a3f 4d36 3c3f 34ea 403f
00000180: 4000 4e3f dd5f 18bf b860 6c3f d8d3 8c3e
00000190: 90c8 123f f13f 303f 9a5a 973e 7f83 c03d
000001a0: 8fd6 fd3e 608f 2f3f c8fb f53e 86c1 b33e
000001b0: 750e 5d3f 78fa 2f3f 031a d13e 9ae0 2b3f
000001c0: 7fbd 603f f677 213f f6b5 2c3f 52b0 bc3e
000001d0: 7178 843f 0a19 7e3f 92a8 b43e 584f 273f
000001e0: f719 373f 28c0 1a3f 8596 093f 943d 6d3f
000001f0: cf27 d63e 7631 f33e 4671 553f 131c 873e
00000200: 66d2 f13e b63e 343f d017 573f bd54 593f
00000210: 119a 5c3e 9cdb 1a3f a234 333f 70c9 1cbd
00000220: 0d48 2c3f 0b8d e63e 3ef7 1d3f d09c 3d3f
00000230: a3f5 e83d 464c 2d3f 22fd 1d3f 28d3 013f
00000240: 93bf 873f 3500 683f 9038 243f b14e 083f
00000250: 3859 af3e 7f93 6a3d 29bc 253f 9ca1 4b3f
00000260: 781e ac3f 77ca f33e 6202 7b3e 666b 813f
00000270: 0ef2 d73e 680b 6d3f 7c86 863f a0e4 403f
00000280: b588 cb3e d2a4 a73d 3168 263f 0ae9 3a3e
00000290: e5a2 853e 49be 503d 8a39 9a3f b54e bc3f
000002a0: 6bd7 dc3e 015c 583f b953 543c ec99 5f3f
000002b0: 3e33 cf3f e713 213f deec ab3e 50a4 ee3e
000002c0: 6c4b 43bc 56a7 b83e 7279 c63e 2af4 453e
000002d0: 293b b63f 390a d63f 1157 ce3e 0661 2b3f
000002e0: d230 193f 535c 333f 6387 9a3e d037 c83e
000002f0: f8bc 583e acdf 1640 b82a 193f 9853 813c
00000300: a0d6 673f e91a 883f 0683 ef3e e9d6 cf3d
00000310: f3ce ec3e 434a 043f 6a7a de3f 82a8 ec3e
00000320: 94a6 453f 9c53 163f 65a6 813f 99fa 163f
00000330: b1b1 be3f 73c1 ff3e 6277 603f ebab 693f
00000340: 29cd 693f 7342 263f e7e2 8b3f 2311 883f
00000350: a6ac a03f bc8a 4f3f aaba fabe 8063 bb3e
00000360: 1c2e 2d3f d247 093f b705 273e f8f1 8d3f
00000370: b51b 0b3f 9912 283f d746 b93e 1f3b 3f3f
00000380: cb5b 703f d2d7 823e 1971 a93f 10e5 0f40
00000390: fe78 dc3e d8e0 253f 3bdd 5c3e 6582 483f
000003a0: e540 003f 4612 133f 81a6 ea3e 450e 8e3f
000003b0: fe36 823f bae0 c73e c27c 563f 7c7d 033f
000003c0: 2569 5a3e 6d40 7b3f 1c9c 933e a41b 9c3e
000003d0: 57b8 453e a792 eb3e 1a9d 933e 5c7d 123f
000003e0: bea5 5f3f a7d8 253f a83c 223f 0a25 643e
000003f0: 84b7 9c3f 1d61 113f ee18 4a3e 7d0b 8d3f

bn1.bias f4 [256]
0.09594363 0.18821478 0.4810182 0.63583773 -0.011770852 -0.042961244 0.58057386 0.03952818
0.2318366 0.38951558 0.28402036 0.49417076 0.07067476 0.6030848 -0.005534923 0.35576573
0.5783715 0.13722746 1.2867258 0.026215518 0.3096354 0.90132874 0.35734552 0.2638277
0.056829873 0.4059799 -0.95362145 0.22249258 0.39151105 -0.06815768 0.057252824 0.24868576
0.07474785 0.14516778 0.24412924 -0.20176499 0.19413222 0.21712326 -0.017147189 0.2597992
0.312609 -1.0258008 0.056006588 0.12486923 0.07164509 0.60238355 -0.1909418 0.18280496
-0.13252279 0.13775718 0.07818295 0.18476188 0.13955006 0.9566348 0.14630288 0.13282736
0.35736114 -0.085472316 0.19412693 0.09054141 0.2997259 0.2118921 0.13944829 0.037620574
0.20379966 0.21261674 0.20584583 0.03574082 0.13962713 0.21203092 -0.056263205 0.04458445
0.08792402 -0.023190627 0.25720793 0.39976126 1.1876373 0.5548271 -0.08305595 0.12538183
0.061080858 0.52245617 0.0872768 0.14954469 0.35300803 0.20964922 -0.003535147 0.4332931
0.33938113 0.24884017 -0.10254658 0.44929144 0.5067053 -0.14383377 0.3260587 -0.022752559
0.33337417 -0.1273202 0.3095072 0.0964482 0.32421038 0.14746474 0.08525702 0.15779075
0.025621561 0.33722213 0.24053754 1.5260426 0.25221047 0.53492796 0.11652803 0.13211182
0.09002918 0.46909925 0.2883138 -0.109516315 0.66211814 0.41355312 -0.12136714 0.14212365
0.056909133 0.11626935 -0.04579232 0.71099997 0.13828766 0.07791072 0.24518628 -0.014666626
0.5434856 0.20368214 0.2032045 0.91182685 -0.07133499 0.06564378 0.10877737 -0.014364558
0.16117097 0.25997758 0.41384703 0.24197483 0.03389815 0.3270936 0.14370723 0.41590935
0.10679818 0.17321792 -0.14628817 0.0011990997 0.15321739 -0.08772739 0.015995003 0.53244084
0.24839106 0.20992392 -0.047933124 0.4809645 0.2613964 0.6705182 0.45302674 0.32176718
0.33877298 0.005359112 -0.01191852 0.19218169 -0.0100762565 0.006252127 0.1575078 0.0673756
-0.042905048 -0.15966289 -0.968396 0.5214895 -0.48263702 0.25065416 0.047136296 0.02695353
-0.015134612 0.21954362 0.5390655 -0.079001725 0.3848056 0.21145365 -0.039740846 0.13806012
0.14543858 0.301544 0.040761467 0.30530557 0.11989055 0.2818851 0.45176372 -0.0019871325
0.5607597 -0.5122652 0.2933208 -0.00664761 0.16528939 0.22439532 0.527332 0.36280406
0.35086235 0.18985207 0.34832847 0.3680575 0.020546166 0.2497754 -0.039868552 0.22183241
0.24020635 0.06734381 0.3405134 0.5082492 0.25072497 0.118795775 -0.12113089 0.7401342
0.2223211 0.12598418 0.32257515 0.6860789 0.09473019 -0.0034623349 -0.009439203 0.42470464
0.38750595 0.015492116 0.19909155 0.09605943 0.15601367 0.2014306 0.12303216 0.4743362
0.008961007 -0.06807016 0.98246354 0.35863805 0.12357031 0.5755495 0.594126 0.29083073
0.08271768 0.38698113 0.06421717 0.18008044 -0.035625823 0.07217085 0.20443559 0.4333182
0.43872342 0.25843063 -0.23548229 0.087068304 0.023618156 0.6809928 0.21519978 0.7135114
00000000: 187e c43d 60bb 403e 0448 f63e 43c6 223f
00000010: 88da 40bc 21f8 2fbd 7da0 143f 4de8 213d
00000020: 9366 6d3e 966e c73e 1e6b 913e f303 fd3e
00000030: eebd 903d c463 1a3f 4d5e b5bb ed26 b63e
00000040: 2810 143f 5b85 0c3e 6eb3 a43f edc1 d63c
00000050: 8888 9e3e 7bbd 663f fef5 b63e 6d14 873e
00000060: 71c6 683d 99dc cf3e 8920 74bf 18d5 633e
00000070: 2374 c83e 4196 8bbd f081 6a3d 7ba7 7e3e
00000080: 6715 993d dda6 143e 04fd 793e 7b9b 4ebe
00000090: 99ca 463e 8f55 5e3e 4378 8cbc 6704 853e
000000a0: 490e a03e 714d 83bf 2a67 653d 70bb ff3d
000000b0: a9ba 923d cf35 1a3f 3f86 43be 3931 3b3e
000000c0: 0eb4 07be 3810 0d3e 621e a03d 3832 3d3e
000000d0: 36e6 0e3e 05e6 743f 6cd0 153e e503 083e
000000e0: 0af8 b63e 1c0c afbd 36c9 463e c66d b93d
000000f0: ac75 993e 3efa 583e 88cb 0e3e 0818 1a3d
00000100: dcb0 503e 34b8 593e 40c9 523e f764 123d
00000110: 6afa 0e3e a21e 593e 3f74 66bd 2f9e 363d
00000120: 8211 b43d 45fa bdbc c2b0 833e 82ad cc3e
00000130: 8004 983f 2609 0e3f 3d19 aabd 1864 003e
00000140: ec2f 7a3d b0bf 053f 2ebe b23d 3e22 193e
00000150: 78bd b43e 49ae 563e edad 67bb 98d8 dd3e
00000160: 5dc3 ad3e f5cf 7e3e f103 d2bd 8709 e63e
00000170: 70b7 013f 2949 13be 2af1 a63e 9363 babc
00000180: 05b0 aa3e 3a60 02be ba77 9e3e a286 c53d
00000190: e7fe a53e ff00 173e 3c9b ae3d e693 213e
000001a0: 4fe4 d13c 61a8 ac3e 794f 763e 5d55 c33f
000001b0: bb21 813e 0af1 083f 3fa6 ee3d 5248 073e
000001c0: 3861 b83d c72d f03e de9d 933e 174a e0bd
000001d0: 9380 293f 3cbd d33e 568f f8bd dd88 113e
000001e0: 8d19 693d a01e ee3d ba90 3bbd 1804 363f
000001f0: 489b 0d3e a88f 9f3d 1d12 7b3e 4a4c 70bc
00000200: df21 0b3f 0d92 503e d714 503e 7c6d 693f
00000210: 1418 92bd 3f70 863d abc6 de3d 5359 6bbc
00000220: 010a 253e c81b 853e c2e3 d33e 40c8 773e
00000230: c9d8 0a3d d078 a73e fd27 133e 12f2 d43e
00000240: 01b9 da3d 0a60 313e 91cc 15be 1c2b 9d3a
00000250: 05e5 1c3e 6baa b3bd f407 833c 0b4e 083f
00000260: 3a5a 7e3e 4cf6 563e 8655 44bd fb40 f63e
00000270: c0d5 853e 15a7 2b3f 1ff3 e73e abbe a43e
00000280: a773 ad3e 7d9b af3b e545 43bc 47cb 443e
00000290: e216 25bc a4de cc3b ba49 213e 38fc 893d
000002a0: 34bd 2fbd ab7e 23be cde8 77bf 5680 053f
000002b0: 331c f7be be55 803e fd11 413d a6cd dc3c
000002c0: 2af7 77bc 0bd0 603e 3200 0a3f a8cb a1bd
000002d0: 3d05 c53e 4e87 583e 4cc7 22bd a25f 0d3e
000002e0: daed 143e fa63 9a3e 7ff5 263d 0351 9c3e
000002f0: 2d89 f53d 3e53 903e 934d e73e 8d3a 02bb
00000300: f38d 0f3f d023 03bf 252e 963e 32d4 d9bb
00000310: 9f41 293e e3c7 653e 3bff 063f 74c1 b93e
00000320: 3ba4 b33e 9568 423e 1c58 b23e 0872 bc3e
00000330: 6f50 a83c 1fc5 7f3e 354d 23bd 0928 633e
00000340: a7f8 753e 8deb 893d c657 ae3e 9f1c 023f
00000350: 065f 803e 334b f33d 7913 f8bd 6f79 3d3f
00000360: 24a8 633e ff01 013e 9228 a53e dea2 2f3f
00000370: e701 c23d 57e8 62bb e3a6 1abc e372 d93e
00000380: 2e67 c63e a5d2 7d3c a8de 4b3e ceba c43d
00000390: 0cc2 1f3e d343 4e3e 49f8 fb3d 32dc f23e
000003a0: 30d1 123c 5e68 8bbd bb82 7b3f 689f b73e
000003b0: 6e12 fd3d 3657 133f a418 183f c4e7 943e
000003c0: e367 a93d 6422 c63e 4b84 833d 0267 383e
000003d0: 62ec 11bd 50ce 933d 9057 513e e2db dd3e
000003e0: 5ba0 e03e 0551 843e 4522 71be de50 b23d
000003f0: dd7a c13c 8b55 2e3f 555d 5c3e afa8 363f

bn1.running_mean f4 [256]
13.9465 0.5302404 1.736431 15.589795 23.123089 0.065268725 2.326162 -0.042393856
4.113562 3.3994994 6.247997 3.0183997 0.7029165 9.153245 3.4057455 0.96213347
3.122623 0.4790468 5.8574743 -0.18465656 4.5533886 14.872233 10.307001 0.37621966
2.9246697 3.1864364 13.172812 2.0893357 2.3132954 0.13221627 3.5016403 0.9808794
-0.14943053 1.3135929 4.145517 0.38682643 4.5446076 2.9498866 1.9251022 1.5961603
1.5563899 2.9535315 1.4936001 0.079285905 0.85445374 4.527516 0.6723188 21.101446
10.049274 3.6300924 1.8525463 0.4539783 2.1530225 0.94682026 4.5195937 0.72180647
4.432555 10.760422 1.7181115 1.4181703 2.3785303 1.4074999 0.7832877 0.021998812
0.76862144 0.39863548 2.9104204 2.732148 0.3883761 10.810289 0.38426158 10.450024
4.405654 1.2957398 3.8693085 9.168313 7.9781456 -0.4151263 -0.11856667 3.0147774
2.4525619 0.1865337 23.312346 4.607395 7.1610355 0.42612815 32.688995 7.2002983
5.992925 5.0026464 0.99260116 13.511654 2.5933645 6.3584566 1.5839065 3.412101
0.21109496 13.848805 0.5217849 6.854049 2.0292969 0.12170303 4.322665 16.381289
1.7750838 7.5866146 3.4885073 5.3832803 0.18829134 13.130009 0.2305785 5.6495028
1.9519188 -0.40048057 4.5107584 0.4464965 9.498666 15.519437 2.6299531 3.7548542
0.16365336 0.60930544 0.59062475 0.40088412 4.905108 2.2099066 0.83182335 14.754556
6.1235313 1.7299329 4.6655602 0.25728038 0.2842854 0.04003117 12.566596 12.28099
2.0526114 11.832021 7.811792 5.1177397 5.8875346 0.2284923 3.1212122 7.678856
11.759446 -0.06881365 6.7593894 3.5989296 2.8984504 10.166252 0.8358244 2.0199726
1.151626 6.0386076 1.6880563 4.8375216 1.3204309 3.6230357 0.16432855 3.3440077
4.8221517 -0.032903075 5.2044215 5.77299 -0.0071540806 -0.025450913 0.8525019 7.391637
0.04730558 0.060986564 13.075522 5.7352157 0.58943003 0.16212465 0.34500358 4.666711
0.9121149 11.72314 0.9283876 1.9181753 2.1949246 1.1529737 3.1322677 1.1263533
1.3005317 2.4877305 4.098288 3.712941 10.223345 2.225739 2.7355645 14.213935
3.6520395 1.0769272 9.19968 13.216987 2.2074118 1.2477107 8.756539 12.061894
5.3780537 0.6729003 1.8800646 1.1264825 0.34929514 4.0014606 -0.028977798 7.6574125
0.38123882 0.34251612 2.1838825 4.8232927 20.274261 0.84769225 0.05651663 2.9177074
5.3753414 0.237487 11.664451 4.9315777 0.54017794 0.12876529 0.39207408 8.619785
1.7693554 3.3659034 0.29558954 6.714446 4.976462 1.3659506 3.4525223 12.506143
0.52093774 0.5321254 6.1999135 4.9395843 6.334692 1.4595704 4.4936466 10.451153
4.705956 1.9194598 -0.12877281 11.823531 2.0407944 0.43421093 1.19534 8.717759
0.12255962 5.9627404 0.8220291 0.92407674 2.008134 21.134653 26.166948 5.448897
00000000: dd24 5f41 d6bd 073f 5f43 de3f cd6f 7941
00000010: 16fc b841 9cab 853d d7df 1440 2ea5 2dbd
00000020: 4da2 8340 6691 5940 97ef c740 762d 4140
00000030: 56f2 333f b173 1241 bcf7 5940 614e 763f
00000040: 0ed9 4740 9f45 f53e 6e70 bb40 9c16 3dbe
00000050: 5cb5 9140 abf4 6d41 7ae9 2441 dd9f c03e
00000060: ca2d 3b40 93ee 4b40 d7c3 5241 adb7 0540
00000070: 080d 1440 b463 073e e01a 6040 ea1a 7b3f
00000080: 5104 19be d023 a83f 13a8 8440 1d0e c63e
00000090: 6d6d 9140 f1ca 3c40 c069 f63f fb4e cc3f
000000a0: c937 c73f a906 3d40 4a2e bf3f a660 a23d
000000b0: 7bbd 5a3f 69e1 9040 161d 2c3f c3cf a841
000000c0: d4c9 2041 6f53 6840 3d20 ed3f d86f e83e
000000d0: 1fcb 0940 d062 723f 83a0 9040 4fc8 383f
000000e0: 7ed7 8d40 b02a 2c41 14eb db3f 9b86 b53f
000000f0: d739 1840 f528 b43f 8b85 483f da36 b43c
00000100: 60c4 443f f319 cc3e 5444 3a40 83db 2e40
00000110: 3bd9 c63e f2f6 2c41 efbd c43e 4c33 2741
00000120: 1efb 8c40 cdda a53f c0a2 7740 69b1 1241
00000130: f84c ff40 6f8b d4be 15d3 f2bd 1df2 4040
00000140: c6f6 1c40 b102 3f3e af7f ba41 c86f 9340
00000150: 3427 e540 782d da3e 88c1 0242 d868 e640
00000160: 0bc6 bf40 ae15 a040 1c1b 7e3f bc2f 5841
00000170: aff9 2540 7a78 cb40 73bd ca3f dd5f 5a40
00000180: 4729 583e b594 5d41 b293 053f 5f54 db40
00000190: 00e0 0140 703f f93d 4653 8a40 e10c 8341
000001a0: f235 e33f 8cc5 f240 b443 5f40 d543 ac40
000001b0: 72cf 403e 8414 5241 c51c 6c3e bac8 b440
000001c0: 7ad8 f93f ca0b cdbe 2258 9040 309b e43e
000001d0: 89fa 1741 9d4f 7841 2751 2840 884f 7040
000001e0: bf94 273e 71fb 1b3f 2f33 173f af40 cd3e
000001f0: a5f6 9c40 1c6f 0d40 60f2 543f a912 6c41
00000200: f8f3 c340 716e dd3f 454c 9540 41ba 833e
00000210: db8d 913e b9f7 233d c710 4941 ef7e 4441
00000220: fc5d 0340 f54f 3d41 33fa f940 86c4 a340
00000230: af66 bc40 e3f9 693e f1c1 4740 30b9 f540
00000240: b126 3c41 2cee 8cbd eb4c d840 dd54 6640
00000250: 3680 3940 f8a8 2241 96f8 553f 3b47 0140
00000260: 7b68 933f 463c c140 3b12 d83f facc 9a40
00000270: e103 a93f d1df 6740 be45 283e 3904 5640
00000280: 114f 9a40 60c5 06bd 9f8a a640 56bc b840
00000290: c76c eabb 6f7e d0bc 913d 5a3f 4a88 ec40
000002a0: 7fc3 413d 0ccd 793d 5735 5141 e386 b740
000002b0: e3e4 163f 0104 263e 4fa4 b03e b255 9540
000002c0: 5d80 693f fb91 3b41 cfaa 6d3f c586 f53f
000002d0: a579 0c40 a494 933f 1377 4840 582c 903f
000002e0: d377 a63f fa36 1f40 2d25 8340 d3a0 6d40
000002f0: d292 2341 8272 0e40 7d13 2f40 476c 6341
00000300: 04bb 6940 c0d8 893f e431 1341 c778 5341
00000310: 3c46 0d40 fcb4 9f3f c91a 0c41 85fd 4041
00000320: 0419 ac40 3243 2c3f f5a5 f03f 9430 903f
00000330: d0d6 b23e f70b 8040 d962 edbc 8609 f540
00000340: bc31 c33e 465e af3e bbc4 0b40 6a58 9a40
00000350: b031 a241 5c02 593f fb7d 673d b8bb 3a40
00000360: cc02 ac40 cb2f 733e 97a1 3a41 7ccf 9d40
00000370: 1a49 0a3f 0cdb 033e efbd c83e a4ea 0941
00000380: 3d7a e23f f66a 5740 8357 973e bedc d640
00000390: 2d3f 9f40 78d7 ae3f 20f6 5c40 2919 4841
000003a0: 2d5c 053f 5f39 083f b165 c640 1311 9e40
000003b0: ccb5 ca40 34d3 ba3f f4cb 8f40 ec37 2741
000003c0: 3197 9640 dcb0 f53f 05dd 03be 2f2d 3d41
000003d0: 609c 0240 e550 de3e e700 993f f17b 0b41
000003e0: 8a00 fb3d c5ce be40 8070 523f 4b90 6c3f
000003f0: 4485 0040 c513 a941 e955 d141 5d5d ae40
