checkpoint_actor_0.pth (torch_old, 163749 bytes, 10 tensors)

fc1.weight f4 [256, 24]
00000000: 8c1b b9bd 8e0b 793e a4d6 983d 7d1e d63e
00000010: 0cff a0bf 2e45 6e3f 6911 513d df91 d53e
00000020: 40fb 753e 9f0d 393f 0984 05bd 2f08 933e
00000030: 6cc4 59bf 5d39 303e 0550 d8bd ff7f c13e
00000040: f484 863e a0ac 493f 5f68 0abe f4bc 523e
00000050: 8deb 55bf 78aa 1f3d 423a a7bd 5135 7c3e
00000060: 685c 843e ef8f bf3e 29ca 1bbc 0c87 44bf
00000070: 607c 26bd 32c0 62be cbbb 66bd 8fa4 32bf
00000080: da2b 7e3e 4380 9cbe 5074 283d 3fa7 a4bf
00000090: 546f 35be 2702 4bbe efd4 a83d ccf7 a9bf
000000a0: 579a c73e a4ec 08bf 23a0 f3bc b6da e3be
000000b0: 3945 d2bd a1f8 25bf 7dff e8bb d837 cfbe
000000c0: b5c8 2d3f e106 913f 8ed2 153d 6065 ed3c
000000d0: 5552 0dbe e5cf d4be 1eda d93d 3df9 843c
000000e0: e515 6c3f eed2 b63f f858 943e f9f1 b2bd
000000f0: 483b c9bd 63f2 f6bd 9325 823e 68f8 a1bc
00000100: 98de 5b3f 0fe2 9c3f 912f 8cbd 9d54 77bd
00000110: 9553 66be 786e b43e f8d7 bdbd cda5 25be
00000120: fce9 8abe 4cdc f6be ca38 04be 1547 42be
00000130: 21c8 643f e33a a0bf f2d9 54be 287c 50be
00000140: b339 c83d 95e4 06bf dec7 233e af32 c8bc
00000150: 3a98 683f e2e1 65bf 00b6 0a3e b405 b3bd
00000160: 81aa 093f ae8f b2be b607 173d dee2 813d
00000170: fcad de3e 1f78 0b3f 30c4 ec3c ec57 2f3e
00000180: 5240 00bd 5272 db3e fc1e bc3c 90c0 433d
00000190: a595 84bf b642 1cbe ad54 4c3c ba7d 553d
000001a0: 76c3 cf3b fe59 a83e e4da 093d e399 1f3e
000001b0: 840b 973e 13ff 113e 8cc0 1bbb 89b0 073e
000001c0: 721a f23d 02f2 e53e db46 463d 25bc 4f3b
000001d0: 5792 0140 0b46 1c3f 3ecf c73d b4f0 19bd
000001e0: 4a82 653e 6937 cf3d 0614 f9bc 736f 9abe
000001f0: 2863 ae3e de81 a3be 007d 8ebc ed5a 9cbe
00000200: 0840 9d3e 1bc2 80bc ac44 15bd e2ae 943e
00000210: 2aae d23e c844 89be d1f4 10be 7a92 9d3e
00000220: cc81 f13d 6b49 b13e a5eb d9be 2c09 363f
00000230: 09c3 223f c5cc 01bf f83c e8be 8a0b 3e3f
00000240: 5b5a bb3e 6de8 a03f 86d0 c2bd 45e3 dc3c
00000250: c4c1 0a3f 3e38 a1bf f49a e6bc 39ea 423c
00000260: c481 753e 2ec9 913f a0ae e2bd ce61 9bbd
00000270: c6ff b63e 33db 86bf 39e5 f3bd 18bf c33b
00000280: 9b06 423e 45be 833f 9996 bdbd 3cc6 a5be
00000290: 5a4a 613e 1df4 02bf 1119 90bd f96c 94be
000002a0: 50fb 58be 9e5e b4be 5c93 743c 58c2 33bd
000002b0: 1cb7 23bf 594d 16be 9892 1a3c 15c4 bdbd
000002c0: 65fa 903d 8478 2fbc 77ed 10bd 0297 063e
000002d0: 88e3 7dbf 3618 5c3e be98 92bb 0642 453e
000002e0: 0127 983d d9a5 9bbd cf72 a1bb de04 6cbe
000002f0: f3c4 02c0 ff1a 803f 3964 a83c 61dc 69be
00000300: a5d9 af3e b494 4a3f a3cd a6bd 4467 203e
00000310: 0849 d9be 1e6d 053f d880 0fbd 8a39 073e
00000320: 8cde c63e 5078 613f 740d 9038 94aa 26be
00000330: 44c8 5bbf 136f a43e 5725 843d f587 43bd
00000340: 6e95 ed3e acc6 433f fd4e c33a db5f a6be
00000350: 4b67 d2bf a136 563e 134b 75bd 6d74 cabe
00000360: d32e 683e 5cd3 a63f b9f5 4a3d b3d2 a63e
00000370: f1a6 e73e 2d17 adbf 5c74 0d3c 6963 a63e
00000380: cc8a d23e 7040 bf3f b139 d03d c51d 55be
00000390: f90c a43e 259e 88bf 7f66 da3d b84a 36be
000003a0: eb24 533e 1019 a33f e752 dabd 8c39 23bd
000003b0: d2a2 a73e f273 13bf 89fd 3fbd ad5e 483b
000003c0: 1e46 253f a23a 15bf 3318 de3e 9f92 303e
000003d0: bc8e 993e 6769 aa3c dea8 da3e 5d31 593e
000003e0: 4a82 2c3f f263 00bf d176 36bd 02f6 aa3e
000003f0: 3914 d63e 76cb e63d aa32 9abc 3a9f b23e
-0.09038457 0.24320814 0.074628145 0.41820136 -1.2577834 0.9307431 0.051041994 0.41712853
0.24021626 0.7228641 -0.03259662 0.2871718 -0.8506534 0.17209382 -0.105621375 0.37792966
0.2627331 0.7877903 -0.13516377 0.20579892 -0.83562547 0.03898093 -0.08165409 0.24629714
0.2585175 0.374145 -0.009508648 -0.76768565 -0.040645957 -0.22143629 -0.056331437 -0.69782346
0.24821416 -0.30566606 0.04112655 -1.286354 -0.1771825 -0.1982504 0.08243739 -1.3278747
0.3898494 -0.53486085 -0.029739445 -0.445028 -0.102671094 -0.648325 -0.0071105347 -0.40472293
0.6788438 1.1330224 0.036577754 0.028979003 -0.13800938 -0.4156486 0.10637306 0.016232127
0.9222091 1.4283121 0.28974128 -0.08737559 -0.0982576 -0.1205795 0.25419292 -0.01977177
0.85886526 1.2256488 -0.0684501 -0.060383428 -0.22492822 0.3524053 -0.092697084 -0.16176529
-0.2713164 -0.48214948 -0.12912288 -0.18972428 0.8936787 -1.2517971 -0.20786265 -0.20359862
0.0977663 -0.5269254 0.15994212 -0.02443823 0.9085728 -0.89797795 0.1354599 -0.08741322
0.53775793 -0.34875244 0.036872588 0.063420996 0.43492115 0.54480165 0.028902143 0.17123383
-0.03131134 0.42860657 0.022963993 0.047791064 -1.0358168 -0.15259823 0.01247136 0.052121855
0.0063404394 0.3288116 0.033656016 0.15586047 0.29500973 0.1425746 -0.002376589 0.13250937
0.1182145 0.449112 0.048407417 0.0031697836 2.0245569 0.6104438 0.09756325 -0.037583068
0.22412983 0.101179905 -0.030405056 -0.30163154 0.34060025 -0.31935018 -0.017393589 -0.3053812
0.30712914 -0.015717557 -0.036442444 0.29039675 0.41148502 -0.26810288 -0.1415589 0.30775815
0.11792335 0.34626326 -0.42562595 0.71107745 0.6357885 -0.5070308 -0.45359015 0.7423636
0.36592373 1.2570931 -0.09512429 0.02696384 0.5420191 -1.2595289 -0.02815006 0.011896663
0.23975283 1.138952 -0.11068463 -0.07587014 0.35742015 -1.0535644 -0.11908955 0.005973708
0.18947832 1.0292441 -0.0925724 -0.32377803 0.22001019 -0.5115374 -0.07036031 -0.2898939
-0.21189618 -0.35228437 0.014927711 -0.043886513 -0.6395128 -0.14677943 0.009434365 -0.09265915
0.07079009 -0.0107098855 -0.035382714 0.13143542 -0.9917531 0.2149361 -0.0044737747 0.19263467
0.074293144 -0.07599992 -0.0049270163 -0.23048732 -2.0432708 1.0008239 0.020555602 -0.22837974
0.34345737 0.7913315 -0.08144691 0.15664393 -0.4243853 0.52119625 -0.035034984 0.13205543
0.38841665 0.8807421 6.868961e-05 -0.16276008 -0.85852456 0.32115993 0.064524345 -0.04773708
0.46403068 0.76475024 0.001490086 -0.32495007 -1.6437773 0.20919277 -0.05988605 -0.3954195
0.22674112 1.3033252 0.049550746 0.32582626 0.45244554 -1.3522698 0.008633699 0.3249772
0.4112152 1.494154 0.10167254 -0.20812137 0.32041147 -1.0673262 0.10664081 -0.1780194
0.20619552 1.2742023 -0.106603436 -0.039849803 0.3274141 -0.57598794 -0.04687265 0.003057401
0.64560115 -0.5829259 0.43377838 0.17243432 0.2999171 0.020802213 0.4270696 0.21210237
0.67386305 -0.50152504 -0.044546906 0.33390814 0.41812304 0.11269276 -0.018822987 0.34887105

fc1.bias f4 [256]
00000000: 2a59 23bf 7490 14bf 4c79 dbbe 6408 0dbf
00000010: 60af b3be 4c88 87bf 0e70 57bf 8f4b 42bf
00000020: 9ccf 2abf c4d2 7dbf c506 11be 0c96 22bf
00000030: 834f 27bf 15cf 2fbe 0992 29bf b4f2 68be
00000040: b2d8 0cbf 4e32 b1be 2bfa 1ebe 7616 39bf
00000050: 355a ebbe 2c7d b8be af92 05bf 46c4 51bf
00000060: 1f1c e0be bb68 08bf 5949 4bbf 0f49 92bf
00000070: e30d 50bf 4161 1ebf 75d9 28bf bf6f 1dbf
00000080: 2a00 24bf 5e6b 4abf 4d2a 81bf a07b fcbc
00000090: 2570 e0be 831b 4cbd 7f60 2cbf bbe6 53bf
000000a0: b933 0dbf a6db 14bf 90cf f4be ce75 8dbf
000000b0: 8c18 2ebe c7d6 9bbf 589a 2cbf 5328 27bf
000000c0: ea6b 48bf 96ba 4fbf d42a 28bf b96d 42bf
000000d0: eaa0 1ebf 98f5 babe 25e2 a2bd 67b1 babf
000000e0: 7dd0 2d3e 2ea6 aabe 723b 35bf cf4a 31be
000000f0: 3f11 42bf 8751 c0be a031 16bf cb60 73bf
00000100: 5b19 06bf e3eb 40bf 792e c6be 9cf4 47be
00000110: c0d3 92be cf2e 4bbf 1ac8 05be b4df 2cbf
00000120: 2790 82bf 2c78 bdbf 977f a53e 29d5 fdbe
00000130: 58dd a13e fcf8 03bf 03dd c43d bf15 17bf
00000140: db20 febe 90e4 66be 0c81 36bf 0767 fcbe
00000150: bd46 cdbe 9343 93bf 7e81 60bf bc7c a2bf
00000160: 34a7 e3be ec41 e0be 6965 b0be 266e 6abf
00000170: f867 99bf f2cf efbe bf16 16bf 4e55 56bf
00000180: 1704 d3be ceda 2abf 49e1 c2be 9da1 a4be
00000190: 04b1 4bbe 88d2 9dbe 2d9d 1fbf 2676 bcbe
000001a0: 1d62 86bf 74aa 87bf 84c6 12bf c7ea a8bf
000001b0: 0e5c eabe 1d7f 00bf 0463 80bf 1d31 edbe
000001c0: cb26 1bbf b29e 90bf 4089 bebf 64f7 04bf
000001d0: ab84 2dbf 4f59 3ebf 30ea b1be 7cb6 0fbd
000001e0: 996c 52bf 72aa 99be 7d20 37be d84d 3ebf
000001f0: d3c2 d73d 4f4b b9be b2c2 09bf 7f4b 28be
00000200: 7733 ebbd ba0f 66bf 8137 11bf f7a7 99be
00000210: 022b c2be 157f 3dbe a9f2 e2be 1148 1abf
00000220: 7f3f f9be ded7 23bf e416 c4be 1af9 97bd
00000230: f651 b8bf 6a25 03bf f916 adbe 9113 c6bd
00000240: a277 81be 2720 49bf 6a98 14bf f1f0 a1bf
00000250: c5ba 15be a81e 4cbf 2c45 ccbe 5322 62bd
00000260: 48d7 f4be 9994 10bf 4291 7ebe 7549 5abe
00000270: 95a6 b3be 9404 ddbe beb7 39bf b441 d13d
00000280: 8294 85bf 8308 19bf dd32 28bf 05d9 28bf
00000290: 5df2 8abd 6d7a 49bf da89 77be 23ad a0be
000002a0: 14e0 82be 0493 e63d fa67 dbbe 6308 91bf
000002b0: e975 83bf b5d6 83bf e1cd 2ebf c943 a3bf
000002c0: 726d 41bf d8db 8c3e d24a 49bf 4c8d fbbe
000002d0: c5e5 1cbf ca04 1bbf 8977 313c 496b fbbe
000002e0: fadd 4cbf 4afc 3bbf 8b9d 8dbe 8a8e 2fbf
000002f0: fe26 f6be 4794 84bf 2f8f 9f3c 89b8 0dbe
00000300: e34b 22bf c7ca 44bf 7651 12bf 98cc 4cbf
00000310: e6e6 1bbf 2f7d 85bf 2e1e 06bf e791 96be
00000320: 2ba8 2abf 9453 00bf 0d2e 1abf e066 943e
00000330: 1627 1a3d 5cd7 023f d97f 0abe 194e 26bf
00000340: 2919 fcbe 8d27 17be 959f 77bf 54b5 2bbe
00000350: cc38 7fbe 1767 4c3e ec5a 78bf 2fdc cebe
00000360: 9999 4d3d fbc6 27bf 2c0a 98be dc48 073f
00000370: 1c22 60be 5833 7cbf ca26 edbe 708c 223e
00000380: 24b3 f2be 8609 29bf a5b7 06bf a447 00bf
00000390: 0653 37bf 3688 f6be 09c2 ddbe 2041 39be
000003a0: 0bd2 06bf 26bb 3bbf 4e14 acbe 4472 26be
000003b0: 7567 d1be 1445 98be 81b7 d5be 70be d2be
000003c0: 8175 7dbf 818b 37bf 12ad e7be 7011 80bf
000003d0: f656 1bbf ba07 23be d884 81bf 9364 84be
000003e0: 87dd 80be e397 8cbf 128b dcbe 51ca 8dbf
000003f0: 2614 0cbe f630 dabd 5f47 773d 56ae c8bd
-0.6380793 -0.5803292 -0.4286598 -0.5509093 -0.35094738 -1.058847 -0.84155357 -0.75896543
-0.66723037 -0.9914973 -0.14162739 -0.63510203 -0.653557 -0.1716884 -0.66238457 -0.22748834
-0.5501815 -0.34608692 -0.15525119 -0.722999 -0.4596726 -0.36033 -0.52176946 -0.81940114
-0.43771455 -0.53284806 -0.79408795 -1.1428546 -0.8127119 -0.6186715 -0.65956813 -0.61498636
-0.6406275 -0.7907008 -1.0091034 -0.030820668 -0.4383556 -0.049830925 -0.6733474 -0.8277394
-0.5515705 -0.58147657 -0.47814608 -1.1051576 -0.17001551 -1.217492 -0.6742301 -0.65295905
-0.78289664 -0.8114408 -0.6569035 -0.75948673 -0.61964285 -0.36515498 -0.0795329 -1.4585389
0.16974063 -0.3332991 -0.7079383 -0.17313693 -0.75807565 -0.375622 -0.5866947 -0.9506957
-0.5238244 -0.75359935 -0.3870733 -0.19526905 -0.28677177 -0.793683 -0.13064614 -0.67528844
-1.0200242 -1.4802299 0.32323906 -0.4957669 0.31614184 -0.51551795 0.09612467 -0.59017557
-0.49634442 -0.22548127 -0.7129066 -0.49297354 -0.40093032 -1.1504997 -0.8769759 -1.2694316
-0.44463503 -0.43800294 -0.3445237 -0.91574323 -1.1984854 -0.46838337 -0.5862846 -0.83723915
-0.41214058 -0.6674012 -0.38062504 -0.3215455 -0.19891745 -0.30824685 -0.62349206 -0.3680889
-1.0498692 -1.0598893 -0.5733416 -1.3196648 -0.45773357 -0.5019396 -1.0030217 -0.46326533
-0.6060607 -1.129843 -1.4885635 -0.5193999 -0.6778056 -0.74355024 -0.34748983 -0.03508614
-0.82196957 -0.30012852 -0.17883487 -0.7433753 0.10535207 -0.36190268 -0.53812706 -0.1643505
-0.114844255 -0.89867747 -0.5672532 -0.3001096 -0.37923437 -0.18505509 -0.4432576 -0.60266215
-0.48681256 -0.6400126 -0.38298714 -0.07420559 -1.4400012 -0.51228964 -0.3380659 -0.09671701
-0.25286585 -0.78564686 -0.58045065 -1.2651654 -0.14622028 -0.7973428 -0.39896524 -0.055208515
-0.47820497 -0.5647674 -0.24860099 -0.21317084 -0.3508803 -0.43167555 -0.72545993 0.1021761
-1.0435946 -0.5977861 -0.6570261 -0.65956146 -0.067845084 -0.7870243 -0.2417368 -0.31382093
-0.25561583 0.1125851 -0.42852765 -1.1330684 -1.0270358 -1.0299898 -0.68282896 -1.2755061
-0.75557625 0.27511477 -0.7862979 -0.49131238 -0.612881 -0.6055418 0.010831722 -0.4910529
-0.8002621 -0.7343184 -0.27659258 -0.6857687 -0.48076624 -1.0357751 0.019477455 -0.13839926
-0.63397044 -0.76871914 -0.5715555 -0.79999685 -0.608992 -1.0428828 -0.523898 -0.2940819
-0.66662854 -0.5012753 -0.6022652 0.28984737 0.03763493 0.5110986 -0.13525333 -0.6496292
-0.49237946 -0.14761181 -0.9672788 -0.1676839 -0.2492401 0.199612 -0.97013736 -0.40402362
0.05019531 -0.65537995 -0.2969526 0.5284555 -0.21888012 -0.98515844 -0.46318656 0.15873885
-0.47402298 -0.66030157 -0.5262397 -0.50109315 -0.7161106 -0.48150796 -0.433121 -0.1809125
-0.5266425 -0.7333244 -0.3360924 -0.16254526 -0.40899244 -0.29740202 -0.41741565 -0.41160917
-0.9900742 -0.7169724 -0.4524923 -1.0005322 -0.60679567 -0.15920916 -1.0118666 -0.25857982
-0.25169012 -1.0983852 -0.43074852 -1.1077367 -0.13679561 -0.1065387 0.0603708 -0.09798877

fc2.weight f4 [128, 256]
00000000: a7af 86be 6680 c73e d89f bbbe 27c0 413e
00000010: dd19 853e 4d2f 1dbf 2017 153e 8c65 52be
00000020: cc1e 023c e90f 45be 4faa fb3c 6be9 25bf
00000030: b81e c93d 3dad b03e 4065 d83d efdd 8f3d
00000040: eea9 c1bb 6acd 0abf e202 f2be 8051 973e
00000050: ff4e b83e 9f03 3fbe d7d6 f43d 62c7 d2be
00000060: e6cd ddbd 68ee 93be fa3a 86be 35a8 543f
00000070: f878 ea3e 60c2 e13d bb5f 593e d0c8 24bf
00000080: 156b 7ebe ed41 29bf 0e89 87be 564c 93bd
00000090: ba2e 0b3e f86e b9bd 58de 9c3e 88da 1a3e
000000a0: 1a8e b23d a1dd 1bbf ba77 39bf 6c22 113f
000000b0: 1493 62be 3c3e d6bd 3dc6 d1be 9088 ae3d
000000c0: f7fa f8be d6ae a53e 0d03 013f 08a3 243e
000000d0: 4034 3bbf 1bcd 0d3e 8797 b4be a921 9b3e
000000e0: 2622 b63e 8eb4 75bc ee6f 41bf 0752 55bf
000000f0: e587 ae3e a1e1 ce3d f1ba 82be 64b1 9b3e
00000100: 3b4d 31bf 7695 dcbe f443 9f3c 8d48 01bf
00000110: 0236 4c3e 4661 1abc d76e 2dbe 86f8 70be
00000120: 0f1b 033f 31a7 6a3d 11d0 89be 09e6 43bd
00000130: fd3b fe3e 3dff 813e e80f bb3e b069 873d
00000140: d26e f2be 4b99 e1be cb79 f63e 007e 9fbe
00000150: b8dd 093e b1c7 3abf 2556 43be a91e 44be
00000160: 41d7 083e ce2e debe 48ff 35bf c657 92be
00000170: 1210 18bd 1a94 0bbe 41a6 65be c022 a0be
00000180: 3e37 85be 35f9 16be 1eea 233d 3327 05be
00000190: 4240 9fbe ec15 6abe cf53 3a3e 7171 2b3e
000001a0: a590 debd 6d8d 853e 12f9 d8be 6bbd cfbe
000001b0: 6847 03be 9d1c cfbd d27b 1a3f 5e5d 46be
000001c0: 43ee 28be b054 853e bb3f 383f 0d29 513e
000001d0: fba1 c03d 2928 b8be 60e2 d5bd 7233 58bd
000001e0: 0c99 cbbd bfd6 ecbe c926 3abf 1e70 0e3f
000001f0: 1785 ffbc ca00 84be bcc5 dd3d c67a f53e
00000200: d096 8abe b0f7 93be 98bb abbe 5de9 5e3d
00000210: 4f46 70be a404 0e3e 3978 b03d 60e9 b03e
00000220: e128 b3bd 2c4d 79be 97f2 e13e 35f5 e1bd
00000230: 746a d73c a5b2 da3b 8357 75be 634e 8a3d
00000240: 9935 0b3f 73b8 653d c132 783d 9ca8 ffbe
00000250: 970f d1be ebc8 05be e0c1 64be 0ed4 0b3d
00000260: 3fa0 4b3e 04a3 8dbe 2661 943e 52fb c23a
00000270: 265c 8ebe 9b91 c33e d06f e73e a722 c93e
00000280: 658a 473f 1037 b2be ef40 db3c f248 3fbf
00000290: fe80 243e 7483 8e3e dbe7 8b3e c0df 10bf
000002a0: faac 593e f61f 0cbf 9b5c 2c3f 4c8b e5be
000002b0: 7aad 99bd 79ec 8dbd 8ea7 943b 15be 813f
000002c0: 4cd1 67be 7c27 27bf 10cb 433f c447 0d3e
000002d0: 533f 30bf 8a88 a33e c9c9 3a3e 3aef debe
000002e0: 7493 343e 027b 58bf 66fa 003d 4b12 a9be
000002f0: 163b 293f af57 f13e f24e ba3b 1d50 b8be
00000300: addc 12bf bad3 04bf efb5 e9bd 2a78 fa3e
00000310: d1a6 5bbd fb39 013f 8bee efbc df02 5abe
00000320: ddc2 01bd 09c9 edbc d7d0 d8be b947 11be
00000330: 6b09 b93e c746 03be ac22 20be 3e2e ba3d
00000340: f92f 8dbe c39c babe cef7 f13e d716 c3be
00000350: 1ec8 c3be a8ea efbe 860e 0abf dbca 7c3d
00000360: a4a1 953d 7bdc 98be 000d 71be 2e35 90bd
00000370: 53f0 603c 87d5 a13e b52f e23e d2f3 33be
00000380: 08e1 2bbe 7634 163e a046 ae3e e779 c6bd
00000390: 53d6 0bbf 491b b8be e756 40be 8d01 223e
000003a0: 8960 78bd b997 3e3e 1d77 653a 4307 f7be
000003b0: 58de d4bb 6203 bf3e b4d7 d9be e770 403e
000003c0: 8a8b b8be 77e2 623e 41ba 9abd 1044 423f
000003d0: 44ba c1be 2210 79be db78 9fbe 4db6 afbd
000003e0: 0e47 cf3d f5a0 b6be ec89 87be d4d1 1d3f
000003f0: 34fa 48be 9ec6 173e f89a ccbe 627d 7fbe
-0.26305887 0.38965148 -0.3664539 0.18920957 0.25996295 -0.614003 0.14559603 -0.2054655
0.007941913 -0.1924435 0.030720858 -0.6480929 0.09820312 0.3450717 0.10566187 0.07024752
-0.00591015 -0.54219687 -0.47267824 0.29554367 0.3599777 -0.18653725 0.1195504 -0.41167742
-0.10830288 -0.28892827 -0.2621687 0.83069164 0.45795417 0.11023402 0.21227925 -0.64368916
-0.24845536 -0.6611622 -0.26471752 -0.07192294 0.13592044 -0.09054369 0.30638385 0.15122426
0.0871851 -0.60885054 -0.72448313 0.5669315 -0.22126418 -0.10461089 -0.40971556 0.08522141
-0.4862897 0.32359952 0.5039528 0.16077816 -0.731266 0.13847773 -0.35271856 0.30299118
0.35572928 -0.014996661 -0.75561416 -0.8332829 0.34088054 0.10101629 -0.2553325 0.30408776
-0.6925847 -0.4308278 0.019441582 -0.5050133 0.19942477 -0.009422606 -0.16936813 -0.23532304
0.51213163 0.057288352 -0.26916555 -0.0478268 0.49655142 0.25390044 0.36535573 0.06611955
-0.47350174 -0.44062266 0.48139796 -0.31150818 0.13463485 -0.72960955 -0.1907583 -0.19152321
0.13363363 -0.43395084 -0.71092653 -0.2858259 -0.0371247 -0.13630715 -0.22426702 -0.31276512
-0.2601871 -0.14743502 0.040018193 -0.13003235 -0.31103712 -0.22859925 0.18196033 0.16742493
-0.108674325 0.26084462 -0.42377526 -0.40574202 -0.12820208 -0.101128794 0.60345185 -0.19371554
-0.1649714 0.26041174 0.71972245 0.20425816 0.09405895 -0.3596814 -0.10443568 -0.052783437
-0.09941301 -0.46257588 -0.7271543 0.5563983 -0.031191392 -0.25781852 0.108287305 0.4794523
-0.27068186 -0.28899908 -0.3354156 0.05442177 -0.2346432 0.13868958 0.08616681 0.3455305
-0.087480314 -0.24345845 0.44130394 -0.11033098 0.026295878 0.006674128 -0.23959164 0.06753232
0.5437866 0.056084108 0.060595278 -0.49933326 -0.40832207 -0.13064925 -0.22339582 0.034137778
0.19885348 -0.27663434 0.28980368 0.0014875925 -0.2780468 0.38197026 0.45202494 0.3928425
0.7794555 -0.34807634 0.026764361 -0.7472068 0.16064832 0.27834666 0.2732533 -0.56591415
0.21257392 -0.5473627 0.67328805 -0.44832838 -0.07503791 -0.06929869 0.0045365756 1.0136133
-0.22638434 -0.65294623 0.76481724 0.13796908 -0.68846625 0.3194011 0.18241037 -0.4354189
0.17634374 -0.84562695 0.0314888 -0.3302177 0.66105783 0.4713721 0.0056856805 -0.35998622
-0.57367975 -0.5188557 -0.11411654 0.48919803 -0.053625885 0.50479096 -0.02928855 -0.21290158
-0.031679977 -0.029026525 -0.42346832 -0.14187516 0.36139998 -0.12819968 -0.15638226 0.09090851
-0.27575663 -0.36447725 0.47259372 -0.38103363 -0.38238615 -0.46858716 -0.5392841 0.061716896
0.07306221 -0.29855713 -0.23540115 -0.07041393 0.013729173 0.3160822 0.44177023 -0.17573479
-0.16785061 0.1466845 0.34038258 -0.0969122 -0.5462391 -0.35958317 -0.1878315 0.15820904
-0.060638938 0.18612565 0.0008753406 -0.48247728 -0.006496232 0.37307268 -0.4254738 0.18793069
-0.3604396 0.22156702 -0.07555056 0.75885105 -0.37837422 -0.2432256 -0.31146893 -0.08579693
0.101209745 -0.35669675 -0.26472414 0.616483 -0.19626695 0.1482186 -0.39961982 -0.24950173

fc2.bias f4 [128]
00000000: b766 64be 0d43 92bd c38e d4be fba5 aebe
00000010: 9c48 3cbe e8af 3fbf bddc 9dbe 49e4 9ebe
00000020: 4dcc 37bf cc14 86bd 8a36 5dbe e956 d2be
00000030: 0841 79be 1671 11bf cf94 9ebe c755 3abf
00000040: 2ec2 c53d 2135 01bf e1a5 acbe 263f 0dbe
00000050: 8fc5 81be 364f 0cbf 0c6f 8cbe cbe2 a3bc
00000060: f616 3bbd 0c30 35bf 5b16 bfbe 3652 35be
00000070: 12d1 20be 1b19 5cbd 53e4 c73a 6ce5 6fbe
00000080: b248 14be d57b 15bf 667b 62be 7157 15be
00000090: 68d8 c8bd b702 75be b058 34bf cc19 abbe
000000a0: 3c4e c5be b846 9bbe 5dbe c3be fafe 04be
000000b0: 745e babe 15c5 3ebe d3ee 78be de75 10be
000000c0: f891 86bd bd9f 9abe c42e c1be 6f05 cfbe
000000d0: 8314 57be 2852 f638 4654 debe 9097 20be
000000e0: 321e 25be 5b19 17be f948 d4be 2e68 01bf
000000f0: 5ec1 b3be 4a06 41be 85f8 a9be 8a2d 0d3c
00000100: d520 04be 7e7a 5ebe 5273 01be dafa 73be
00000110: eec4 dabd 8418 02bf 1a94 b4be 90aa fdbe
00000120: d4a6 0dbe 5532 db3d b620 72be 5d68 013c
00000130: 6ef5 d1be fe84 1d3e 253c 0fbf fda0 16be
00000140: 3d1f 1abf 05c2 18be ef8c 91be d445 6bbf
00000150: 8424 abbd f5dc bb3d 1112 55bd 8929 a4be
00000160: 03ad 3abf c6b3 48be 26a7 79bc 2feb f3be
00000170: 5b8e 65be 087c 32bd e801 2cbf 6632 3dbd
00000180: 4825 a9be 50ae 8fbe 2090 c13d 6611 a8be
00000190: 5f83 f7be d0dc b9be c25c 80be 644d 4fbe
000001a0: d962 e8be 9deb 96be 21ab e1be 7dd7 2cbf
000001b0: 044a 2fbd 851e 42bd 84ad f9be a9e2 f6be
000001c0: 377e aabe d76c 85bd d24c 04bf 2198 59be
000001d0: b56c 02bf 477c a2be 3695 22be caf1 8ebe
000001e0: ee90 0ebd 2d35 58be ee35 28be 30e9 d0be
000001f0: bc31 05bf 8481 24be 1df6 c5be 5b94 babd
-0.22304808 -0.07141695 -0.4151517 -0.34111008 -0.18387073 -0.74877787 -0.30832472 -0.31033543
-0.71796113 -0.065469354 -0.21602836 -0.41081932 -0.24341214 -0.5681318 -0.30972907 -0.72787136
0.096561775 -0.50471693 -0.33720306 -0.1379362 -0.25346038 -0.54808366 -0.27428472 -0.020005604
-0.045676194 -0.7077644 -0.37321743 -0.17707142 -0.15704754 -0.05373488 0.0015250541 -0.23427361
-0.14480856 -0.5839208 -0.22117385 -0.14584137 -0.09806901 -0.23926817 -0.70447826 -0.3341812
-0.3853625 -0.30327392 -0.38231173 -0.12987891 -0.36400187 -0.18629868 -0.24309854 -0.14107463
-0.0657081 -0.30199996 -0.37730992 -0.40433833 -0.21003918 0.00011745497 -0.4342367 -0.15682817
-0.161248 -0.14755766 -0.41461924 -0.5054959 -0.35108465 -0.18850055 -0.33197418 0.008616814
-0.1290315 -0.21726415 -0.12641647 -0.23826161 -0.106820926 -0.5081866 -0.35269243 -0.4954419
-0.13833171 0.107029594 -0.2364529 0.007898417 -0.4100756 0.15382764 -0.5595115 -0.1470985
-0.60203916 -0.14917763 -0.28427836 -0.91903424 -0.08356574 0.091730036 -0.052019183 -0.3206294
-0.72920245 -0.19599828 -0.015237605 -0.47640368 -0.22417586 -0.043575317 -0.6719041 -0.04619064
-0.33036256 -0.28062677 0.09451318 -0.32825774 -0.48342416 -0.3630128 -0.2507077 -0.20244366
-0.45387915 -0.29476634 -0.44075873 -0.6751631 -0.042795196 -0.047392387 -0.48765194 -0.48219803
-0.3329942 -0.065149 -0.5167972 -0.21249439 -0.50947124 -0.3173544 -0.15877232 -0.27918845
-0.034806184 -0.21114035 -0.16426823 -0.40802908 -0.52029014 -0.16065031 -0.38664332 -0.09110328

out.weight f4 [2, 128]
00000000: ff21 d63e 847b e2bd c0f5 a93e 75d7 aabe
00000010: d9c4 03be a218 993e 566a 30bf 921e 183e
00000020: 43a6 023e 4097 5cbe 9c04 613e c302 833e
00000030: e00b ddbe c583 8fbe 7c35 613e d036 d0bc
00000040: 038d 2abe baa0 9abb e664 163c ce36 8abe
00000050: 6267 03be 788d 373f 0481 6a3e b2af 02bf
00000060: eab4 92bd e2cb 073f 2ac9 9f3e 51d9 94be
00000070: 57a5 773e 4707 8f3c 9a1d 05be 91af 11bf
00000080: b2bf b53d aa69 ff3d 4ec0 a6be e287 74be
00000090: 67fa c63e 597d a13e a445 203f 61a1 953e
000000a0: 7a8c 9a3e 7478 2bbd 81ea 103f 1088 cfbe
000000b0: 6400 0abe b824 64be 585d 08bf 299d 32be
000000c0: d3da d13d 67e1 cdbe 7dbf 79bf 7590 6a3f
000000d0: a75b 0ebd 0240 babd e31f 85be f042 e4be
000000e0: 3e50 75be 2cb3 59be 3e51 43be ec11 f6be
000000f0: fea1 bb3e 88bf 6cbe a43f c2bc 8982 ee3d
00000100: db9d eebe 9595 5f3e 4bf6 1e3f 23ad eebe
00000110: a297 9f3e 305b ae3e b349 173b a288 f13e
00000120: 5e5a b73e 9f70 4dbe a9db 583e 94b9 503f
00000130: 11c9 c73d 7e68 cfbe de97 adbe e51a 823c
00000140: 8c16 623f a66d 233e 1b3c cdbe bd44 b2be
00000150: 9fb0 473d ccff 34be e822 c2bd bd13 103d
00000160: e59b 673e 844c 35bd 83c3 1abe 56c9 9dbd
00000170: 9d1a 8b3c 70ed 0c3e 5181 adbe 56bd 0ebe
00000180: 2f9d 0b3f 18a2 d9be 6d25 91be 9582 743e
00000190: ffa7 f1be 4149 ed3e 9c05 073f 246f 8d3e
000001a0: 6c69 cc3d 0bab f8be 9c97 6e3f e325 3c3e
000001b0: 8299 6f3d 16ba 20bf 225a 4a3f 5747 323f
000001c0: 912e 093f de9b 7f3e ce76 40bf 2e8b c13e
000001d0: 1e2a 453e c2cb bbbe b636 8b3e 2111 953e
000001e0: 2f8a 25be c483 b73e c273 0dbe 1548 e2be
000001f0: d103 303f 2913 bd3d debf 953e 478a 4fbc
00000200: aadc 483d b9af 3f3f 5914 273f 45f3 a9bf
00000210: c7a5 643f b10a 05bf 81e8 da3e ab54 d7be
00000220: 6efe b1be 085d 073e cd42 bebf 68cd 21bf
00000230: 05cd 1e3e 10e9 27bf 0145 febe 5b3f 8e3f
00000240: 1e5b 4f3e ec0f 8c3e 049b 0c3f 2cfb 2fbe
00000250: 932d e33e 929b 1f3e 4d5b 5c3e 6e3e 15be
00000260: 3d1f 303f 21ca d8be 2018 b9be 3073 99bc
00000270: b40b 44bd 7ce6 463f c6c5 dc3c 3e57 f5bd
00000280: 1a37 5d3f e1c8 7e3f 52a8 24bf 0102 d5bf
00000290: 16c3 1b3f 536a ef3d 0ca7 de3e f421 593d
000002a0: 6091 71be ea1a 7abf 1ea9 ccbe e36b a2bd
000002b0: 7d5e 133f 3575 843d 2f49 963e 037a 8a3d
000002c0: 7806 843d 2c60 89be bac3 02bf a8a8 2b3f
000002d0: 85b5 733f 021a 993e dbbb 543d cebe 313f
000002e0: 3703 00bf 6dc6 72bf 8a03 57bf 4086 f6bb
000002f0: c7d8 d83e b48a dc3e cd96 46bf 8ed0 043e
00000300: a9bb 613d 3580 953e e2ee 9abe a4c7 0abf
00000310: 9388 84be 5a55 ff3e b4cf 523f 302a b13d
00000320: a79f 743e 3e04 12be cfc2 7dbe bb33 57bc
00000330: ce12 c2be a4f7 bb3e c236 0a3f 13dd 5e3f
00000340: 7a48 cb3d abf3 b9be 680f 04be b98a b2bd
00000350: 1b4e 03bf f1fc 1fbe ff1e 8dbe 5473 5f3f
00000360: c0d8 19bf 1aa5 29bf 692b f43d 177e 903e
00000370: 7238 153f 0a48 babd 3e2b f4be 31be 5e3f
00000380: 0622 073f 653f 54bd b0e1 5bbe da2f e23d
00000390: 258c e83e 601d 643e 2829 de3e c5b8 a4be
000003a0: f574 af3f 372a 723e 0671 623f 4f43 1ebf
000003b0: d3b9 633f 6f92 933e bd9a 59be 68d3 233e
000003c0: f54c 00bf 71ac a5bf 75fa 9d3e 6d80 99bd
000003d0: 2a1a 1b3f cd63 19bd 63ff 833d 88f8 07bf
000003e0: f166 5a3d 89cb 0c3f eb27 db3d 326d c33e
000003f0: 3430 88be e307 aa3e 2ffc b13e b37f 16bf
0.41822812 -0.11058715 0.33195305 -0.33367506 -0.1286806 0.29901606 -0.68912256 0.14855412
0.12758736 -0.21542072 0.21974415 0.25588045 -0.43173122 -0.2803022 0.21993059 -0.025416762
-0.16655354 -0.004718867 0.0091793295 -0.26994938 -0.12832406 0.7170024 0.22900778 -0.5104934
-0.07163413 0.53045475 0.31208163 -0.2907205 0.24184166 0.017459525 -0.12999573 -0.5690852
0.088744536 0.12471326 -0.32568592 -0.2387996 0.38862917 0.31540945 0.62606263 0.29224685
0.301853 -0.04186292 0.56607825 -0.40533495 -0.13476712 -0.22279632 -0.5326743 -0.17442764
0.102468155 -0.4021103 -0.9755781 0.91626674 -0.034755375 -0.0909424 -0.2600089 -0.4458232
-0.23956391 -0.21259755 -0.1907396 -0.48060548 0.36647028 -0.23119938 -0.023711987 0.11645991
-0.4660481 0.21834405 0.62094563 -0.46616468 0.31170374 0.34053946 0.00230847 0.47174555
0.35811132 -0.20062493 0.21177544 0.8153317 0.09755147 -0.4050941 -0.33904928 0.015881965
0.88315654 0.15959796 -0.4008492 -0.34818068 0.048752423 -0.17675704 -0.09479314 0.035175074
0.22618063 -0.044262424 -0.15113644 -0.077044174 0.016980464 0.1376245 -0.33887723 -0.13939413
0.5453672 -0.4250648 -0.28348866 0.23877938 -0.47198483 0.4634495 0.52742934 0.27623856
0.09981045 -0.48567995 0.9320009 0.18373828 0.058496006 -0.62783945 0.7904378 0.69640106
0.5358668 0.24961802 -0.7518128 0.37801498 0.19254348 -0.36678892 0.2719018 0.2911463
-0.16165994 0.35842717 -0.1381369 -0.4419562 0.68755823 0.0923217 0.29247946 -0.012667245
0.049038567 0.74877506 0.65265423 -1.3277365 0.89315456 -0.5196944 0.4275551 -0.42056784
-0.34764427 0.13219082 -1.4864136 -0.6320405 0.15507896 -0.6559 -0.4966202 1.1113085
0.20249602 0.27355897 0.54924035 -0.17185658 0.44370708 0.15586689 0.21519203 -0.14574596
0.68797666 -0.42341712 -0.36151218 -0.018731683 -0.047862723 0.7769544 0.026949774 -0.11979531
0.86412203 0.99525267 -0.64319336 -1.6641237 0.6084455 0.116902016 0.43486822 0.053010896
-0.23590612 -0.9769732 -0.39972776 -0.07930734 0.5756605 0.06467668 0.2935271 0.06761553
0.06446546 -0.26831186 -0.51079905 0.67054224 0.9519885 0.29902655 0.051936965 0.6943177
-0.50004905 -0.94834024 -0.83989775 -0.007523328 0.42352888 0.43074572 -0.77573854 0.12970182
0.055110607 0.29199377 -0.30260378 -0.5421088 -0.25885448 0.49869806 0.8234818 0.08650625
0.23889028 -0.14259431 -0.24781345 -0.013134892 -0.37904972 0.36712372 0.53989804 0.8705608
0.09925933 -0.36318716 -0.12896502 -0.087178655 -0.51291054 -0.15623833 -0.2756271 0.8728535
-0.6009636 -0.6626755 0.11922342 0.282212 0.58289254 -0.090957716 -0.4768924 0.8700896
0.5278629 -0.05181827 -0.21472812 0.11044283 0.45419422 0.2227683 0.43390775 -0.32172218
1.3707567 0.23648916 0.8845371 -0.61821455 0.8895542 0.28822657 -0.21250434 0.15998614
-0.5011743 -1.294325 0.30855146 -0.074951984 0.605868 -0.037448693 0.064451955 -0.53113604
0.05332083 0.5499807 0.10700973 0.38169247 -0.26599276 0.33209142 0.34762713 -0.58788604

out.bias f4 [2]
00000000: 2d73 1abd 08e8 0e3f
-0.037707496 0.558228

bn1.weight f4 [256]
00000000: 6f55 3b3f 82ce 243f d9eb f83e 2667 1b3f
00000010: 78cf 793f 1bff 133f 8cc0 ab3e 4ece ee3e
00000020: c2f9 283f 30da 233f aabf 0c3f 5657 683f
00000030: 05e6 183e 8d87 323d 0f08 473f 089c 423f
00000040: 6684 b73e e109 ca3f 5471 523b 56cc c63f
00000050: 002f 863f 134b 273e d0d2 4f3e 0d57 983e
00000060: 2f09 233f 2398 db3e 42a8 24bd 98c2 fb3f
00000070: 4a32 143f 5062 043f 438a 043f d6f3 853e
00000080: b79c f03e 23e7 923e ac33 393f 7587 d53e
00000090: 9693 913e 6f97 313f f58f 223e 2dad 0c3f
000000a0: f50b 203f d1eb 703e 3668 bf3e 3983 823f
000000b0: 8fff 893f 07df a23f 5372 0c3f af9a 083f
000000c0: e33b 603e 2b5e 5b3f 9480 8d3f 84f4 ea3e
000000d0: 3d0a 203f ab95 6a3e b3a8 213e 361c fd3e
000000e0: 369a fe3e c3c9 473f a268 b83e c63b 993e
000000f0: 356b 7b3f 3e5a 0b3f 7633 113f 3fa0 b43e
00000100: a60e 483f ab0d 3d3f 48c4 303f 7521 233f
00000110: cab3 013f ec72 123f 4d3e 4d3e 5a2d 1c3f
00000120: f1ca 563f 4eb6 2f3f 74d1 c43b b653 473f
00000130: 2e99 d53e 596b 2b3f 884d 5c3f e1ad 983e
00000140: 00ce 833f 091d 0e3f 91b6 c23e 7cfa 033f
00000150: d79f 3a3f 5c60 443f b871 683e 0034 153f
00000160: c2f9 ea3e 2bab b33e fe33 093f f59d 903f
00000170: 4b6b f83e 4708 3a3f 0df4 603f de66 b63f
00000180: 7bec c33e 3b51 9d3e fe45 c63f 59c4 5f3f
00000190: a054 073f 2fc7 3d3f aad3 413f 458d 103d
000001a0: 85b2 8a3d d28b 973e 1611 6b3f f364 2d3f
000001b0: c779 463f be18 863f 921a 523f f688 533f
000001c0: 82db 423f 13ce 203f ec17 0e3f 5cc4 3e3f
000001d0: d43c 413e b00f 203f 13d4 473f 9506 333e
000001e0: 8673 f43e f7ec 793f 9e3d ba3e cb63 ebbe
000001f0: 5ae7 233d f6b8 803f 8f43 b03f 14ca 00bf
00000200: 1d07 be3e 5ca8 9f3e 0fc3 373f 0224 123f
00000210: e3a5 873f 1750 e63e 1644 93bb fd1a cf3e
00000220: 5529 cd3d 10f2 393f 29fc 8f3f 75be 163f
00000230: 588d cd3e e1b0 343f 5b01 c03f 8632 243f
00000240: 2dcd f2be f72a bf3f d37c 883e 1e53 083f
00000250: a18a b23f 4dfd d63d e274 053f 7a75 783f
00000260: 75a1 5b3f a962 f13e e082 113f 3988 a33e
00000270: 953a 853f 975d 2c3f 194d b23f c0f5 1c3f
00000280: 445f a33f c54e f63e 491a a63f 7bef 593f
00000290: 3b87 323f b38d 113f b552 103f ec0b 5d3f
000002a0: 9a3e 283f a3b2 4a3f 2b7d ec3e fa86 cd3f
000002b0: 43d1 2a3f ea2c d03e 67c4 e73e 0e48 a33f
000002c0: 9962 ef3e 9aaa 923e 3665 69be 5cb4 e03d
000002d0: fde8 ae3e 1239 593f 6525 a7bc 216e e33e
000002e0: 6f07 623f e137 903f d767 913e 418c 313f
000002f0: f334 253f 3f74 9a3e d940 373f 6d18 2a3f
00000300: 579b 933f b25d bb3f b643 6f3f 5350 973f
00000310: d515 cb3f 2717 1b3f 2b6f c53e 72f2 323f
00000320: e94f 5f3f 973a 083f 2def ed3e 693c e63b
00000330: bdf9 193f e2ff 3e3f 9a36 cf3e 0a94 3f3f
00000340: 5c2d 843f a71e ac3e 4527 8e3e ef29 103f
00000350: 4e4d de3c 74a1 1e3f aebf 083f 5fd5 203f
00000360: 83b8 003f 36dd 2b3f 2b1d c83e 6a2a 9c3f
00000370: d338 8a3f a57c 3940 b68b 113f 5fde 5f3f
00000380: 8056 553f 6a8f 363e 6b28 be3f 5641 d13e
00000390: 00a7 dd3e 6aaf 853f dbae 113f fbb0 dc3e
000003a0: 2e95 713f 9d72 fe3e d941 8c3e d410 f53e
000003b0: 04df d33e 55e4 1d3f c0e3 b33e 35da 803f
000003c0: 718a dfbe e1f8 383f aeab d73f 74ba 763f
000003d0: 968d 123f 1ec6 983f f8c3 873e 0803 a83f
000003e0: 7fc7 5a3f 8598 a63f cb19 d83e 6f58 453f
000003f0: 2594 483f f394 173f 2e3e 323f 695b b93e
0.73177236 0.64377606 0.48617437 0.6070427 0.975822 0.57811135 0.3354534 0.46641773
0.660061 0.640048 0.54979956 0.90758264 0.14931495 0.043586303 0.7774667 0.76019335
0.358432 1.5784265 0.0032111006 1.5531108 1.0483093 0.16337232 0.20295262 0.29753914
0.6368589 0.4288951 -0.040199526 1.966876 0.57889235 0.5171251 0.5177347 0.26162595
0.46994564 0.28691968 0.7234447 0.41704908 0.28432912 0.69371694 0.15875228 0.54951745
0.62518245 0.23527457 0.37384194 1.0196296 1.0781115 1.2724313 0.54861945 0.5336103
0.21897845 0.85690564 1.1054864 0.45889676 0.6251562 0.22908656 0.1578701 0.49435586
0.4972703 0.7804224 0.36017329 0.29928416 0.9821046 0.54434574 0.5671915 0.35278508
0.7814735 0.7384898 0.690495 0.63722926 0.5066496 0.57206607 0.20043297 0.610067
0.83903414 0.6863755 0.006006414 0.7786211 0.4171843 0.66960675 0.86055803 0.2982016
1.0297241 0.55513054 0.38029912 0.51554084 0.72900146 0.7670953 0.2269963 0.5828247
0.45893675 0.35091528 0.5359496 1.1298205 0.48519358 0.7266888 0.8787239 1.4250143
0.38266358 0.30726036 1.549011 0.8740898 0.528635 0.74132055 0.757136 0.035290975
0.06772331 0.29598862 0.91822946 0.6773216 0.7752957 1.0476301 0.82071793 0.8263086
0.7611619 0.62814444 0.5550525 0.7451837 0.1887086 0.6252394 0.78057975 0.1748298
0.47744387 0.97627205 0.36375135 -0.45974573 0.040015556 1.0056446 1.3770617 -0.50308347
0.37114802 0.31183136 0.7178201 0.57086194 1.05975 0.4498298 -0.0044942005 0.40450278
0.10017649 0.72634983 1.1248828 0.58884364 0.401469 0.70582396 1.5000414 0.6413959
-0.47422162 1.4934987 0.26657733 0.53251827 1.3948556 0.10497532 0.52131474 0.97054255
0.8579324 0.47145584 0.56840324 0.31939867 1.0408503 0.67330307 1.3929778 0.61312485
1.2763448 0.4810697 1.2976772 0.85131043 0.69737595 0.5685684 0.563762 0.86346316
0.6572052 0.7917883 0.46189246 1.6056817 0.6672556 0.40659267 0.4526703 1.2756364
0.46754912 0.28645784 -0.22792515 0.10971901 0.3416213 0.8485271 -0.020403573 0.4441996
0.8829259 1.1267053 0.28399536 0.69354635 0.6453392 0.30166814 0.71583325 0.6644352
1.1531781 1.4637969 0.93462694 1.1821388 1.5866038 0.605822 0.38561377 0.6990119
0.8723131 0.532144 0.4647154 0.0070262444 0.60146695 0.74609196 0.40471345 0.74835265
1.0326343 0.33617136 0.27764335 0.56313986 0.027136471 0.6196511 0.5341748 0.6282558
0.5028154 0.67134416 0.39084753 1.2200444 1.0798591 2.8982327 0.56853807 0.87448686
0.83335114 0.17828146 1.4856085 0.4087016 0.43291473 1.0444157 0.56907433 0.43103775
0.94368255 0.49696818 0.27393988 0.478644 0.41381085 0.6167653 0.35134697 1.0066592
-0.4366031 0.7225476 1.6849267 0.96378255 0.57247293 1.193546 0.265167 1.3125925
0.85460657 1.3015295 0.42207178 0.77088064 0.7835105 0.59211653 0.6962613 0.36202553

bn1.bias f4 [256]
00000000: 07ca 413e 6c67 993e 7b44 7d3e d471 523e
00000010: ae10 27bd ef72 bc3d 20fe 113d 4bad 47be
00000020: 6ef0 4dbe a6c5 1bbd 2f86 53be cf44 983d
00000030: beae 26bd 81e4 06bd c320 fb3d c3a4 9b3e
00000040: 958f c43d 0a4e 2e3e ac1f b0ba d50c 03be
00000050: dcbe 6e3e c2a7 1bbe 57fc 873d 788f 833e
00000060: 74ea 313d fee4 0abf 6f85 bb3d edf4 793e
00000070: ff3c 053d 897a 453e 57e4 ee3e c921 143e
00000080: ac81 583e dcd2 fe3d 8fca 6b3e 63b0 b83d
00000090: 7ade 2fbe 2a81 38bd a887 a23c b414 273d
000000a0: 5a24 8abe cfb1 e73e 5b79 ba3d 36d2 02be
000000b0: 173a 923d 9cd7 283e 9202 7b3e c21f ce3d
000000c0: ebc6 353e 66b2 3b3b c916 d83c ca96 ce3e
000000d0: 4d84 173e 0dad c9bd c676 8c3e c3d6 d1be
000000e0: a4ea d73d 1bcc 90bd 523a 023e 0297 0b3f
000000f0: b913 113e 4a56 d7be f23d a4be 3c19 173e
00000100: a21f 133f eb72 263e e941 63bf 7734 093f
00000110: 614e b73e 00c6 823e f5f2 a1bb c985 803d
00000120: 9c9f 07bf 19b8 743d 35f1 303b 9243 ba3e
00000130: 4c91 cdbe 2dd4 d83b f7f0 c43e ccf5 05bf
00000140: a600 723e e5f0 fa3e 8a17 8dbd 8978 b0bd
00000150: 5610 113e 1575 fa3d f835 4e3e 4697 403d
00000160: 110c b7be 14aa 153e d56e 823e cbf9 273e
00000170: 2ac6 bbbe 3a3e a93e c003 123e 0b67 8c3d
00000180: e399 183e 478b 8bbe 644e 3ebc 425e d5be
00000190: 8363 5fbd 6995 763e 3bb2 543e 60df 253c
000001a0: cf19 253f 392f 5c3c cb48 423f bfaa 1a3d
000001b0: af37 d83e ec6e b73d 275e 033e ca80 13bd
000001c0: e9a9 1cbf b516 0e3e 5b79 f1be 0af0 29bf
000001d0: 95d6 253d 4acc 013d 1326 833d d20a cf3c
000001e0: 2e06 09bf f2b9 233e 8ddb 6b3f 0a5c c5bd
000001f0: 37c3 8bbc 1db0 80bd b079 933e bd9a 8cbe
00000200: e238 663e 5a48 e93e 0e58 6f3e ee58 a33e
00000210: 53a7 65be 6752 383e 4bf2 57bd 5f6f 523e
00000220: 9516 f5bd 5f6e cc3d 3d7d f1bd d09b b9bc
00000230: c35b 1d3c 9a6a ce3e 37a0 babe bc85 9ebe
00000240: 23ae 6dbf d7f7 643c ca6c 28be 1340 7a3e
00000250: 68a0 3b3e 96ea 013d 6bcc 083e 04e9 13bf
00000260: 9af9 9a3e c4f2 2abe 36d7 d73d ed87 023e
00000270: db3c b33e ac6d 453e 193b 7ebe d2c4 bebe
00000280: da0c 2e3e a64a 063f 3eea d23d 03af c63e
00000290: 361f a4be 083d b13d 4229 063e f9f1 433e
000002a0: 6353 9e3e 9438 68be 1a03 4bbf 3a32 9a3e
000002b0: 75b1 e53e fa5e 193d 45cc 8bbe c952 fa3d
000002c0: 06fd 0f3f a13f f8bd 93a0 3cbe eed2 3abe
000002d0: 9c4f 06be 7834 803e 0502 67bc 3260 723e
000002e0: 1895 863d f19e 873e 5d59 ff3e 765e 19be
000002f0: ea6a d23d 0865 f53d 28bb 8c3e 2f79 e03d
00000300: 12ba bdbc 7410 0b3e 8bd7 bd3e e6ce 17bd
00000310: 20e8 a63e 1a23 d43d 887e b1bd 55c6 ffbb
00000320: 792b f43e 2539 9e3e f355 333e e96c 8b3b
00000330: c0b3 ca3e 1059 6f3e e5fb 5d3e d760 9ebe
00000340: b2af e73e 6c31 403e d85f a23d 44c8 473e
00000350: 16ba b43c 33fc 793e eaa1 713f f1c6 18be
00000360: 216e a9bd 60e2 a73e 90e8 5b3e 2985 a8be
00000370: 4b8d a6bd c185 aa3c 6424 a73d 90b8 a4be
00000380: e523 853c b21a adbe b1bd 153d cdb8 173d
00000390: bc10 2e3f 7c8a 4f3e 07dc c63e 4134 b13e
000003a0: fa4c df3e f461 353d 0ceb 3f3e bd04 04be
000003b0: 3dd2 ea3d 0ba7 9bbe ee54 af3e d5ea 5d3e
000003c0: 4385 643e 4f5a bcbd add0 4d3e 0fbf 26be
000003d0: 1d9f dd3d c086 6a3e 6392 3b3e 17a3 493e
000003e0: 3998 0d3e de17 c9bc 7321 d83e 1d4e 823e
000003f0: 25c2 52be be41 4a3e be09 bd3e 999a f53d
0.18924724 0.29961717 0.24733154 0.20551234 -0.04078739 0.09201609 0.035642743 -0.194997
-0.20111248 -0.03803029 -0.20656656 0.07434999 -0.04069399 -0.032932762 0.12262108 0.3039914
0.095976986 0.17021957 -0.0013437173 -0.12797864 0.23314995 -0.15200713 0.06639927 0.25695395
0.043436483 -0.54255664 0.0915631 0.24409838 0.032528874 0.19285025 0.46658584 0.14466013
0.21143216 0.12442562 0.23026489 0.09018018 -0.17174712 -0.045045055 0.019840077 0.04079123
-0.2698086 0.45252845 0.09105178 -0.12775502 0.07139986 0.16488498 0.24512699 0.10064651
0.17751662 0.002864027 0.026378052 0.40349418 0.14796562 -0.0984746 0.27434367 -0.40984163
0.10542801 -0.0707018 0.1271756 0.54527295 0.1416768 -0.4205802 -0.3207851 0.1475572
0.5747014 0.16254775 -0.88772446 0.5359568 0.35801986 0.25541687 -0.004942293 0.062755175
-0.5297792 0.05974588 0.002699924 0.36379677 -0.40149915 0.00661709 0.38465092 -0.5232818
0.2363306 0.49011913 -0.06889255 -0.0861674 0.14166388 0.12229363 0.20137775 0.047019266
-0.35751393 0.14615661 0.25475183 0.16403882 -0.36674625 0.33055288 0.14259243 0.068555914
0.14902453 -0.27254698 -0.0116153695 -0.41673476 -0.05453826 0.24080433 0.20771115 0.0101240575
0.64492506 0.013438993 0.75892323 0.037760492 0.42229983 0.089567035 0.12828885 -0.036011495
-0.6119676 0.1387585 -0.471629 -0.66381896 0.040487844 0.031688966 0.064037465 0.025273714
-0.53525054 0.15988901 0.9213188 -0.09636696 -0.01706086 -0.06283591 0.28803778 -0.27461806
0.22482637 0.45563012 0.23373434 0.31903785 -0.2242711 0.18000184 -0.052721303 0.20550297
-0.11967198 0.09981989 -0.117914654 -0.022657305 0.009604397 0.40315706 -0.3645036 -0.30961406
-0.92843837 0.013975105 -0.1644775 0.24438505 0.18322909 0.03171786 0.1335923 -0.5777743
0.30268556 -0.1669417 0.10539095 0.12747164 0.35007367 0.19280118 -0.24827231 -0.37259537
0.1699709 0.52457654 0.102985844 0.38805398 -0.32055062 0.08654219 0.13101676 0.19135274
0.30922994 -0.22677833 -0.7930161 0.30116445 0.4486195 0.037444092 -0.27304283 0.12222821
0.5624546 -0.12121511 -0.18420629 -0.18244526 -0.13116306 0.2504003 -0.014099603 0.23669508
0.06571406 0.2648845 0.49872866 -0.1497744 0.102742985 0.11982161 0.2748654 0.10960614
-0.023160014 0.13580495 0.3707851 -0.037062548 0.32598972 0.103582576 -0.08666712 -0.0078056254
0.47689417 0.30902973 0.17513256 0.0042549265 0.39590263 0.23373818 0.21678121 -0.30933258
0.45251232 0.18768853 0.07928437 0.19509989 0.022061389 0.24412613 0.94387686 -0.1491964
-0.082729585 0.32789898 0.21475434 -0.32914093 -0.08132418 0.020815732 0.08161238 -0.3217206
0.016252467 -0.3380943 0.036557857 0.037041474 0.67994285 0.20267671 0.38839743 0.3461018
0.43613416 0.04428287 0.18742007 -0.12892433 0.11465881 -0.3040088 0.34244484 0.21671613
0.2231646 -0.091969125 0.20099135 -0.1628382 0.10821364 0.22902966 0.18317561 0.1969112
0.138276 -0.024547514 0.4221302 0.2545022 -0.20581873 0.19751641 0.36921495 0.11992378

bn1.running_mean f4 [256]
00000000: 5d38 ea40 1761 6440 5343 4c40 41b1 4240
00000010: 3a0d be40 e1fe 0640 64ad 56bd ddb5 4441
00000020: 8e9f 9240 4248 063f d561 6b41 1c3a 1740
00000030: 47fb 53bc 7bd7 d341 156f 873e 9183 2841
00000040: d599 dd3f ad41 273e 3e69 4841 ecd2 2c41
00000050: ba15 3741 2cc0 6c3f d3f3 5841 91d6 543e
00000060: 30ca ad3e d7ae c741 42ee fa3f 3846 453f
00000070: 4541 9a3f 7e90 8040 bc1f d13f 7332 fc3e
00000080: 1dce 963f 0617 e53e 1001 56bd 00b3 8840
00000090: 36ff c140 02bf dc3e 3a53 4540 0e5e 0d3f
000000a0: 0e2b 0741 6b98 cb40 b605 363f 4ec6 6641
000000b0: 77f5 6c40 e2ae 1740 4148 2940 e645 3740
000000c0: 402c 9340 6af7 7240 4797 0a41 f8aa 0541
000000d0: 0cca ba3f 7e4c 9741 c6c5 5a41 8167 be3f
000000e0: 767e 6641 33a5 54bd 083d 3f3f 29fa 153f
000000f0: 1fa4 9e3f f7c8 ef3f e0be 9dbd 74c6 2d3e
00000100: 0ab5 f940 f96a 1541 578a 9141 c706 c23f
00000110: 3888 c540 3ac0 bc3e b7bd 333f 1946 5440
00000120: 0e38 d43f 3090 1fbe e31f 7e41 c1f6 0541
00000130: 3585 b741 1389 1f3f 32f4 6e40 f2f6 2f40
00000140: ea1a d83d f6f0 1c40 2925 423f 70de 7840
00000150: 3f70 8f41 39dd 01be 611b 4c41 fb77 583f
00000160: 106e 8a41 0db1 1140 6a94 903f 7b40 823f
00000170: b868 633f eced 7c40 3df9 703e a32a 4c41
00000180: 1a26 b940 b2d7 5e3f e5ad 2941 2791 f53e
00000190: 0426 9440 c45c bd40 0109 3941 79a4 2340
000001a0: ab04 d23d ffc4 a93f ac55 943e 2c6e cb3e
000001b0: 522a 0d40 3bc8 5041 4808 1a3d 9b62 ad3e
000001c0: 838f 143e 5827 4240 9bd0 c340 e4db f13f
000001d0: 86f6 b53f 0312 163f b4f7 d13f 4669 6f41
000001e0: abf5 6a41 343d 4241 522c f73f c6df 713f
000001f0: 5e65 b341 5da0 5f3f c498 6841 d7d2 fe3f
00000200: 39dc ab3f bc41 87be 7e76 c140 16b0 ce3e
00000210: 8371 3a3e 862c 9340 ee12 d73f 54c5 5c40
00000220: 896a 2f40 bdeb 72bd f59d b841 e113 9f3e
00000230: bdcf 813e 3ba9 3241 1325 233e c627 3a41
00000240: c3df e940 dfb3 ce3d 6303 5e3e 3858 9540
00000250: 16bf 093e 0c56 f640 219f 103f 1a56 5f41
00000260: 5074 5d40 6c21 4dbc 7909 4f3f ed4f 7640
00000270: d2c8 0840 a2a0 8b40 cbcb b040 def8 b841
00000280: 18ac bc40 3791 8640 128e c6bd ef02 5d40
00000290: eba3 c13f 43bf ed3e 721b 383f 2f74 9840
000002a0: f068 fe40 8177 903b 3fce 8a41 1d50 1640
000002b0: 7990 7740 556e ec3f 8199 0fbe a92a bf40
000002c0: b887 233f 87b7 8841 f05d 0b40 d1fd 3a40
000002d0: 0f61 453e 5f6c 8240 ccf9 1f41 9102 36bd
000002e0: 1d39 26be a332 e83e 5c2e 0941 76d7 d03f
000002f0: 630a 883e c1d0 5940 2769 9240 2633 9c40
00000300: 551e 8d3c 8292 8840 2963 73be 3ae4 9741
00000310: bdb2 863e 3345 883f 46bb 9541 6067 af3f
00000320: 4aa9 ac3f c66c 5840 a9c6 ef3f 3b43 af41
00000330: 46bf a440 39f8 e540 9a10 d641 c6cf 8640
00000340: 341a f43f fd3e 0040 78d2 8c40 20ee 2740
00000350: 1a15 ab3f 5558 0341 1044 4e3f efff 2e40
00000360: 4dcc d53f 8656 0b40 895c ec3f ad51 0041
00000370: 14b6 4041 d0cd d33f 4c67 b840 326c 0641
00000380: e950 3f3e 1e4d 2741 14d5 c140 8b91 9740
00000390: 9aa6 1640 c452 20be 271b 643f 3f7f 0340
000003a0: b74e 3740 7239 ed3f 672f 1141 df90 3240
000003b0: b87a fe40 80f5 9f40 9848 f640 4fa1 f23e
000003c0: d6d7 b241 dccb ef3b ef43 3a41 380e 0240
000003d0: e48b 883e 3f48 3abe 32ea ccbd 0cca 5441
000003e0: e02c 743f d166 af3e 43c9 8ebd bcad 6a40
000003f0: 7dc8 3840 148d 5b40 9c97 2741 acb4 a140
7.3193803 3.568426 3.1916091 3.0420687 5.9391146 2.1093066 -0.052411452 12.2944
4.581977 0.52454007 14.711385 2.3629217 -0.012938327 26.480215 0.26451936 10.532121
1.7312571 0.16333647 12.525694 10.801495 11.442804 0.9248073 13.559527 0.20784976
0.3394332 24.960371 1.960396 0.7706027 1.2051169 4.017638 1.633781 0.4925724
1.1781651 0.44744128 -0.052247107 4.2718506 6.0624037 0.43114477 3.0832047 0.5522164
8.448011 6.3623557 0.71102464 14.423414 3.702482 2.370049 2.645035 2.8636413
4.5991516 3.796351 8.661933 8.35424 1.459291 18.91235 13.673285 1.4875337
14.405874 -0.05191536 0.747025 0.5858484 1.2393836 1.8733205 -0.07702422 0.16970235
7.8033495 9.338616 18.192549 1.5158318 6.1728783 0.36865407 0.70211357 3.3167784
1.6579607 -0.15582347 15.882785 8.372743 22.940042 0.62318534 3.7336545 2.7494473
0.105520085 2.452207 0.7583795 3.8885765 17.929808 -0.12682046 12.756684 0.84558076
17.303741 2.2764313 1.1295292 1.0175928 0.88831663 3.9520216 0.23532577 12.760409
5.785901 0.87047875 10.604955 0.47962305 4.6296406 5.917574 11.564698 2.5569136
0.102547966 1.3263243 0.28971612 0.39732492 2.205708 13.048884 0.037605554 0.33864293
0.1450787 3.0336514 6.1192145 1.889523 1.4215858 0.58621234 1.6403718 14.9632015
14.684978 12.139942 1.93104 0.94482076 22.424496 0.8735407 14.537296 1.9908093
1.3426582 -0.2641734 6.0457144 0.40368718 0.18207364 4.599185 1.6802652 3.449544
2.7408774 -0.05930685 23.077127 0.31069854 0.25353804 11.166316 0.15932111 11.63471
7.3085647 0.100929014 0.2168098 4.667019 0.134518 7.698004 0.5649281 13.958521
3.4602242 -0.012520175 0.8087383 3.8486283 2.137257 4.3633585 5.524877 23.121517
5.8960075 4.2052264 -0.096950665 3.453304 1.5128149 0.46434984 0.7191688 4.7641826
7.9503098 0.004408777 17.350706 2.3486397 3.868193 1.8471171 -0.14023401 5.9739575
0.63878965 17.089613 2.1776085 2.9217417 0.19275306 4.075729 9.998486 -0.04443604
-0.16232724 0.45351133 8.573818 1.6315753 0.26570424 3.4033663 4.575336 4.8812437
0.017226378 4.2678843 -0.23768295 18.986439 0.2630824 1.0646118 18.716442 1.3703423
1.3489163 3.381639 1.8732501 21.907827 5.148349 7.1865506 26.758106 4.212863
1.9070497 2.0038445 4.400692 2.623909 1.3365815 8.209065 0.80572605 2.734371
1.6702973 2.177156 1.846574 8.01994 12.044453 1.6547184 5.7626095 8.401415
0.18683209 10.456327 6.0572605 4.7365165 2.3539186 -0.15656573 0.8910393 2.0546415
2.8641794 1.8533156 9.074073 2.7900922 7.9524803 4.9987183 7.6963615 0.47388694
22.355389 0.007318003 11.641585 2.0321178 0.26669228 -0.18191622 -0.10005607 13.299328
0.95380974 0.3425813 -0.069719814 3.666854 2.8872368 3.4304857 10.474514 5.0533047
