checkpoint_critic_0.pth (torch_old, 224935 bytes, 11 tensors)

fc1.weight f4 [256, 52]
-0.0047795353 0.0011093663 -0.022035176 0.05098053 0.061490662 -0.041246668 0.009384294 0.046370007
-0.031336695 0.061385203 -0.015990658 0.0060065 -0.053475183 -0.053950872 0.025171828 -0.015343908
0.06635035 -0.04066585 -0.014673294 -0.054287456 0.0025768834 -0.077747285 0.015451787 -0.104154
-0.019416342 -0.1047468 -0.017503219 -0.03603945 -0.042756267 0.03178064 -0.021942828 -0.026517708
0.055128194 -0.20613816 -0.02545866 0.020844629 -0.009603319 -0.08001858 -0.0017545131 0.040662564
0.056943737 -0.22482076 -0.004038251 0.20491885 0.067509666 -0.06635613 -0.035231277 0.14823116
-0.2111283 0.06605181 0.33102494 0.14768697 0.035361115 0.0076177316 -0.021069271 0.060122326
-0.01803144 -0.053441357 -0.07590307 0.07809564 0.042242907 -0.033622105 0.015840678 0.063345656
-0.016408088 0.060248453 0.04404216 0.0040354696 0.08931064 -0.07076674 0.017510831 0.08693277
-0.07016213 0.12352088 -0.0061917747 0.20025928 0.010151129 0.0909334 -0.018913198 -0.024243223
-0.070804745 -0.041718 -0.027110558 0.016781159 -0.053018324 -0.080578536 -0.0100096 -0.023290569
0.010618559 0.044778697 0.035108715 -0.05847354 -0.08377603 -0.03669344 -0.014850456 0.007968771
-0.007198108 0.10633979 0.039034378 0.08735276 0.22830951 -0.2131304 0.05525191 0.15717046
0.037329283 0.11779397 0.00350537 -0.0016698245 0.00074143085 -0.10117633 -0.01704684 -0.092668526
-0.0024085555 -0.03189265 -0.014504014 0.011086879 0.067640275 0.012385197 0.00024768797 -6.5421773e-06
0.0653478 0.033271834 0.039378144 -0.071719006 -0.07059148 -0.10878221 0.029126095 0.04079321
0.08343283 0.071984075 -0.0037845117 0.010598274 0.02600758 -0.027231878 -0.0067701195 -0.038795184
0.004994024 -0.00434692 0.045383237 0.02622635 -0.04839471 -0.06549779 -0.02434712 -0.07585825
-0.029877074 0.009273968 0.003721724 -0.04195635 0.06654821 -0.119642444 -0.0028883251 0.06607522
0.7155437 0.23049438 0.16462183 -0.050550573 -0.013203079 -0.112790085 -0.05073882 0.055901103
0.06027801 -0.011368556 0.0034771562 -0.034708336 0.020103984 -0.12922871 -0.045525208 0.06854946
-0.0016334398 0.07472122 0.041590985 0.046545554 -0.010433004 -0.08868249 0.06567456 -0.08251388
0.06798957 0.18824649 0.07076463 -0.06250205 -0.0075042374 0.18390489 0.0024027757 -0.02229939
-0.041020516 -0.0069273137 0.0025906737 -0.008483889 0.04098589 0.18382941 0.067407005 -0.014672853
-0.08605226 -0.006356366 -0.043535955 0.0006714927 0.0445093 0.1295168 -0.0016776401 0.082689695
0.02284463 0.25397012 -0.009988662 0.012056016 0.099665254 -0.029733608 0.041159943 0.30170247
0.07794781 0.10159006 0.036265437 0.01196597 0.01182335 0.05134941 0.003435124 0.05526166
-0.050066043 0.026946187 -0.12801577 0.0020981568 -0.022332113 0.09554255 -0.08895505 -0.0009805007
0.0003184543 -0.013781732 -0.01938808 0.045477934 -0.0688678 0.08320264 -0.028701035 0.016334191
0.09968177 0.07089641 -0.012045718 0.034107354 0.036369897 0.03312491 -0.015658772 0.015653424
0.02216661 -0.039524227 -0.04743841 -0.023986243 0.059990868 0.09548818 -0.010763679 -0.018328855
0.049869306 -0.09188652 0.021277545 -0.10129428 0.048132423 0.0145771485 0.03793242 -0.051897015
00000000: a69d 9cbb 2868 913a 1d83 b4bc f6d0 503d
00000010: a2dd 7b3d 44f2 28bd 95c0 193c 7aee 3d3d
00000020: e85a 00bd 0d6f 7b3d d7fe 82bc 2dd2 c43b
00000030: cb08 5bbd 97fb 5cbd 2635 ce3c 0465 7bbc
00000040: b1e2 873d 3c91 26bd 4168 70bc 865c 5ebd
00000050: eee0 283b f839 9fbd 7e29 7d3c b14e d5bd
00000060: 050f 9fbc 7e85 d6bd e962 8fbc 1a9e 13bd
00000070: 3221 2fbd 6b2c 023d 72c1 b3bc aa3b d9bc
00000080: 1ace 613d e215 53be ae8e d0bc 5bc2 aa3c
00000090: 3d57 1dbc c8e0 a3bd b1f7 e5ba ca8d 263d
000000a0: d63d 693d 6a37 66be 4e53 84bb 3fd6 513e
000000b0: 8242 8a3d b9e5 87bd ac4e 10bd e9c9 173e
000000c0: 0432 58be 2c46 873d 1a7c a93e 413b 173e
000000d0: d1d6 103d 2a9e f93b 7799 acbc d442 763d
000000e0: acb6 93bc 53e5 5abd 1273 9bbd 9bf0 9f3d
000000f0: e606 2d3d 55b7 09bd 4fc4 813c 5ebb 813d
00000100: 416a 86bc 15c7 763d 8d65 343d f93b 843b
00000110: 7fe8 b63d 27ee 90bd e072 8f3c cf09 b23d
00000120: 2ab1 8fbd 84f8 fc3d 5fe4 cabb c510 4d3e
00000130: ec50 263c 4a3b ba3d daef 9abc b999 c6bc
00000140: 1402 91bd 7ee0 2abd f616 debc a478 893c
00000150: be29 59bd 5c06 a5bd 4eff 23bc ddcb bebc
00000160: 77f9 2d3c de69 373d 28ce 0f3d f381 6fbd
00000170: c492 abbd dc4b 16bd 544f 73bc 738f 023c
00000180: 1bde ebbb adc8 d93d 83e2 1f3d 01e6 b23d
00000190: f8c9 693e db3e 5abe d44f 623d 4bf1 203e
000001a0: 97e6 183d f73d f13d 5aba 653b 03de daba
000001b0: 955c 423a 8935 cfbd d1a5 8bbc ffc8 bdbd
000001c0: dbd8 1dbb dea1 02bd 3ea2 6dbc bea5 353c
000001d0: fc86 8a3d 48eb 4a3c 1edc 8139 e084 dbb6
000001e0: 11d5 853d 0c48 083d fa4a 213d 6ae1 92bd
000001f0: 4492 90bd 35c9 debd d999 ee3c c816 273d
00000200: d5de aa3d 636c 933d 9205 78bb 62a4 2d3c
00000210: d90d d53c 6315 dfbc e1d7 ddbb b3e7 1ebd
00000220: e9a4 a33b 9c70 8ebb c6e3 393d a4d8 d63c
00000230: 8839 46bd b523 86bd 9d73 c7bc 925b 9bbd
00000240: c4c0 f4bc d7f1 173c 2be8 733b 6cda 2bbd
00000250: 6e4a 883d 1907 f5bd 0e4a 3dbb 7252 873d
00000260: df2d 373f b806 6c3e a092 283e 1e0e 4fbd
00000270: ba51 58bc 7dfe e6bd 82d3 4fbd 8ef8 643d
00000280: 13e6 763d 2e43 3abc 00e1 633b 542a 0ebd
00000290: 1cb1 a43c 8854 04be a478 3abd a963 8c3d
000002a0: 2519 d6ba 7007 993d 4f5b 2a3d 8da6 3e3d
000002b0: 31ef 2abc 2a9f b5bd 6280 863d 0afd a8bd
000002c0: 1e3e 8b3d b0c3 403e 0ced 903d 1301 80bd
000002d0: 1be6 f5bb 9051 3c3e e377 1d3b 36ad b6bc
000002e0: 2105 28bd 85fe e2bb 4bc8 293b 0200 0bbc
000002f0: d2e0 273d c73d 3c3e af0c 8a3d 6866 70bc
00000300: 2b3c b0bd 1049 d0bb c252 32bd 1d07 303a
00000310: 624f 363d 0da0 043e 43e4 dbba 3759 a93d
00000320: a924 bb3c 5f08 823e 7ca7 23bc 9986 453c
00000330: 4c1d cc3d e593 f3bc 5497 283d bf78 9a3e
00000340: 1aa3 9f3d 730e d03d 118b 143d ea0c 443c
00000350: b9b6 413c c253 523d d11f 613b 0d5a 623d
00000360: 0d12 4dbd 40be dc3c 9116 03be 3b81 093b
00000370: d6f1 b6bc d0ab c33d 112e b6bd 2584 80ba
00000380: 36f6 a639 c6cc 61bc c0d3 9ebc 1247 3a3d
00000390: 900a 8dbd 2566 aa3d 6f1e ebbc 48cf 853c
000003a0: f525 cc3d 2332 913d 675b 45bc 27b4 0b3d
000003b0: 9af8 143d fcad 073d d346 80bc 9c3b 803c
000003c0: c096 b53c 28e4 21bd c74e 42bd cc7e c4bc
000003d0: fcb8 753d 4f8f c33d 245a 30bc 6526 96bc
000003e0: c243 4c3d 002f bcbd 3f4e ae3c 6073 cfbd
000003f0: 8126 453d fed4 6e3c 065f 1b3d f791 54bd

fc1.bias f4 [256]
-0.102720454 -0.0863421 -0.010753675 0.070099175 0.045448035 -0.080283485 -0.11151385 -0.21375513
-0.07579662 -0.14139724 -0.26236853 0.09725106 -0.0043294644 0.053223703 0.09716163 -0.043972712
-0.24747458 0.045940943 -0.0071599972 -0.015417265 -0.053945266 -0.04590179 -0.13531877 0.04102003
-0.0963321 0.08867784 0.0529814 -0.09404232 -0.0058093127 -0.06142185 -0.11230898 -0.012177964
-0.2234732 -0.12417119 -0.11921915 0.0501468 -0.14136043 -0.13434827 -0.14588912 0.05909904
-0.024422703 -0.17715809 -0.12429476 -0.1898412 0.13419609 -0.21751563 -0.022482293 -0.009451464
-0.2512528 0.090138316 0.06655318 0.029771576 -0.032878492 -0.042577878 0.04240661 0.055832554
-0.021131525 -0.06210547 0.059733216 -0.098597825 -0.101627395 -0.1779207 -0.11972648 0.13626008
-0.15098475 -0.05007338 -0.020221269 -0.050860737 0.07831883 -0.075431675 -0.09107306 -0.23184097
-0.2517212 -0.22555123 -0.05745809 -0.1080238 -0.3095598 0.02851745 -0.15203457 -0.18305339
-0.1379217 0.17461674 -0.070637874 -0.11148992 -0.26042756 -0.12358183 0.1262101 0.056112662
-0.16556565 -0.086614914 -0.16803432 -0.15574026 -0.17533486 0.06367383 -0.17602737 0.11015185
0.049784843 -0.12331009 -0.033502955 -0.013441454 0.067573965 -0.31680897 0.09547422 -0.18179496
-0.059198383 -0.091794014 -0.10698948 0.08904406 -0.1292111 -0.16051386 -0.21846017 -0.18899822
0.15754558 -0.11221899 0.04437178 0.013923514 0.008859127 -0.03223412 0.11475707 -0.14786401
-0.0033876577 -0.107781075 -0.099981904 0.18590033 -0.11182277 -0.06584896 -0.38999847 -0.031516396
-0.012532032 -0.05021913 0.012679423 0.04462984 -0.13695939 0.06521893 0.0075204712 -0.04773908
-0.084138505 -0.16499743 -0.019952293 0.016500235 0.031800557 -0.100806385 -0.008598398 0.02902428
-0.22128081 -0.023962546 -0.121386535 0.057523225 0.10359754 -0.07103437 -0.040560313 -0.13471982
0.04735969 -0.012954546 0.020739561 0.08394242 -0.062200412 -0.31784523 0.039515264 -0.04967732
-0.034410108 0.098296605 -0.113866605 -0.07890834 -0.08688073 -0.054753426 -0.20850174 -0.11687488
-0.09697221 -0.2637818 0.0021056863 -0.1891079 -0.13129643 -0.24911201 0.05745899 0.06414656
-0.01086784 -0.100979224 0.004554495 -0.17370114 0.014807359 -0.16693474 -0.026843335 -0.046048317
0.09969941 -0.18556552 0.002226129 -0.057468314 -0.05687653 -0.13898923 0.026535673 0.011534136
-0.25337666 -0.15588525 -0.030703072 0.16573834 0.15144545 -0.110528566 0.056317057 -0.00017994229
-0.21718034 0.05644014 -0.023317832 -0.18748969 0.052657425 -0.118747145 0.1189229 -0.036450464
-0.063691586 0.005038671 0.09728891 -0.084744036 0.20335841 -0.15128358 -0.14490286 -0.0731279
0.084949024 -0.007914114 -0.16092382 0.09871052 -0.11818722 -0.03541452 -0.22587979 0.011771124
-0.0001416846 -0.022325084 0.05641151 0.04609075 0.1358084 -0.035218623 -0.0034254724 0.018210128
-0.03905254 0.048529807 0.07288695 -0.0015969636 -0.060214296 -0.248313 -0.110896595 -0.07395433
-0.009317286 0.025608027 0.019805891 -0.069108136 -0.2741842 -0.23511365 0.029801913 -0.034022596
-0.17905828 -0.16273788 -0.14114457 -0.0056932205 -0.04264971 -0.04578354 0.020629562 -0.17832887
00000000: 1a5f d2bd 20d4 b0bd 2f30 30bc 2890 8f3d
00000010: b827 3a3d ab6b a4bd 6061 e4bd a0e2 5abe
00000020: 423b 9bbd 70ca 10be 2b55 86be 902b c73d
00000030: 2ede 8dbb 1901 5a3d adfc c63d bb1c 34bd
00000040: fa69 7dbe 922c 3c3d 699e eabb b298 7cbc
00000050: b6f5 5cbd 8403 3cbd 0191 0abe 9e04 283d
00000060: c449 c5bd ba9c b53d 0603 593d 4399 c0bd
00000070: 0c5c bebb 7a95 7bbd 4002 e6bd 1586 47bc
00000080: 29d6 64be 774d febd 2b29 f4bd bb66 4d3d
00000090: cac0 10be 9892 09be f563 15be d611 723d
000000a0: 1f12 c8bc ee68 35be 408e febd bb65 42be
000000b0: b36a 093e 6bbc 5ebe c92c b8bc 50da 1abc
000000c0: 35a4 80be 709a b83d 094d 883d 85e3 f33c
000000d0: 99ab 06bd 2466 2ebd 8eb2 2d3d adb0 643d
000000e0: 051c adbc 4e62 7ebd d1aa 743d a8ed c9bd
000000f0: 0622 d0bd d830 36be 2833 f5bd c387 0b3e
00000100: bf9b 1abe bf19 4dbd 13a7 a5bc 5953 50bd
00000110: 9f65 a03d ec7b 9abd 8384 babd b867 6dbe
00000120: 9ae1 80be e7f6 66be 2d59 6bbd 953b ddbd
00000130: 9f7e 9ebe 6d9d e93c f3ae 1bbe 5972 3bbe
00000140: 593b 0dbe bbce 323e 97aa 90bd d454 e4bd
00000150: c356 85be 7818 fdbd 383d 013e 64d6 653d
00000160: 0b8a 29be 2963 b1bd 3011 2cbe 607a 1fbe
00000170: fb8a 33be 6d67 823d 8540 34be 4b97 e13d
00000180: 31eb 4b3d 008a fcbd 653a 09bd 8b39 5cbc
00000190: 3864 8a3d c934 a2be fd87 c33d 7528 3abe
000001a0: 017a 72bd 80fe bbbd 4d1d dbbd bb5c b63d
000001b0: ea4f 04be bf5d 24be 06b4 5fbe c088 41be
000001c0: a153 213e 12d3 e5bd 2fbf 353d 731f 643c
000001d0: df25 113c ed07 04bd c105 eb3d aa69 17be
000001e0: 7703 5ebb 53bc dcbd 50c3 ccbd a85c 3e3e
000001f0: 5603 e5bd d2db 86bd e1ad c7be 5617 01bd
00000200: 2753 4dbc 93b2 4dbd 5bbd 4f3c c7cd 363d
00000210: 153f 0cbe 8191 853d 496e f63b 0e8a 43bd
00000220: cf50 acbd 16f5 28be fe72 a3bc 802b 873c
00000230: 4d41 023d 9473 cebd 4ce0 0cbc 54c4 ed3c
00000240: 7097 62be 1a4d c4bc 8199 f8bd 799d 6b3d
00000250: f22a d43d 787a 91bd 9222 26bd fef3 09be
00000260: 3cfc 413d 4e3f 54bc 03e6 a93c 01ea ab3d
00000270: dcc5 7ebd 9cbc a2be c2da 213d 727a 4bbd
00000280: 9df1 0cbd bb4f c93d e532 e9bd b29a a1bd
00000290: 86ee b1bd 2145 60bd 7b81 55be 195c efbd
000002a0: 5e99 c6bd 680e 87be 8eff 093b 80a5 41be
000002b0: 9272 06be 3817 7fbe 1e5a 6b3d 465f 833d
000002c0: 060f 32bc 32ce cebd e03d 953b b6de 31be
000002d0: 919a 723c f1f0 2abe 8ee6 dbbc 299d 3cbd
000002e0: 342f cc3d e304 3ebe 3fe4 113b e563 6bbd
000002f0: 5df7 68bd 3153 0ebe 5761 d93c acf9 3c3c
00000300: 96ba 81be 62a0 1fbe 0285 fbbc 50b7 293e
00000310: 8414 1b3e cd5c e2bd b7ac 663d e4ae 3cb9
00000320: 8664 5ebe c72d 673d 0a05 bfbc 4cfd 3fbe
00000330: 50af 573d b431 f3bd d98d f33d 154d 15bd
00000340: bc70 82bd 701b a53b 683f c73d 488e adbd
00000350: 303d 503e 15ea 1abe 6a61 14be 15c4 95bd
00000360: c1f9 ad3d 33aa 01bc 37c9 24be be28 ca3d
00000370: 240c f2bd d10e 11bd 084d 67be acdb 403c
00000380: 2c91 14b9 18e3 b6bc c10f 673d a7c9 3c3d
00000390: 5b11 0b3e 6741 10bd e47d 60bb 682d 953c
000003a0: 8ef5 1fbd 31c7 463d c145 953d 3551 d1ba
000003b0: 44a3 76bd c345 7ebe c11d e3bd 5e75 97bd
000003c0: 88a7 18bc edc7 d13c f73f a23c 9188 8dbd
000003d0: df61 8cbe a2c1 70be 2423 f43c 475b 0bbd
000003e0: 0e5b 37be c2a4 26be 3488 10be 328e babb
000003f0: 76b1 2ebd 8587 3bbd 54ff a83c d89b 36be

fc2.weight f4 [128, 256]
0.04286812 0.06254279 -0.08381498 0.1309343 0.028033491 -0.0008683088 -0.021396298 -0.025289692
0.049961694 0.101386495 0.03474932 0.013071118 0.036408212 0.004661424 0.06270672 -0.053478926
-0.09417688 -0.02606653 0.10467735 -0.19498245 0.063603625 0.036944117 -0.0794251 -0.051905498
0.1606535 -0.034910448 0.024361197 -0.017334474 -0.10319881 -0.023193391 0.04469218 0.03704694
0.042353366 -0.009004623 -0.088538416 -0.019957183 -0.03974462 0.063314416 0.03405986 -0.046449475
0.023934208 0.010236471 0.02094993 0.036885448 -0.09777711 0.012020553 -0.06994422 0.022464411
-0.050083086 0.047235604 -0.26928365 -0.009559498 0.0049760705 -0.017788034 -0.045322675 -0.010515815
0.016560806 -0.004185026 -0.03496434 -0.0070687607 0.00464611 0.027610356 0.022935137 -0.1309722
0.05736129 -0.006549868 -0.019307021 -0.02688956 0.026697094 -0.031871796 0.036651593 -0.081274725
-0.043910455 0.036556564 -0.044698417 -0.065029785 -0.0010634065 0.029452508 -0.047393136 -0.061498538
-0.027254572 -0.06530253 0.0033584666 0.047488675 -0.017204143 0.11226067 -0.11286768 0.019310959
-0.063744634 -0.055558737 -0.04161265 -0.08067792 0.039365243 0.011706535 -0.0047722175 -0.052792985
-0.10287207 0.057476256 0.1313217 0.11309504 -0.051068835 0.15412676 0.16648774 -0.067514226
-0.035997983 0.0412503 0.021145135 0.039179686 0.048226666 -0.040970605 -0.036163185 0.080043904
-0.07414083 -0.20162995 -0.1144422 -0.004070924 0.11903981 -0.015046174 -0.1038397 -0.004831592
0.030381026 0.006568123 0.09570795 0.036267765 -0.08972567 -0.025998276 0.074580215 -0.019909376
0.0065627806 -0.022033012 0.0016986787 -0.054989424 0.057672206 -0.017857322 0.021167425 0.02265708
-0.012990034 -0.012554949 0.1134847 0.045488425 -0.045869 0.022958789 -0.017860178 -0.08559726
0.07688303 -0.071885735 -0.0142937945 -0.05223064 -0.013568456 0.09277466 0.0016520357 -0.03339354
-0.013867397 0.079684265 0.06007468 0.08884152 -0.0448498 -0.024321564 0.04576928 0.077056125
0.049888317 0.027933007 0.0006719836 -0.07308241 0.027810073 -0.0031110905 0.004383148 -0.17911085
0.047345813 0.022776939 0.018550396 -0.032706577 -0.0027224056 0.091078 -0.06839301 0.028783843
0.0014671879 -0.0937809 -0.033097155 -0.12605165 0.07896667 -0.08707325 0.05656231 -0.067344785
-0.09475573 -0.023349592 0.09118951 0.04325301 -0.032401714 -0.010895182 0.038284447 -0.035820298
0.04673396 0.08399407 -0.054500114 0.08980213 0.04741078 0.0894194 -0.18566492 -0.04289892
-0.035890933 0.050961938 -0.053122785 0.03522769 0.073127106 -0.03493787 0.06042495 0.047832347
-0.020209327 -0.03980063 -0.005856573 0.0708668 -0.012929143 0.117713735 -0.071086384 -0.13710223
-0.09444408 -0.00910746 -0.044335913 0.047610622 0.026118826 0.07725084 0.032993663 0.011186375
0.08730758 0.032689694 0.053547397 0.041582953 0.06098789 -0.06822629 -0.016474878 -0.031136863
-0.002711357 -0.07720658 -0.003925851 -0.03262773 0.06516304 -0.0124808205 -0.010895111 0.088395715
0.02440982 0.030857025 -0.05383539 0.15527627 0.1047768 -0.04400662 0.06394633 0.00066048384
0.012509913 -0.06477784 -0.076672904 0.015777646 -0.07005331 -0.0070935767 0.033466496 0.0038284056
00000000: 7b96 2f3d 6f16 803d 30a7 abbd a413 063e
00000010: 7ea6 e53c 389f 63ba 4a47 afbc 542c cfbc
00000020: a2a4 4c3d b9a3 cf3d 4e55 0e3d 3e28 563c
00000030: c720 153d dcbe 983b 616c 803d b80c 5bbd
00000040: cfdf c0bd 7a89 d5bc 1461 d63d 7ba9 47be
00000050: 9e42 823d b752 173d a0a9 a2bd dc9a 54bd
00000060: 5a82 243e 42fe 0ebd 2291 c73c 0701 8ebc
00000070: e659 d3bd 1100 bebc 260f 373d 88be 173d
00000080: b97a 2d3d 2088 13bc a153 b5bd 3f7d a3bc
00000090: 41cb 22bd fdaa 813d 5a82 0b3d ce41 3ebd
000000a0: ac11 c43c dfb6 273c 309f ab3c 3215 173d
000000b0: 5e3f c8bd dbf1 443c ea3e 8fbd 4907 b83c
000000c0: ec23 4dbd 1f7a 413d 8cdf 89be 719f 1cbc
000000d0: 4e0e a33b 36b8 91bc 45a4 39bd 864a 2cbc
000000e0: 87aa 873c 8b22 89bb c536 0fbd 10a1 e7bb
000000f0: 653e 983b 1d2f e23c 78e2 bb3c 941d 06be
00000100: acf3 6a3d 46a0 d6bb c229 9ebc 7f47 dcbc
00000110: ddb3 da3c 008c 02bd fb1f 163d 5d73 a6bd
00000120: 73db 33bd 56bc 153d b015 37bd 562e 85bd
00000130: 0062 8bba 6346 f13c 4e1f 42bd e4e5 7bbd
00000140: fb44 dfbc 55bd 85bd b819 5c3b 7c83 423d
00000150: b4ef 8cbc ece8 e53d 2c27 e7bd 0432 9e3c
00000160: 8c8c 82bd 8f91 63bd 0772 2abd 773a a5bd
00000170: 733d 213d c4cc 3f3c 4360 9cbb 753d 58bd
00000180: 98ae d2bd 396c 6b3d 3279 063e 5f9e e73d
00000190: 8e2d 51bd 68d3 1d3e c37b 2a3e e644 8abd
000001a0: 9f72 13bd 13f6 283d 9038 ad3c e17a 203d
000001b0: 5389 453d cbd0 27bd d91f 14bd 0fee a33d
000001c0: 26d7 97bd 1578 4ebe ac60 eabd 6365 85bb
000001d0: 25cb f33d 3a84 76bc e9a9 d4bd 5552 9ebb
000001e0: a1e1 f83c 6939 d73b 8802 c43d 828d 143d
000001f0: 18c2 b7bd 56fa d4bc 83bd 983d fd18 a3bc
00000200: 980c d73b 937e b4bc 33a6 de3a 973c 61bd
00000210: b139 6c3d 8549 92bc 4f67 ad3c 579b b93c
00000220: 27d4 54bc 46b3 4dbc ab6a e83d 1252 3a3d
00000230: 22e1 3bbd 1214 bc3c 824f 92bc 9e4d afbd
00000240: da74 9d3d d438 93bd 8530 6abc ccef 55bd
00000250: 3b4e 5ebc a400 be3d 1f89 d83a aac7 08bd
00000260: 1434 63bc 8131 a33d de10 763d 8bf2 b53d
00000270: 6db4 37bd 043e c7bc 9278 3b3d 9acf 9d3d
00000280: b157 4c3d c3d3 e43c 0e28 303a 3bac 95bd
00000290: f3d1 e33c 70e3 4bbb 83a0 8f3b d668 37be
000002a0: afed 413d b496 ba3c 00f7 973c 55f7 05bd
000002b0: 636a 32bb 1a87 ba3d a211 8cbd 18cc eb3c
000002c0: a84e c03a 3310 c0bd e290 07bd af13 01be
000002d0: 47b9 a13d 7653 b2bd e1ad 673d 10ec 89bd
000002e0: 4b0f c2bd a547 bfbc 91c1 ba3d 112a 313d
000002f0: a9b7 04bd b581 32bc 27d0 1c3d 4eb8 12bd
00000300: 1c6c 3f3d 1505 ac3d 833b 5fbd 2eea b73d
00000310: ce31 423d 8521 b73d f21e 3ebe c7b6 2fbd
00000320: 5f02 13bd 77bd 503d 4797 59bd e94a 103d
00000330: aac3 953d 031b 0fbd 2780 773d daeb 433d
00000340: 088e a5bc fc05 23bd 7fe8 bfbb 9d22 913d
00000350: c2d4 53bc e613 f13d bd95 91bd 8764 0cbe
00000360: e66b c1bd 7537 15bc 9399 35bd 5b03 433d
00000370: 26f7 d53c b035 9e3d 5d24 073d 0f47 373c
00000380: 51ce b23d a1e5 053d 8454 5b3d e352 2a3d
00000390: 70ce 793d 3aba 8bbd 53f6 86bc bc12 ffbc
000003a0: 06b1 31bb 7c1e 9ebd 6da4 80bb a8a4 05bd
000003b0: 3374 853d 5b7c 4cbc 6881 32bc d008 b53d
000003c0: 1af7 c73c dfc7 fc3c 7f82 5cbd be00 1f3e
000003d0: 3895 d63d 4940 34bd 4bf6 823d 5224 2d3a
000003e0: 61f6 4c3c 3faa 84bd af06 9dbd 1f40 813c
000003f0: 1c78 8fbd 3c71 e8bb 2a14 093d fde5 7a3b

fc2.bias f4 [128]
0.008918138 -0.015896574 -0.06567857 -0.012990847 0.017479235 -0.06950677 -0.010089344 0.080919
-0.07897385 -0.14541975 -0.0681973 -0.10443982 0.016900562 -0.1604106 0.013876612 -0.028654989
0.010958524 -0.007550108 -0.12546702 -0.10404339 -0.0886352 0.015228092 0.012127248 -0.03539044
-0.006970497 -0.0199359 -0.08696234 0.024221394 -0.05509349 -0.09044028 -0.011786355 -0.0744796
0.03183529 -0.077314675 -0.018277168 -0.044720326 -0.002648453 -0.09747852 0.013739894 0.038297795
0.01550601 -0.05164419 -0.027395967 -0.076503746 0.022529114 -0.066452175 -0.010997957 -0.02600005
-0.050459586 0.0064430907 0.020938711 0.030379618 -0.059306085 -0.009339249 -0.08793296 0.0154349925
0.011451145 -0.0713871 -0.12661515 -0.04481732 -0.030035572 0.05142703 -0.122122906 -0.034701325
-0.058881342 0.004143204 -0.051428523 -0.008259367 0.05844076 0.021117846 -0.0066335583 -0.04263185
-0.051321927 -0.043400787 -0.1357889 -0.091107056 -0.023121512 -0.033096552 -0.026607001 0.0040835696
-0.062622465 0.0069866404 -0.05836086 -0.0053837723 -0.079416774 -0.013055251 -0.057934277 -0.029317526
0.03835144 -0.022430286 -0.10722225 -0.064918034 -0.0070314957 -0.056067787 -0.06559639 -0.05138271
-0.067792684 -0.01854144 -0.09147979 -0.0609538 -0.0401722 -0.05045837 0.024841217 -0.06254217
0.0009896321 0.014748701 -0.04207106 0.013910445 -0.0671023 -0.013742481 -0.07672916 0.12531012
0.06465821 -0.016193831 0.027038747 -0.09947482 0.012620167 -0.04536674 -0.11133177 0.009866526
0.024565266 -0.09680498 -0.09368495 0.010121189 -0.049162444 0.06718397 -0.08190948 -0.11882738
00000000: 621d 123c 8839 82bc 7c82 86bd 90d7 54bc
00000010: 9d30 8f3c 9159 8ebd c74d 25bc dcb8 a53d
00000020: 0bbd a1bd eae8 14be 07ab 8bbd 8be4 d5bd
00000030: 0c73 8a3c ad42 24be bb5a 633c debd eabc
00000040: 628b 333c e566 f7bb 6d7a 00be b314 d5bd
00000050: 5f86 b5bd 3f7f 793c 5db1 463c 91f5 10bd
00000060: c468 e4bb 9d50 a3bc 5019 b2bd f26b c63c
00000070: b6a9 61bd c138 b9bd 8e1b 41bc c388 98bd
00000080: b965 023d 2857 9ebd 00ba 95bc a92c 37bd
00000090: ab91 2dbb d1a2 c7bd 4b1d 613c 26de 1c3d
000000a0: eb0c 7e3c dc88 53bd 826d e0bc ffad 9cbd
000000b0: fa8e b83c 1418 88bd c630 34bc 0ffe d4bc
000000c0: b6ae 4ebd 9020 d33b a987 ab3c adde f83c
000000d0: f0ea 72bd a603 19bc 3216 b4bd 0de3 7c3c
000000e0: 959d 3b3c 6633 92bd 67a7 01be 5e92 37bd
000000f0: 290d f6bc 26a5 523d 931b fabd fa22 0ebd
00000100: 902d 71bd b7c3 873b b7a6 52bd 4c52 07bc
00000110: 945f 6f3d 55ff ac3c 525e d9bb bc9e 2ebd
00000120: f136 52bd 06c5 31bd 3f0c 0bbe 5696 babd
00000130: 5369 bdbc 4090 07bd edf6 d9bc 77cf 853b
00000140: 3540 80bd 30f0 e43b cc0b 6fbd 5b6a b0bb
00000150: 43a5 a2bd b1e5 55bc 7e4c 6dbd 4f2b f0bc
00000160: 6616 1d3d b8bf b7bc 5797 dbbd bff3 84bd
00000170: 7668 e6bb 56a7 65bd 6657 86bd ad76 52bd
00000180: e4d6 8abd 38e4 97bc c259 bbbd b1aa 79bd
00000190: 9b8b 24bd 70ad 4ebd cf7f cb3c 1c16 80bd
000001a0: 8bb6 813a 89a4 713c b452 2cbd a3e8 633c
000001b0: ee6c 89bd 2528 61bc 2e24 9dbd 4c51 003e
000001c0: 866b 843d eda8 84bc 5d80 dd3c 74b9 cbbd
000001d0: d1c4 4e3c 7ad2 39bd e901 e4bd 36a7 213c
000001e0: 193d c93c b041 c6bd e5dd bfbd 58d3 253c
000001f0: 8f5e 49bd c097 893d 28c0 a7bd c55b f3bd

fc3.weight f4 [64, 128]
-0.040637184 0.111461 -0.024610534 -0.017556448 -0.0806639 -0.029228667 -0.040396698 0.1119623
0.1205655 -0.11043515 -0.021888608 -0.061046302 0.035622012 -0.10090088 0.098045215 -0.0054016914
-0.14973989 -0.040639386 0.1280182 -0.056025982 -0.008602612 0.032534104 -0.071179256 -0.05517937
-0.0585655 0.075856894 -0.08159688 -0.045013532 0.0052222037 0.11149329 0.021629531 0.0116049815
0.1761528 0.22919467 0.017626714 -0.07998605 0.10748721 -0.031244775 -0.051370032 -0.06757072
0.046402764 0.028662587 -0.023850543 -0.09794959 -0.17821485 -0.0020743248 -0.10886763 0.03057941
0.064875506 -0.0449452 -0.034671344 -0.03685053 -0.06952793 0.0068842764 0.026959186 -0.07637051
-0.05597297 0.014666684 0.09960651 -0.018299486 0.060777172 -0.07317089 -0.10921296 -0.08128658
0.15627512 -0.023572017 0.05662935 -0.047076307 -0.15962936 0.013063901 0.009847708 0.07059417
-0.06846729 0.0035335761 0.15022212 0.030146865 0.030232508 -0.101307385 -0.09316465 -0.0074555655
-0.028345432 -0.05183271 0.10478734 -0.10787416 -0.0936019 0.012391883 0.09473773 -0.0061703427
0.05762769 0.05593449 0.08687671 0.07286669 -0.14276654 -0.12652223 0.0048436807 -0.035736058
-0.093403466 -0.049158912 0.18102899 -0.12089088 0.054510385 -0.08870002 -0.01669012 0.04100605
-0.025570283 -0.019565018 -0.0010586858 0.0010673115 0.06563975 -0.10069069 0.014990526 0.10695942
0.061980106 0.060622152 -0.2572803 -0.10940347 0.12280073 0.07132693 -0.10377121 0.10729887
-0.014235035 0.08637078 -0.048201267 -0.09854408 -0.06887797 0.023218593 -0.17339034 -0.06265528
-0.12184561 -0.008131362 0.029154997 0.071550034 0.0022172139 -0.006920164 -0.0019637952 0.12937112
0.057674248 0.07752064 -0.026891036 -0.041572995 -0.032231342 0.15932092 -0.027800644 0.12774642
-0.04017438 0.020387204 0.017086152 0.033779345 -0.08195549 0.021359088 0.10496378 -0.052349105
0.087660894 -0.08184324 0.039844945 0.036562197 0.1685473 -0.04130478 0.04326139 -0.074241936
0.039481007 0.0065076854 -0.048688207 -0.050288405 0.12838131 -0.03871147 0.048923373 -0.20321317
0.083940424 -0.05469235 0.07308363 0.063365154 -0.026878776 0.11185074 -0.10012427 -0.050071266
0.06619613 -0.015692366 0.14875987 0.061842874 0.007960287 0.11121494 -0.015766118 0.105291605
-0.065749556 -0.048253622 -0.00035604756 -0.022649832 0.02336004 -0.023362197 -0.22761637 -0.06287873
0.016427316 0.11680944 0.16063567 -0.069405414 -0.0033566093 -0.15238246 0.019199409 -0.061038774
0.08972165 0.010241555 0.08832043 -0.038281355 -0.026426159 0.09988877 -0.048582945 -0.09855403
-0.19831184 -0.029863553 0.13571188 -0.06451196 -0.1835581 -0.06970637 0.0076673743 -0.06849937
0.0039627976 0.04019785 0.04161697 -0.057998374 -0.06795553 -0.016820597 0.0064495127 -0.08641454
-0.043280408 0.062149975 0.036388345 -0.13894995 0.023770126 0.043851465 -0.047649257 0.093080014
-0.0027030774 -0.13713203 -0.049700633 -0.12851188 -0.046729106 -0.08149053 -0.014098635 -0.09835678
0.086867586 -0.17775437 0.03293517 0.15919778 0.032365184 -0.022857426 0.0074646375 -0.062939204
-0.045904484 -0.101369075 -0.06763299 0.051229794 -0.036488246 -0.028362626 0.008690681 -0.12422088
00000000: 2d73 26bd aa45 e43d 089c c9bc 8ad2 8fbc
00000010: 1d33 a5bd f570 efbc 0277 25bd 7e4c e53d
00000020: 0beb f63d d32b e2bd bd4f b3bc b00b 7abd
00000030: 63e8 113d 1fa5 cebd eecb c83d ac00 b1bb
00000040: 6a55 19be 7c75 26bd 3417 033e 807b 65bd
00000050: f8f1 0cbc 7b42 053d 6ec6 91bd c303 62bd
00000060: 61e2 6fbd dc5a 9b3d 441c a7bd 1c60 38bd
00000070: 051f ab3b 9856 e43d 6a30 b13c d222 3e3c
00000080: 6661 343e 02b2 6a3e e665 903c bacf a3bd
00000090: 4122 dc3d 0bf5 ffbc 6269 52bd 8562 8abd
000000a0: d310 3e3d cdcd ea3c 3762 c3bc cb99 c8bd
000000b0: f47d 36be 65f1 07bb fef5 debd ac81 fa3c
000000c0: 73dd 843d 7518 38bd 8a03 0ebd 95f0 16bd
000000d0: a964 8ebd 7f95 e13b 83d9 dc3c 2468 9cbd
000000e0: ea43 65bd 884c 703c 7ffe cb3d cee8 95bc
000000f0: 7cf1 783d 9fda 95bd 0bab dfbd 9479 a6bd
00000100: 9606 203e 1a1a c1bc 2df4 673d 16d3 40bd
00000110: e175 23be f909 563c 4858 213c ad93 903d
00000120: 9438 8cbd 9293 673b d4d3 193e 8ff6 f63c
00000130: 2aaa f73c 3f7a cfbd 1ccd bebd d14d f4bb
00000140: ae34 e8bc 894e 54bd bf9a d63d 21ed dcbd
00000150: 5ab2 bfbd 5307 4b3c db05 c23d 9630 cabb
00000160: 030b 6c3d 901b 653d 6bec b13d 223b 953d
00000170: 6431 12be 0b8f 01be bdb7 9e3b f95f 12bd
00000180: 514a bfbd db5a 49bd aa5f 393e a395 f7bd
00000190: 4846 5f3d 5ba8 b5bd b8b9 88bc f6f5 273d
000001a0: c578 d1bc d146 a0bc 9ac3 8aba 08e5 8b3a
000001b0: 226e 863d ec36 cebd d39a 753c 8a0d db3d
000001c0: dade 7d3d ef4e 783d 3eba 83be ed0e e0bd
000001d0: f37e fb3d da13 923d 0086 d4bd 83bf db3d
000001e0: 103a 69bc 2ae3 b03d b16e 45bd 7bd1 c9bd
000001f0: e50f 8dbd eb34 be3c 3d8d 31be 6951 80bd
00000200: 318a f9bd 6739 05bc 76d6 ee3c d388 923d
00000210: ad4e 113b 8bc2 e2bb 04b3 00bb dd79 043e
00000220: d53b 6c3d 24c3 9e3d 974a dcbc 7248 2abd
00000230: 0305 04bd 0625 233e 2dbe e3bc f5cf 023e
00000240: e48d 24bd 1103 a73c 42f8 8b3c 365c 0a3d
00000250: 48d8 a7bd 41f9 ae3c 40f7 d63d 046c 56bd
00000260: 8e87 b33d 6e9d a7bd 7434 233d 3ec2 153d
00000270: aa97 2c3e 332f 29bd db32 313d 280c 98bd
00000280: d6b6 213d 6c3e d53b 496d 47bd 37fb 4dbd
00000290: 6476 033e eb8f 1ebd e063 483d 1d17 50be
000002a0: f5e8 ab3d 1605 60bd dfac 953d 97c5 813d
000002b0: e130 dcbc 0012 e53d f40d cdbd 8717 4dbd
000002c0: d691 873d 478d 80bc 8254 183e f44e 7d3d
000002d0: dd6b 023c a9c4 e33d f227 81bc 20a3 d73d
000002e0: b4a7 86bd 97a5 45bd e5ab bab9 248c b9bc
000002f0: 8e5d bf3c 1462 bfbc 4414 69be 90c6 80bd
00000300: 9492 863c ca39 ef3d ad7d 243e 6d24 8ebd
00000310: 8ffa 5bbb 260a 1cbe 1448 9d3c cb03 7abd
00000320: fcbf b73d 32cc 273c 57e1 b43d e9cc 1cbd
00000330: ac7b d8bc 7c92 cc3d e9fe 46bd b2d6 c9bd
00000340: 4212 4bbe 69a4 f4bc 0ef8 0a3e d91e 84bd
00000350: a8f6 3bbe 37c2 8ebd 993e fb3b 6649 8cbd
00000360: 5bda 813b 80a6 243d 8e76 2a3d b48f 6dbd
00000370: 452c 8bbd 59cb 89bc 6f56 d33b 1bfa b0bd
00000380: cc46 31bd f990 7e3d f20b 153d e548 0ebe
00000390: 91b9 c23c 989d 333d de2b 43bd bca0 be3d
000003a0: 1d26 31bb 576c 0cbe e492 4bbd 9e98 03be
000003b0: 0567 3fbd 82e4 a6bd f6fd 66bc 486f c9bd
000003c0: a2e7 b13d 3e05 36be 07e7 063d be04 233e
000003d0: 5b91 043d 7f3f bbbc eb99 f43b 45e6 80bd
000003e0: 5706 3cbd 979a cfbd 2a83 8abd 55d6 513d
000003f0: b374 15bd bd58 e8bc 5c63 0e3c 8467 febd

fc3.bias f4 [64]
-0.04171259 0.088247 -0.0016020219 -0.080900185 -0.016874552 0.04066828 0.090805605 0.10692091
-0.1381571 0.11790282 0.06483604 -0.035506926 -0.03778814 0.061822426 -0.07260587 -0.01573046
0.09885987 0.02229739 -0.057568688 0.07064518 -0.09739451 0.091914475 -0.0028468817 -0.06261579
0.09059177 -0.027861461 -0.10624862 0.038130216 -0.023419332 0.1367384 -0.036521092 -0.06469784
0.08364692 -0.012629814 0.057761315 -0.010702967 -0.008778598 -0.028379204 -0.05354959 0.06528287
0.06582345 -0.09616823 -0.13047595 -0.10077876 0.046964157 -0.027951393 0.08451756 0.01996678
-0.10654743 -0.10226672 -0.09345743 0.032552544 0.07251956 0.07647112 0.04406296 0.09676526
0.05227975 0.04215184 -0.06414121 0.044385783 0.02498031 0.034295615 0.008289497 -0.038372807
00000000: d2da 2abd d8ba b43d effa d1ba ffae a5bd
00000010: 803c 8abc c893 263d 4af8 b93d 5af9 da3d
00000020: 0e79 0dbe 0977 f13d c2c8 843d b66f 11bd
00000030: bdc7 1abd 8339 7d3d 63b2 94bd 2add 80bc
00000040: 0b77 ca3d 04a9 b63c 25cd 6bbd 6cae 903d
00000050: c676 c7bd a83d bc3d c092 3abb b53c 80bd
00000060: 2e88 b93d b83d e4bc e098 d9bd 6e2e 1c3d
00000070: e6d9 bfbc 2705 0c3e 2497 15bd 4d80 84bd
00000080: 144f ab3d 48ed 4ebc 2197 6c3d 7f5b 2fbc
00000090: 1cd4 0fbc 817b e8bc d156 5bbd 06b3 853d
000000a0: 72ce 863d d9f3 c4bd 7d9b 05be 1865 cebd
000000b0: 7d5d 403d 52fa e4bc 8b17 ad3d 5f91 a33c
000000c0: 8a35 dabd 3771 d1bd 9c66 bfbd d155 053d
000000d0: 2385 943d e49c 9c3d 5d7b 343d dd2c c63d
000000e0: 4b23 563d 68a7 2c3d 775c 83bd decd 353d
000000f0: 82a3 cc3c 8f79 0c3d acd0 073c ce2c 1dbd

fc4.weight f4 [1, 64]
0.045099255 -0.028359678 0.017898627 0.18745656 -0.012915638 0.11750967 -0.059470788 -0.047719043
-0.082161695 -0.027498716 -0.019465864 -0.094074 -0.023714647 -0.068554915 -0.04352344 0.015730387
-0.035923276 0.19692805 0.1974669 -0.027408727 -0.047130667 -0.016976718 -0.04370635 0.19007447
-0.031840473 -0.019638633 -0.009449609 -0.051299136 0.13007294 -0.06988487 -0.062543415 0.01899753
0.048533414 -0.30732554 -0.07408365 -0.10432692 0.03572322 -0.08448825 -0.029035855 0.22816837
0.018959068 -0.124331705 0.024311291 0.19730377 -0.17890838 0.08474666 0.05040243 0.02143095
-0.039921116 0.08683568 -0.033986602 0.01951011 -0.016252724 0.060021173 -0.016283866 0.02110091
-0.10112268 -0.013088215 -0.029182442 0.06207618 0.013144012 0.028705543 -0.11049422 -0.026191678
00000000: ffb9 383d 8e52 e8bc 24a0 923c 9df4 3f3e
00000010: 1d9c 53bc e9a8 f03d a497 73bd 0b75 43bd
00000020: 6444 a8bd fd44 e1bc e076 9fbc dfa9 c0bd
00000030: 3845 c2bc 8566 8cbd a245 32bd 03dd 803c
00000040: 4924 13bd 82a7 493e c334 4a3e 4488 e0bc
00000050: 160c 41bd c212 8bbc 6e05 33bd e2a2 423e
00000060: 286b 02bd 33e1 a0bc 88d2 1abc 0b1f 52bd
00000070: d731 053e cc1f 8fbd c316 80bd b5a0 9b3c
00000080: f9ca 463d c659 9dbe 2bb9 97bd 5aa9 d5bd
00000090: 8352 123d 2d08 adbd 9adc edbc f8a4 693e
000000a0: 0c50 9b3c 9fa1 febd 7928 c73c 000a 4a3e
000000b0: c233 37be a88f ad3d c772 4e3d f68f af3c
000000c0: 5384 23bd e8d6 b13d 8935 0bbd abd3 9f3c
000000d0: 6f24 85bc c3d8 753d be65 85bc d1db ac3c
000000e0: 6819 cfbd f46f 56bc 0410 efbc 9843 7e3d
000000f0: fb59 573c e327 eb3c cb4a e2bd ee8f d6bc

bn1.weight f4 [256]
0.2791075 0.20686671 0.43608508 0.8663246 0.38831294 0.11068521 0.35670367 0.27870995
0.6949704 0.6709535 0.76352984 -0.19456643 0.63368064 0.695531 0.49212962 0.8911349
0.34389177 0.19169988 0.774012 0.52448916 0.7187705 0.5067975 0.5858481 0.38686958
0.25682232 0.41403115 0.9298441 0.49414405 0.616669 0.7120822 0.19624782 0.48164746
0.14005402 0.41339093 0.7558098 0.40647185 0.34972376 0.54089695 0.18410309 0.38776475
0.5244089 0.48655176 0.31771567 0.54940134 0.16581413 0.6979974 0.23917578 0.48508453
0.68778235 0.32513982 0.47530589 0.703891 0.50706494 0.76701236 0.3673657 0.7444001
0.5947511 0.33230135 0.8263403 1.2959142 0.22350694 0.27670503 0.537732 0.16676626
0.5854364 0.26594317 1.0486819 0.32176524 0.835065 0.40509975 0.2769218 0.30158976
0.6636172 0.9370957 0.5163841 0.6265349 0.7260629 0.14327411 0.5735972 0.6014603
0.46987873 0.34426457 0.59160197 0.67880076 0.29566282 0.42271313 0.49419788 0.28294137
0.20323333 0.2613168 0.6124093 0.3543242 0.56570786 0.6738743 0.4873979 0.8066952
0.8162925 0.29908404 0.80824745 0.25871533 0.6923622 0.20954056 0.4608795 0.7777513
0.44197306 0.7993486 0.4407451 0.34082347 0.32304743 0.75135326 0.19132248 0.6814818
0.57810986 0.65043527 0.7218423 0.60044926 0.14982477 0.51741916 0.5524399 0.8223557
0.44476628 0.11561421 0.32995135 0.46712264 0.20561934 0.59834677 0.4437484 0.16886558
0.7077547 0.2206457 0.52836055 0.40510204 0.33201152 0.2514748 0.44422492 0.24069741
0.25570083 0.568275 0.3395645 0.6671756 0.83572376 0.78963786 0.34324086 0.70795685
0.8072345 0.21953878 0.7417907 0.45848173 0.398089 -0.22139335 0.49075097 0.21907385
0.4845241 0.31785402 0.6505819 0.2523965 0.46646124 0.60769975 1.0224973 0.28231943
0.63071024 0.62918764 0.36360055 0.48729753 0.6668225 0.3205669 0.7874692 0.87024283
0.7588519 0.4237971 0.4396482 0.43954667 0.37013128 0.5494967 0.43628305 0.78097516
0.29107648 0.8298802 0.60493684 0.5576876 0.7339214 0.38862407 0.33860913 0.8890974
0.75760704 0.7153439 0.41876024 0.65155923 0.51872313 0.7295256 0.30203617 0.9257106
0.60615486 0.5617451 0.27219063 0.43497914 0.83368516 0.26402184 1.1435417 0.87845206
0.48954287 0.6307321 0.5523325 0.7387351 0.6135131 0.73255193 0.46048445 0.56783044
0.18235217 0.28833318 0.71773297 0.39874324 0.5359049 0.23173669 0.20202029 0.6315019
0.7673356 0.7277072 0.2978201 0.5682352 0.31284264 0.60034597 0.50573266 0.35238016
0.35588503 0.4921112 0.40432334 0.42707473 0.5581348 0.20962518 0.5826428 0.15683398
0.5965355 0.33782086 0.11332607 0.65653133 0.44824547 0.6170048 0.22905532 0.31417054
0.36676428 0.6667208 0.2683936 0.61842686 0.5107261 0.9032044 0.39117834 0.31044966
0.56632334 0.9608402 0.86600846 0.32571656 0.57234156 0.58297896 0.5383425 0.3383314
00000000: 2ee7 8e3e ded4 533e 8b46 df3e 73c7 5d3f
00000010: f4d0 c63e edae e23d dda1 b63e 12b3 8e3e
00000020: 95e9 313f 9cc3 2b3f b176 433f 6c3c 47be
00000030: e538 223f 520e 323f 6af8 fb3e 6b21 643f
00000040: 9512 b03e f94c 443e a725 463f ec44 063f
00000050: 5801 383f 7bbd 013f 24fa 153f c513 c63e
00000060: 377e 833e e4fb d33e 430a 6e3f 7300 fd3e
00000070: 05de 1d3f 054b 363f 30f5 483e 7f9a f63e
00000080: 526a 0f3e faa7 d33e c07c 413f 141d d03e
00000090: fe0e b33e 3978 0a3f 8585 3c3e 1a89 c63e
000000a0: a93f 063f 501d f93e a1ab a23e 91a5 0c3f
000000b0: 2ecb 293e f5af 323f 7fea 743e 005d f83e
000000c0: 8112 303f ba78 a63e 4b5b f33e 3332 343f
000000d0: 02cf 013f ec5a 443f 5b17 bc3e 0191 3e3f
000000e0: 9c41 183f 6723 aa3e 0a8b 533f 84e0 a53f
000000f0: 01df 643e 48ac 8d3e cea8 093f c6c4 2a3e
00000100: 29df 153f b429 883e 353b 863f 6abe a43e
00000110: d2c6 553f 3c69 cf3e b2c8 8d3e f969 9a3e
00000120: d1e2 293f 81e5 6f3f c031 043f 9764 203f
00000130: 42df 393f 73b6 123e 44d7 123f 4df9 193f
00000140: f293 f03e 7243 b03e 3a73 173f e3c5 2d3f
00000150: 1e61 973e db6d d83e 8107 fd3e b1dd 903e
00000160: 661c 503e 51cb 853e dbc6 1c3f fb69 b53e
00000170: 3bd2 103f 0783 2c3f 388c f93e 9483 4e3f
00000180: 8cf8 503f 8b21 993e 4ee9 4e3f 5676 843e
00000190: a63e 313f cd91 563e 66f8 eb3e b61a 473f
000001a0: 4b4a e23e 1ca2 4c3f 57a9 e13e 6a80 ae3e
000001b0: 7966 a53e b058 403f 0aea 433e 9775 2e3f
000001c0: 02ff 133f ed82 263f a8ca 383f 0bb7 193f
000001d0: aa6b 193e 9575 043f b46c 0d3f e785 523f
000001e0: 68b8 e33e 25c7 ec3d 62ef a83e b32a ef3e
000001f0: e08d 523e 412d 193f fe32 e33e 19eb 2c3e
00000200: 692f 353f f2f0 613e a342 073f 8969 cf3e
00000210: 6afd a93e 4ec1 803e 7371 e33e 6279 763e
00000220: 38eb 823e 787a 113f 66db ad3e 05cc 2a3f
00000230: fef1 553f b525 4a3f 44bd af3e a93c 353f
00000240: eca6 4e3f c6ce 603e ffe5 3d3f 1ebe ea3e
00000250: 52d2 cb3e f0b4 62be b643 fb3e e554 603e
00000260: 8b13 f83e c3bd a23e 898c 263f 1d3a 813e
00000270: 02d4 ee3e 3692 1b3f 31e1 823f 2c8c 903e
00000280: 3a76 213f 7112 213f da29 ba3e 107f f93e
00000290: e1b4 2a3f 5821 a43e 9597 493f 3cc8 5e3f
000002a0: 1e44 423f effb d83e 9219 e13e 430c e13e
000002b0: d981 bd3e d1ab 0c3f 7e60 df3e fded 473f
000002c0: fa07 953e 0773 543f 24dd 1a3f 9dc4 0e3f
000002d0: 46e2 3b3f bcf9 c63e 2d5e ad3e e39b 633f
000002e0: 89f2 413f c720 373f be67 d63e 96cc 263f
000002f0: 0acb 043f 31c2 3a3f 7ca4 9a3e 5ffb 6c3f
00000300: f72c 1b3f 87ce 0f3f 925c 8b3e 96b5 de3e
00000310: 646c 553f df2d 873e 935f 923f 3ce2 603f
00000320: 5da5 fa3e a977 213f aa65 0d3f be1d 3d3f
00000330: 320f 1d3f 8688 3b3f 9ec4 eb3e 565d 113f
00000340: 87ba 3a3e 68a0 933e 59bd 373f 1328 cc3e
00000350: 1031 093f 624c 6d3e 68de 4e3e 1caa 213f
00000360: 1b70 443f 054b 3a3f e07b 983e dd77 113f
00000370: e92c a03e 46b0 193f b277 013f 2c6b b43e
00000380: 9036 b63e 00f6 fb3e 7803 cf3e 8aa9 da3e
00000390: ece1 0e3f fca7 563e 1428 153f 1699 203e
000003a0: 8db6 183f dbf6 ac3e 8017 e83d 7012 283f
000003b0: 6e80 e53e 07f4 1d3f 7a8d 6a3e f6da a03e
000003c0: 87c8 bb3e 37ae 2a3f e36a 893e 3951 1e3f
000003d0: f2be 023f 6738 673f 8748 c83e 42f3 9e3e
000003e0: 91fa 103f a0f9 753f bbb2 5d3f 52c4 a63e
000003f0: fa84 123f 1c3e 153f d0d0 093f c639 ad3e

bn1.bias f4 [256]
-0.042590003 0.0071508684 0.017079044 0.0880079 -0.049766768 -0.021785475 0.025259715 0.07541745
0.09875611 0.085802644 0.006029522 0.040122945 -0.014702872 0.019678248 -0.039429434 0.119457014
0.10474375 0.029099058 -0.0034012296 0.022223625 -0.020574037 0.025189476 0.023615563 0.060336042
-0.07663723 0.034981314 0.04823652 -0.021569282 -0.023301335 0.052745603 -0.0040418925 0.0613775
-0.030436523 -0.0014301604 -0.010108555 0.115906656 0.1336677 0.006717232 -0.02896206 0.10350362
-0.0143794995 0.03326171 0.005979354 0.062596165 0.01716388 0.020953769 0.04871034 0.04168494
0.083141565 0.0822957 0.034981683 0.10935254 -0.005741333 -0.086601645 0.014757107 0.07076757
-0.10970674 0.107754 0.033647865 0.05352592 0.011245414 0.00810915 0.06877792 0.11461331
0.0060313866 -0.0041172546 0.032086287 0.046692878 0.08676151 0.07360411 0.0134376995 0.02448998
0.03527101 0.04791849 0.003793652 0.014826847 0.121288896 0.008002749 0.08353307 0.034992956
0.019974455 0.05864568 0.10410993 0.08075639 0.10215589 -0.11625738 -0.036915287 0.069865055
0.028710485 0.1274581 0.038124554 -0.0028571975 0.07115987 0.14289437 0.17219141 -0.06307212
-0.002487415 -0.022541413 0.10591585 -0.044710524 -0.03865127 -0.06165646 0.104131594 0.060479827
0.06757378 -0.015385125 0.04583267 -0.004088572 -0.0094618425 -0.08152294 0.099301755 0.0026541401
0.12858139 0.044390064 -0.029816056 -0.015893873 0.0011131176 0.06472158 -0.031141317 0.07816053
0.09873391 -0.11257619 0.040712953 -0.047902796 0.001358733 0.027328925 0.034739733 -0.020917406
-0.004403829 -0.08989604 0.0028277144 -0.061633427 0.06717117 0.049333878 0.0318536 -0.0065086484
0.034307558 0.09204029 -0.053942584 -0.024809293 0.034227706 0.020122323 0.07889566 -0.08247344
0.08564452 0.07274682 -0.0005952635 -0.015046401 0.06805776 -0.06530116 0.032758847 0.009255536
-0.036643174 0.058565434 0.12014989 -0.03861413 0.07504871 0.0048569376 0.06326059 0.027482979
-0.091497615 -0.031952776 0.07541532 0.021049011 0.085920826 0.14813372 0.043663647 0.043839198
0.09894371 0.09081143 -0.0055736373 0.049467567 0.049964495 0.01134683 -0.0037026412 0.10116982
-0.015385726 0.010063211 -0.09198978 0.08708721 0.14054479 0.030977864 -0.014223144 0.10027541
-0.11354173 0.15954418 0.08302994 0.039688606 0.07049065 -0.021417163 0.05282818 0.08984072
-0.029812403 0.08625087 -0.019771585 -0.05153441 0.035382673 0.039557397 0.060211234 0.077595495
0.029640373 -0.06280031 0.05651012 0.05766902 0.05936052 -0.0006129188 -0.10101418 -0.050866835
-0.039174937 -0.009497964 0.06505122 -0.0015152744 -0.09689259 0.060951147 0.013022595 0.01385528
0.062606454 -0.03484787 0.15941125 -0.04936266 0.025595853 -0.10309021 0.017493999 0.043116283
-0.03923066 -0.055983327 -0.03542677 -0.049837846 -0.0723338 -0.07691269 0.1410704 -0.0529002
-0.038761944 0.06916831 -0.08890476 0.15819286 0.09134669 0.04960071 -0.0094652325 -0.020356603
0.0334396 0.025117766 0.062740676 0.031826414 -0.040145244 0.08732802 -0.066013835 -0.0074906833
0.027382798 -0.028063402 -0.046672877 0.027311103 -0.04187013 0.040571842 0.013682947 -0.017022897
00000000: db72 2ebd d551 ea3b 5ae9 8b3c 7c3d b43d
00000010: 3dd8 4bbd 7477 b2bc 76ed ce3c 7774 9a3d
00000020: a540 ca3d 4cb9 af3d 4c93 c53b f557 243d
00000030: 51e4 70bc 4734 a13c c280 21bd e1a5 f43d
00000040: e483 d63d 2661 ee3c 2ae7 5ebb 520e b63c
00000050: e28a a8bc 295a ce3c 6d75 c13c ed22 773d
00000060: fbf3 9cbd 9148 0f3d a893 453d 10b2 b0bc
00000070: 71e2 bebc c60b 583d da71 84bb f966 7b3d
00000080: 0456 f9bc 3874 bbba 5a9e 25bc 7860 ed3d
00000090: 30e0 083e 3a1c dc3b d841 edbc b5f9 d33d
000000a0: fe97 6bbc 6e3d 083d 75ee c33b 6b32 803d
000000b0: 449b 8c3c 3da7 ab3c 7e84 473d d4bd 2a3d
000000c0: 2046 aa3d a68a a83d f448 0f3d 39f4 df3d
000000d0: cb21 bcbb 345c b1bd cbc7 713c 96ee 903d
000000e0: edad e0bd 21ae dc3d 58d2 093d ff3d 5b3d
000000f0: af3e 383c 3edc 043c 70db 8c3d 62ba ea3d
00000100: f0a2 c53b 09ea 86bb e96c 033d 0841 3f3d
00000110: 05b0 b13d c0bd 963d cc29 5c3c 369f c83c
00000120: 5678 103d 2e46 443d eb9e 783b 4eec 723c
00000130: 5066 f83d f61d 033c 6313 ab3d c654 0f3d
00000140: 78a1 a33c 7436 703d 9637 d53d 9b63 a53d
00000150: 1b37 d13d 5918 eebd 7c34 17bd 6915 8f3d
00000160: 4032 eb3c 6084 023e 7e28 1c3d d23f 3bbb
00000170: 44bc 913d e752 123e f252 303e f52b 81bd
00000180: e603 23bb c5a8 b8bc 69ea d83d 6222 37bd
00000190: cb50 1ebd 7c8b 7cbd f242 d53d b2b9 773d
000001a0: 1f64 8a3d e411 7cbc 0abb 3b3d 6ef9 85bb
000001b0: d805 1bbc 80f5 a6bd b85e cb3d 15f1 2d3b
000001c0: d7aa 033e 5bd2 353d cd40 f4bc de33 82bc
000001d0: 07e6 913a bf8c 843d 131c ffbc a112 a03d
000001e0: 0135 ca3d 588e e6bd a0c2 263d b935 44bd
000001f0: 8417 b23a e9e0 df3c 404b 0e3d fb5a abbc
00000200: ff4d 90bb 6a1b b8bd 2d51 393b 5573 7cbd
00000210: 0a91 893d 5212 4a3d ec78 023d 8046 d5bb
00000220: 1586 0c3d 9f7f bc3d e6f2 5cbd dc3c cbbc
00000230: 5a32 0c3d 92d7 a43c 0c94 a13d d6e7 a8bd
00000240: 6566 af3d 49fc 943d 750b 1cba 2e85 76bc
00000250: de61 8b3d 9dbc 85bd 242e 063d 88a4 173c
00000260: 2717 16bd 4fe2 6f3d 2511 f63d da29 1ebd
00000270: 23b3 993d f226 9f3b c58e 813d fc23 e13c
00000280: 1a63 bbbd eae0 02bd 5973 9a3d fa6e ac3c
00000290: 42f7 af3d 5eb0 173e a7d8 323d bb90 333d
000002a0: 00a3 ca3d 58fb b93d 0fa3 b6bb 819e 4a3d
000002b0: 92a7 4c3d 0ee8 393c 03a8 72bb 1f32 cf3d
000002c0: 6914 7cbc 2be0 243c 2365 bcbd c75a b23d
000002d0: f9ea 0f3e 4ac5 fd3c 3108 69bc 325d cd3d
000002e0: 9188 e8bd 8d5f 233e 9a0b aa3d 8590 223d
000002f0: 675d 903d 0c73 afbc 5d62 583d 69fe b73d
00000300: 2439 f4bc 4ca4 b03d 05f8 a1bc bf15 53bd
00000310: 6ced 103d f006 223d 0ea0 763d 63ea 9e3d
00000320: 5ed0 f23c 739d 80bd 2877 673d 5a36 6c3d
00000330: 0424 733d 49ac 20ba 86e0 cebd be59 50bd
00000340: e675 20bd 599d 1bbc 9339 853d 2c9c c6ba
00000350: 9f6f c6bd e9a7 793d b95c 553c 4201 633c
00000360: d037 803d a4bc 0ebd b43c 233e 8030 4abd
00000370: 65ae d13c f620 d3bd 934f 8f3c b39a 303d
00000380: 54b0 20bd c64e 65bd a91b 11bd c522 4cbd
00000390: be23 94bd 6784 9dbd c274 103e e1ad 58bd
000003a0: d8c4 1ebd 1da8 8d3d b313 b6bd 4ffd 213e
000003b0: f913 bb3d 1d2a 4b3d 1014 1bbc e4c2 a6bc
000003c0: f6f7 083d c6c3 cd3c 2f7e 803d 6a5c 023d
000003d0: 576f 24bd 08d9 b23d 4332 87bd 6874 f5bb
000003e0: e451 e03c 38e5 e5bc 0f2c 3fbd 89bb df3c
000003f0: 0380 2bbd a92e 263d 702e 603c 9a73 8bbc

bn1.running_mean f4 [256]
0.1687669 1.2920169 0.08835816 2.4602978 1.7121295 0.8075647 1.4980568 0.15822528
1.2298374 1.2789438 0.11289356 0.92229986 0.133879 0.8673589 1.0676764 1.0727098
1.9747651 0.46409863 0.009517617 0.15015574 3.1720855 0.2794907 1.4345126 0.64855605
0.90621686 1.6408066 0.3845318 0.124075264 2.836861 1.0534505 0.17844792 0.2731286
0.027556067 0.6043582 0.28041068 0.31210417 0.24149336 0.49437022 1.6278478 0.27201787
4.7070255 0.35826528 0.7061027 1.0200787 0.14054948 0.055955134 1.4739192 1.0784605
1.8273166 0.6406419 5.155889 2.0754223 1.0712609 0.7966442 1.8861833 0.5289876
0.9886701 0.92626536 0.66474813 0.6110081 0.8594715 3.197292 0.6233907 0.050176986
0.26281655 1.7317594 4.328174 1.5374707 2.8436925 0.7298064 0.31745985 0.26536608
0.6207737 0.5740507 0.49251682 0.54440403 3.264592 0.6419813 1.4653572 2.0355642
0.58133155 0.13410641 0.28832328 4.3044553 0.5964745 2.27658 0.37474838 0.32190183
-0.00029270907 0.3851278 0.29048374 0.3398926 0.5267326 1.3638589 0.5968685 2.790446
0.5915465 0.7866421 2.0173073 0.5856239 0.6586591 0.04151636 0.06863548 1.1587403
0.120273784 0.38654903 1.072824 1.3963742 0.46063125 0.94189405 0.16641779 1.0598121
2.1000652 3.5152256 1.8912295 0.77790934 0.44983807 0.44641662 1.7080216 1.3417816
1.2027175 1.2401438 0.30405122 0.31595072 1.0108783 0.320588 0.6521663 1.8821326
1.1910357 0.13215141 0.7717993 0.19083934 0.3763227 0.24411714 0.4173104 1.120732
0.5954606 2.0788252 0.96178573 1.2660216 1.5961419 1.6992749 0.4202148 0.58040446
1.0731406 0.12384969 0.5604755 1.7459984 0.8423532 0.18038407 0.96828824 0.35936108
0.82185006 0.26242465 0.949597 0.18373051 3.846573 0.3485964 1.8545187 0.90505695
2.121655 0.6384759 0.26630569 1.1344681 0.6768268 2.8518634 0.9345706 3.7275324
0.4513371 0.0924013 1.9525921 0.61367023 1.3027973 0.11775375 0.6746947 0.8443563
0.69300646 2.7947452 0.98404485 0.32171175 1.1903064 0.029883508 0.09908279 0.8274038
0.8969443 1.024552 0.90595114 2.1604018 2.2111845 0.9023033 0.693239 0.4676178
0.8269611 1.592741 0.18030235 0.33943957 1.9623381 0.6662216 0.09145752 0.71396816
0.43203747 0.40601817 1.13647 0.47912377 1.0640666 1.0543679 2.6598833 2.8713913
1.5004935 0.8273873 1.0586557 0.1172429 0.7172571 1.3621949 0.39724347 0.011648409
1.9965388 0.24570939 0.6276592 1.3277904 1.1109282 1.2905387 1.3488175 0.21034798
0.37930664 0.29770565 2.9366364 0.5572525 0.23652849 0.08932359 0.8967242 4.639182
0.58814764 0.43324044 0.75268626 1.5472931 1.032907 0.3857511 0.6853317 0.22647536
0.29232883 0.39568633 0.26657218 0.3300202 0.038804293 0.31083947 0.9532162 0.15992516
3.6594138 0.487763 0.68468595 1.4270877 0.796686 1.0073171 0.6133451 0.25532198
00000000: 3bd1 2c3e cf60 a53f 1ff5 b43d 8575 1d40
00000010: 0f27 db3f 8fbc 4e3f 53c0 bf3f cf05 223e
00000020: 506b 9d3f 6eb4 a33f bd34 e73d d81b 6c3f
00000030: 9417 093e 3c0b 5e3f 9fa9 883f 8e4e 893f
00000040: 1ac5 fc3f 569e ed3e c7ef 1b3c 6dc2 193e
00000050: 7303 4b40 6819 8f3e 1c9e b73f c507 263f
00000060: d4fd 673f f305 d23f 5ae1 c43e 2c1b fe3d
00000070: 218f 3540 77d7 863f 0dbb 363e 83d7 8b3e
00000080: 43bd e13c 38b7 1a3f fd91 8f3e 1ecc 9f3e
00000090: 094a 773e 181e fd3e 515d d03f ed45 8b3e
000000a0: f49f 9640 8c6e b73e 26c3 343f f091 823f
000000b0: 34ec 0f3e 3631 653d 62a9 bc3f fe0a 8a3f
000000c0: 83e5 e93f 1c01 243f 0bfd a440 b8d3 0440
000000d0: 141f 893f e0f0 4b3f 746e f13f bb6b 073f
000000e0: 7c19 7d3f ba1f 6d3f ef2c 2a3f 076b 1c3f
000000f0: 5306 5c3f 6fa0 4c40 8896 1f3f 6286 4d3d
00000100: e48f 863e 4baa dd3f 6780 8a40 d7cb c43f
00000110: 0fff 3540 98d4 3a3f 198a a23e 10de 873e
00000120: 06eb 1e3f fdf4 123f 2a2b fc3e 105e 0b3f
00000130: 13ef 5040 e358 243f d390 bb3f af46 0240
00000140: 25d2 143f 3153 093e 1c9f 933e 19be 8940
00000150: 8eb2 183f 7db3 1140 05df bf3e 51d0 a43e
00000160: bf76 99b9 792f c53e 49ba 943e 6706 ae3e
00000170: f3d7 063f ee92 ae3f 60cc 183f ab96 3240
00000180: 976f 173f 6061 493f 901b 0140 73eb 153f
00000190: e29d 283f 0f0d 2a3d c290 8c3d 9a51 943f
000001a0: 1a52 f63d c1e9 c53e 4c52 893f 64bc b23f
000001b0: dcd7 eb3e f81f 713f 6d69 2a3e eca7 873f
000001c0: 7867 0640 75f9 6040 cf13 f23f 1125 473f
000001d0: 2d51 e63e b890 e43e 74a0 da3f 80bf ab3f
000001e0: a6f2 993f 08bd 9e3f 9aac 9b3e 4bc4 a13e
000001f0: 7664 813f 1c24 a43e 5ff4 263f b9e9 f03f
00000200: dc73 983f b352 073e a494 453f 636b 433e
00000210: 5ead c03e d8f9 793e b5a9 d53e 2574 8f3f
00000220: 1b70 183f 790b 0540 9737 763f ff0c a23f
00000230: 614e cc3f d781 d93f 6526 d73e 6395 143f
00000240: ac5c 893f e8a4 fd3d 537b 0f3f e07c df3f
00000250: 76a4 573f 9ab6 383e bde1 773f 2dfe b73e
00000260: c464 523f 865c 863e ca18 733f da23 3c3e
00000270: 412e 7640 3a7b b23e de60 ed3f d0b1 673f
00000280: 32c9 0740 2873 233f 3859 883e 4036 913f
00000290: 8544 2d3f ee84 3640 0540 6f3f e48f 6e40
000002a0: a815 e73e e53c bd3d 8aee f93f 7e19 1d3f
000002b0: 10c2 a63f e128 f13d cbb8 2c3f bc27 583f
000002c0: df68 313f 1bdd 3240 5dea 7b3f 67b7 a43e
000002d0: f65b 983f 42ce f43c ebeb ca3d bcd0 533f
000002e0: 249e 653f 8524 833f 6aec 673f 0644 0a40
000002f0: 0c84 0d40 59fd 663f 1c78 313f 9a6b ef3e
00000300: b9b3 533f f0de cb3f 2ea1 383e 06cb ad3e
00000310: e52d fb3f 808d 2a3f 154e bb3d 9ec6 363f
00000320: 0434 dd3e 9de1 cf3e d977 913f b64f f53e
00000330: 5633 883f 87f5 863f 873b 2a40 e0c4 3740
00000340: 2c10 c03f a7cf 533f 0882 873f 0c1d f03d
00000350: 299e 373f 675c ae3f 7f63 cb3e f8d8 3e3c
00000360: 958e ff3f 3e9b 7b3e 46ae 203f 09f5 a93f
00000370: e532 8e3f 5f30 a53f 0da6 ac3f 7665 573e
00000380: 7b34 c23e e06c 983e daf1 3b40 1aa8 0e3f
00000390: 8634 723e 49ef b63d b88f 653f 2e74 9440
000003a0: d890 163f b1d1 dd3e 0cb0 403f b30d c63f
000003b0: 4c36 843f 2b81 c53e e671 2f3f 28e9 673e
000003c0: 20ac 953e 6697 ca3e 267c 883e 68f8 a83e
000003d0: 40f1 1e3d 5a26 9f3e fa05 743f 6cc3 233e
000003e0: d633 6a40 12bc f93e 9447 2f3f cfaa b63f
000003f0: 9df3 4b3f c4ef 803f 2f04 1d3f 90b9 823e
