checkpoint_actor_1.pth (torch_old, 163747 bytes, 10 tensors)

fc1.weight f4 [256, 24]
0.19843966 0.635952 0.037012123 0.038494494 0.1109253 -0.72418046 0.013426244 0.037421897
0.32452995 0.6312303 0.02941525 -0.20723604 0.3209634 -1.0152867 -0.043607973 -0.1164753
0.44090632 0.4724687 0.020706514 -0.23803264 0.88235015 -1.973638 0.07421465 -0.19753517
0.2783131 0.49968922 0.045759697 0.030700764 -0.6684548 -0.0074218754 -0.0010615888 0.10056292
0.40694606 0.2760966 0.033032857 -0.16681662 -0.6505697 0.79960096 0.07434383 -0.2083409
0.3585869 0.18472171 -0.13890634 0.021210875 -0.59009844 1.9731381 -0.116276376 0.061517403
0.5069811 -1.1137166 -0.18018208 -0.33085546 -0.54979926 -0.56272453 -0.11038728 -0.3436019
0.4445176 -1.0578871 0.0035637994 0.2571918 -0.6729132 -0.16494314 -0.03198545 0.32479614
0.6355159 -1.2163343 -0.0040446 0.13101174 -0.77885246 0.0643087 -0.028291674 0.029631212
0.5282748 0.30775157 -0.113829486 -0.42951852 -0.17801097 -1.0251151 -0.19256802 -0.44339117
0.485506 0.00533667 0.12054911 -0.18854217 -0.34777728 -0.5895034 0.09606787 -0.25151786
0.420599 0.0012955652 -0.26513493 -0.07020556 -0.5810908 -0.32165396 -0.273105 0.037607588
0.42660722 0.1154115 0.1482689 -0.412384 -0.22919215 -0.7014687 0.13777593 -0.40805298
0.30175385 -0.11117297 -0.09892831 -0.15867586 -0.19687267 -0.981582 -0.13496126 -0.1820278
0.42446366 -0.00190052 0.23844868 0.13467629 -0.24985 -1.1964662 0.2876049 0.09392449
-0.13885812 0.7171994 -0.011807103 -0.0789527 -0.22870414 -1.9694985 0.0012044063 -0.08270226
0.04206455 0.5523722 0.060245037 0.13181615 -0.02694316 0.2719794 -0.044875335 0.14917725
0.0021431274 0.38050124 0.0078137005 -0.21381925 0.15894718 3.1097558 -0.020149888 -0.18253383
-0.4825845 0.018365042 -0.08107483 0.19091499 0.32512277 0.755558 -0.014101645 0.17584829
-0.28632504 0.081106514 0.00934227 0.1471162 0.0713117 1.947417 0.00093627605 0.22896126
-0.3186571 0.09526788 -0.07701278 0.461681 -0.15079057 2.1867294 -0.05480125 0.49556676
-0.2212241 -0.42750585 0.39623225 -0.06062351 0.13100305 -0.2435878 0.39073887 -0.10939564
-0.24428788 -0.5365077 -0.05788697 -0.20218831 -0.304468 0.18983169 -0.026977878 -0.14099173
0.0014099408 -0.3661793 0.3654204 0.022308426 -0.7083172 0.13887672 0.3909025 0.024415992
0.6055285 0.21361928 0.029103583 -0.012570326 0.49872833 -0.21256547 0.07551594 -0.037157975
0.4218552 0.07984711 -0.17931758 0.08058522 0.9718799 -0.019015891 -0.11486415 0.19560775
0.56460637 0.12470621 0.020198714 0.44404155 1.3132496 0.08420949 -0.041177064 0.37357754
-0.24490063 0.28861395 -0.015913587 -0.23585005 0.07050731 -1.1121091 -0.056830786 -0.23669885
-0.13502643 0.20299093 -0.054099362 -0.7147086 0.008893052 -0.8099623 -0.049130514 -0.6846047
-0.15329112 -0.1558431 -0.11983377 -1.5143714 0.045685593 -0.03356656 -0.060107127 -1.4714628
0.20401414 -0.16541156 0.005108164 0.43849072 -0.67620903 -0.97004265 -0.0016001854 0.47815967
0.13688682 -0.3923721 -0.044435065 -0.7026486 -0.8204067 -0.5556017 -0.018710967 -0.6876868
00000000: c433 4b3e c0cd 223f 069a 173d 67ac 1d3d
00000010: ce2c e33d e463 39bf c0f9 5b3c b447 193d
00000020: ca28 a63e 4f98 213f 40f8 f03c af35 54be
00000030: 5155 a43e eaf4 81bf 469e 32bd 9a8a eebd
00000040: 79be e13e 6be7 f13e b5a0 a93c d4be 73be
00000050: b3e1 613f 2ca0 fcbf dafd 973d a946 4abe
00000060: 0e7f 8e3e 44d7 ff3e 856e 3b3d 2b80 fb3c
00000070: db1f 2bbf 3433 f3bb 0225 8bba eff3 cd3d
00000080: 3c5b d03e 895c 8d3e 764d 073d fad1 2abe
00000090: bc8b 26bf a6b2 4c3f 9441 983d 5157 55be
000000a0: b498 b73e b027 3d3e 773d 0ebe 6ec2 ad3c
000000b0: b110 17bf ca8f fc3f 4f22 eebd acf9 7b3d
000000c0: 83c9 013f 448e 8ebf a781 38be e365 a9be
000000d0: a5bf 0cbf b70e 10bf ba12 e2bd 97ec afbe
000000e0: d097 e33e d868 87bf a28e 693b a5ae 833e
000000f0: 0a44 2cbf dbe6 28be 2d03 03bd ae4b a63e
00000100: 2cb1 223f d8b0 9bbf 9088 84bb f127 063e
00000110: e062 47bf 48b4 833d f1c3 e7bc 28bd f23c
00000120: 043d 073f 9d91 9d3e 6f1f e9bd dae9 dbbe
00000130: 8248 36be f936 83bf 8d30 45be 2b04 e3be
00000140: 3e94 f83e 3cdf ae3b 74e2 f63d 3311 41be
00000150: dd0f b2be b2e9 16bf 3bbf c43d f3c6 80be
00000160: c158 d73e f4cf a93a c4bf 87be efc7 8fbd
00000170: 5ec2 14bf d4af a4be 6bd4 8bbe 6a0a 1a3d
00000180: 436c da3e dd5c ec3d cdd3 173e ff23 d3be
00000190: 59b1 6abe 7493 33bf 2215 0d3e 52ec d0be
000001a0: 7b7f 9a3e a7ae e3bd ed9a cabd ed7b 22be
000001b0: fd98 49be f548 7bbf 4933 0abe 7f65 3abe
000001c0: 4d53 d93e de1a f9ba e42b 743e 95e8 093e
000001d0: aed8 7fbe ce25 99bf f340 933e 7c5b c03d
000001e0: d330 0ebe 619a 373f 9472 41bc f4b1 a1bd
000001f0: 6b31 6abe 8718 fcbf 2bdd 9d3a cd5f a9bd
00000200: e14b 2c3d 4468 0d3f 80c3 763d d0fa 063e
00000210: e7b7 dcbc e240 8b3e 33cf 37bd ecc1 183e
00000220: b673 0c3b 0fd1 c23e 0905 003c 6ff3 5abe
00000230: 0dc3 223e 3d06 4740 6111 a5bc 26ea 3abe
00000240: 5115 f7be 4972 963c 8f0a a6bd 387f 433e
00000250: 7e76 a63e 406c 413f 960a 67bc 9311 343e
00000260: 3299 92be 2c1b a63d 5210 193c a1a5 163e
00000270: de0b 923d f644 f93f 6c70 753a d274 6a3e
00000280: 0627 a3be ce1b c33d e0b8 9dbd 7461 ec3e
00000290: d868 1abe 60f3 0b40 4777 60bd edba fd3e
000002a0: 9288 62be 0ce2 dabe f4de ca3e 5c50 78bd
000002b0: aa25 063e 156f 79be ed0e c83e d20a e0bd
000002c0: 9a26 7abe 9258 09bf e31a 6dbd 740a 4fbe
000002d0: 3be3 9bbe 3d63 423e b600 ddbc 2360 10be
000002e0: c3cd b83a da7b bbbe 6218 bb3e 29c0 b63c
000002f0: 4754 35bf b335 0e3e 5f24 c83e 0c04 c83c
00000300: ea03 1b3f 03bf 5a3e a36a ee3c c5f3 4dbc
00000310: 5259 ff3e c3aa 59be 1aa8 9a3d f632 18bd
00000320: 68fd d73e e286 a33d 079f 37be dd09 a53d
00000330: 1fcd 783f 37c7 9bbc e53d ebbd 664d 483e
00000340: 0b8a 103f f865 ff3d c677 a53c 6a59 e33e
00000350: 9018 a83f 0676 ac3d 48a9 28bd 8e45 bf3e
00000360: 3bc7 7abe 35c5 933e 365d 82bc ad82 71be
00000370: 2366 903d 9759 8ebf 66c7 68bd 2f61 72be
00000380: 5e44 0abe dbdc 4f3e 4b97 5dbd 25f7 36bf
00000390: 2ab4 113c b059 4fbf 143d 49bd 4142 2fbf
000003a0: 59f8 1cbe 5595 1fbe 686b f5bd ecd6 c1bf
000003b0: d120 3b3d 177d 09bd e432 76bd e558 bcbf
000003c0: 15e9 503e a661 29be 6362 a73b db81 e03e
000003d0: 091c 2dbf b754 78bf 50bd d1ba 58d1 f43e
000003e0: 0f2c 0c3e ffe4 c8be 8b01 36bd c7e0 33bf
000003f0: 2c06 52bf ea3b 0ebf be47 99bc 3e0c 30bf

fc1.bias f4 [256]
-0.90475005 -0.1012703 -0.5293484 -0.24561535 -0.53585887 -0.3292347 -0.3412333 -0.42924887
-0.9441637 -0.34196815 -0.34715098 -1.1984605 0.023581285 -0.9126775 -0.2512015 -0.3716716
-0.5286313 0.19975069 -0.42805365 0.23925401 -0.70932144 -0.1727186 -0.18424429 -0.4854879
-0.11081673 -0.95760685 -0.702141 -0.70504194 -0.45579866 -0.3566631 -0.6900804 -1.1525568
-0.86437064 -0.9856925 -0.6917168 -0.60876054 -0.7437579 -0.20222962 -0.49374515 0.06953129
-0.76671696 -0.66027576 -0.4064165 -0.21857283 -0.93152755 -0.85207564 -0.8700938 -0.44264215
0.088828765 0.08502984 -0.4029532 -0.70849246 -0.6663979 -0.693191 -0.4613121 -0.11892408
0.037432875 -0.1038687 -0.308917 0.32625642 0.41681674 -0.35954222 -0.31695297 -1.5182545
0.06300323 -0.7062004 -0.5959819 -0.38238624 -0.8402818 -1.194934 -1.1796501 -1.1140159
-1.0240799 -0.3275106 -0.9419562 -0.47788674 -0.14781374 -0.44010141 -0.59517205 -0.48524642
-0.34374854 -0.34240323 -0.48451456 -0.95292467 -0.70372456 -1.1797748 -0.7713386 -0.4017418
-1.2739437 -0.32342073 -0.3255409 -0.51230335 -0.99515724 -0.67167234 -0.72920376 -0.48258302
-0.5163805 -0.54072833 0.0541564 0.14450318 -0.22855468 -0.523275 0.1031479 -0.31770134
-0.32412204 0.03154134 -0.1477246 -0.56395596 -0.95701724 -0.4422091 -0.83563066 -0.7407087
-0.29683164 -0.21539944 -0.34836125 0.7201673 -0.36744726 -0.41906857 -0.6210882 0.032183856
-0.29959044 -0.77611095 -0.6078386 -0.81141746 -0.54146254 -0.4495299 -0.18709984 -0.8355907
0.018890267 -0.40507394 -0.389365 -0.29840368 -1.0083919 -0.689491 -1.1564335 -1.0106633
-0.7761852 -0.8505545 -0.5795541 -0.4794239 -0.3659336 -1.024958 -1.1428401 -0.15228552
-0.12447098 -0.56535614 -0.44014665 -0.12852626 -0.6846966 -0.65390545 0.12277556 -0.44155878
-0.26686564 -0.58536416 -0.10127814 -0.58510035 -0.48189276 -0.050444525 -0.51883304 -0.10286245
-0.16690788 -1.0995697 -0.71512455 -0.69967204 -0.61134416 0.34850547 -0.23585336 -0.6399513
-0.52129275 0.53483516 -0.30873418 -0.7379031 -0.49374026 -1.2438587 -1.076569 -0.7477528
-0.29136753 0.06038335 -0.8206573 -0.430683 -0.8209419 -0.5171459 -0.44746637 -0.088344686
-0.030794753 -0.7221015 -0.9928961 -0.5536165 -0.3825934 -0.56663996 -0.30915844 -0.09702412
-0.44855878 -0.83448803 -0.41166323 -0.52924645 -1.1043577 -0.8642607 -0.7536918 -0.11329445
-0.31020322 -0.59748816 -0.8738431 -0.33908153 -0.42958426 0.01712613 -0.87684876 -0.5656685
-0.55671626 -0.50864524 -0.11110489 -0.9639974 -0.05938236 -0.28163326 -0.39143074 -1.096676
-0.47727785 -0.027565055 -1.1322044 -0.15934226 -0.3437008 -0.010378225 -0.572549 -0.74932766
-0.6230682 -0.6030724 -0.07846161 -0.4927475 -0.21625961 -0.45722738 -0.2501059 -0.17102925
-0.49985588 -0.44170555 -0.43062297 -0.19344899 -0.7755361 -0.6048635 -0.7202229 -0.50646913
-0.89235073 -0.6833046 -0.8649166 -1.0947964 -0.15406631 -0.31361488 -0.3159448 -0.9764277
-0.7514981 -0.011663369 -0.5394415 -0.44232196 0.07137514 -0.6346514 -0.24394731 -0.8278236
00000000: b39d 67bf ce66 cfbd 6083 07bf 9782 7bbe
00000010: 0c2e 09bf 7391 a8be 22b6 aebe 82c6 dbbe
00000020: b6b4 71bf 7316 afbe c6bd b1be 2767 99bf
00000030: 8a2d c13c 3ca5 69bf 7c9d 80be bd4b bebe
00000040: 6254 07bf 728b 4c3e d929 dbbe 01ff 743e
00000050: 1796 35bf 25dd 30be 89aa 3cbe df91 f8be
00000060: e2f3 e2bd b925 75bf 83bf 33bf a17d 34bf
00000070: 715e e9be 8c9c b6be 1ca9 30bf fb86 93bf
00000080: 6547 5dbf 5856 7cbf 5a14 31bf bbd7 1bbf
00000090: eb66 3ebf 4815 4fbe 2acc fcbe 6c66 8e3d
000000a0: 9047 44bf d507 29bf d315 d0be 8ed1 5fbe
000000b0: 9778 6ebf a121 5abf 78be 5ebf fea1 e2be
000000c0: dbeb b53d 2024 ae3d e24f cebe c35f 35bf
000000d0: 0e99 2abf f774 31bf 1931 ecbe 788e f3bd
000000e0: 3753 193d 1db9 d4bd 5e2a 9ebe 150b a73e
000000f0: 0169 d53e eb15 b8be a947 a2be 2a56 c2bf
00000100: d607 813d 8dc9 34bf 4592 18bf 21c8 c3be
00000110: b51c 57bf 99f3 98bf c6fe 96bf 1398 8ebf
00000120: 0d15 83bf 78af a7be 0b24 71bf 92ad f4be
00000130: 7c5c 17be f954 e1be 325d 18bf 3872 f8be
00000140: cfff afbe 7a4f afbe 4b12 f8be dff2 73bf
00000150: 4b27 34bf dc02 97bf 7276 45bf 1ab1 cdbe
00000160: 9610 a3bf 6797 a5be 4cad a6be 5026 03bf
00000170: a0c2 7ebf b8f2 2bbf 19ad 3abf 1f15 f7be
00000180: 8331 04bf 2c6d 0abf 1ad3 5d3d a4f8 133e
00000190: 3d0a 6abe 5af5 05bf 353f d33d c0a9 a2be
000001a0: 53f3 a5be 7e31 013d 1e45 17be 6b5f 10bf
000001b0: 15ff 74bf 3b69 e2be e4eb 55bf 169f 3dbf
000001c0: 51fa 97be ac91 5cbe 685c b2be e25c 383f
000001d0: 0c22 bcbe 2890 d6be a3ff 1ebf 38d3 033d
000001e0: eb63 99be 35af 46bf 4f9b 1bbf 0eb9 4fbf
000001f0: 4a9d 0abf c828 e6be 1a97 3fbe 46e9 55bf
00000200: c3bf 9a3c da65 cfbe d95a c7be 5ec8 98be
00000210: fc12 81bf 7b82 30bf 0306 94bf 6a5d 81bf
00000220: 13b4 46bf f1bd 59bf a85d 14bf 0d77 f5be
00000230: a65b bbbe d331 83bf 9648 92bf bcf0 1bbe
00000240: a4ea febd 2ebb 10bf e75a e1be 639c 03be
00000250: 4748 2fbf 5966 27bf c171 fb3d fe13 e2be
00000260: 9da2 88be 6dda 15bf ea6a cfbd 23c9 15bf
00000270: a6ba f6be eb9e 4ebd 3ed2 04bf 8ca9 d2bd
00000280: e6e9 2abe b3be 8cbf 6712 37bf b51d 33bf
00000290: 0d81 1cbf 4f6f b23e 8b83 71be d9d3 23bf
000002a0: 7173 05bf f5ea 083f 6812 9ebe 38e7 3cbf
000002b0: 86cb fcbe c336 9fbf 03cd 89bf ba6c 3fbf
000002c0: 202e 95be 8854 773d 9916 52bf 7b82 dcbe
000002d0: 4029 52bf ac63 04bf 501a e5be 0fee b4bd
000002e0: 4745 fcbc a5db 38bf 702e 7ebf d0b9 0dbf
000002f0: 48e3 c3be 510f 11bf 044a 9ebe 95b4 c6bd
00000300: 7fa9 e5be 02a1 55bf 86c5 d2be b27c 07bf
00000310: 985b 8dbf 3040 5dbf f2f1 40bf ec06 e8bd
00000320: f5d2 9ebe fcf4 18bf 2eb4 5fbf 189c adbe
00000330: 78f2 dbbe 194c 8c3c 2979 60bf a7cf 10bf
00000340: f584 0ebf 9336 02bf f68a e3bd 89c8 76bf
00000350: eb3a 73bd 3c32 90be 9c69 c8be e15f 8cbf
00000360: c35d f4be 1cd0 e1bc 13ec 90bf 9e2a 23be
00000370: 8df9 afbe 6e09 2abc 9292 12bf f0d3 3fbf
00000380: 6681 1fbf f462 1abf 7bb0 a0bd 6649 fcbe
00000390: 2973 5dbe b519 eabe e10d 80be 4b22 2fbe
000003a0: 1ced ffbe 3b27 e2be 9d7a dcbe 7e17 46be
000003b0: 8989 46bf 56d8 1abf 8760 38bf f6a7 01bf
000003c0: 1971 64bf 0ded 2ebf 2d6b 5dbf 4a22 8cbf
000003d0: 8fc3 1dbe 2192 a0be 84c3 a1be 2af7 79bf
000003e0: 2e62 40bf b717 3fbc d718 0abf 0678 e2be
000003f0: 212d 923d 8478 22bf 53cd 79be 3fec 53bf

fc2.weight f4 [128, 256]
0.1309209 -0.3061945 -0.06460036 0.22126217 -0.5947686 0.37085485 0.081741765 -0.26026854
0.067621954 0.65694743 0.19184718 0.22574472 -0.063938886 0.1762902 -0.16619435 -0.2603824
-0.22754812 -0.02377303 -0.06546682 -0.6827238 0.28937736 0.8026286 -0.006409385 0.30820978
0.09050218 -0.2594068 -0.27391058 0.35960972 0.281385 -0.1771806 -0.9372906 -0.21154046
0.3302484 -0.40414056 0.39835846 -0.16107395 0.08424726 -0.78569645 0.035736952 -0.12820019
-0.34253797 -0.5402906 -0.2952301 -0.15117994 0.035045844 -0.10935311 0.08343544 -0.36188635
0.6354474 0.1197018 0.20264767 -0.33110976 -0.45024785 0.043475967 -0.09751637 0.20353575
-0.13462123 0.0075714635 -0.2988997 -0.5953061 -0.75713617 -0.1841748 -0.12788852 0.32990113
-0.13137923 -0.27415898 -0.4533236 0.06626667 0.4021938 -0.052415848 -0.46928084 -0.14139013
-0.34687907 0.18140304 -0.59971595 0.05648522 -0.09363355 0.052037966 0.4220228 -0.4028267
0.35999158 0.31665698 -0.4314838 0.41225395 0.18740706 -0.07562492 -0.26664376 0.3128557
-0.08909601 -0.17469393 -0.10481584 -0.33399642 -0.44220108 -0.038210254 -0.10287407 0.023060793
-0.26744667 -0.5732179 -0.008991539 -0.6114468 -0.13678686 0.10931785 0.18041688 -0.050205912
-0.122380115 -0.27721927 0.016994717 -0.37301484 0.10294616 0.38366488 0.73690045 -0.42194393
-0.04842131 0.12070527 -0.17519547 -0.61559737 0.071337484 -0.25721627 0.13420567 -0.29061207
0.47289872 0.063213326 -0.037148293 0.02132623 -0.10618172 0.056869175 -0.53991777 -0.04471696
-0.43359146 -0.02087193 0.12019643 0.41571563 -0.7659399 0.25964817 0.44967794 0.47595605
-0.33195984 0.1069709 0.044855166 0.23216598 -0.45784733 -0.16541675 0.15278627 0.039215285
0.32946083 0.10945022 -0.407578 0.06881343 0.062503435 -0.12359613 -0.05776649 0.49699923
0.087629735 0.09620515 0.26549345 0.589228 0.23492491 0.33305982 -0.18216832 0.3578879
-0.49345338 0.12439893 -0.04549897 0.5465435 0.0637271 -0.21089949 -0.038118787 0.22941798
-0.0031066139 -0.56329685 0.2435468 0.15580384 -0.16721217 -0.30502775 -0.20298016 0.27035657
0.31943703 0.03154403 -0.08096159 -0.44587994 -0.37949216 0.13094032 -0.30384606 0.30656144
-0.2276634 -0.53604376 -0.115715705 -0.20459138 -0.025786348 0.29378474 -0.17636853 -0.08249093
-0.13615647 -0.26360166 -0.00023072124 -0.12674326 0.18516023 -0.06319088 -0.061981507 0.20351157
0.1534496 -0.044412263 0.06348934 0.0074236207 -0.16273679 0.14077598 -0.011012821 -0.0002570882
-0.5540734 -0.10117486 -0.02169034 -0.0632479 -0.25243288 0.058327727 0.2311747 0.3233909
0.10457275 0.26361766 -0.26759276 0.104251824 0.23285869 -0.47716725 -0.09466046 0.29278785
-0.3543419 0.46674114 0.5496352 -0.19151346 0.09716302 0.03408264 0.047862876 -0.6417448
0.44456485 -0.11028053 0.3722767 -0.03654709 -0.33792838 -0.36006242 0.034777477 -0.038425222
-0.6710693 -0.08503187 0.32537866 0.0036475167 0.56584626 0.05948446 0.074231625 0.08725437
-0.33367944 0.09463791 0.275654 -0.15876892 -0.31704587 -0.3599327 -0.5548356 0.28534672
00000000: 2110 063e 87c5 9cbe 324d 84bd 8d92 623e
00000010: c142 18bf b0e0 bd3e 3a68 a73d eb41 85be
00000020: 617d 8a3d b52d 283f 9673 443e a029 673e
00000030: 64f2 82bd 6b85 343e da2e 2abe d850 85be
00000040: 6002 69be a8bf c2bc 7813 86bd fdc6 2ebf
00000050: 4529 943e 1179 4d3f d105 d2bb accd 9d3e
00000060: 3559 b93d f8d0 84be 023e 8cbe c41e b83e
00000070: b211 903e d56e 35be 47f2 6fbf 109e 58be
00000080: 5116 a93e 83eb cebe a4f5 cb3e 92f0 24be
00000090: d489 ac3d 6723 49bf e960 123d e946 03be
000000a0: 2361 afbe 7c50 0abf 6628 97be eace 1abe
000000b0: 3b8c 0f3d 86f4 dfbd 33e0 aa3d 2b49 b9be
000000c0: aeac 223f 3826 f53d df82 4f3e 3887 a9be
000000d0: e386 e6be db13 323d aab6 c7bd ad6b 503e
000000e0: 26da 09be 0a1a f83b 6209 99be fb65 18bf
000000f0: add3 41bf 5298 3cbe 35f5 02be cde8 a83e
00000100: 4788 06be 915e 8cbe 081a e8be d2b6 873d
00000110: 59ec cd3e 00b2 56bd 9445 f0be 93c8 10be
00000120: 229a b1be b8c1 393e fc86 19bf 0c5d 673d
00000130: f2c2 bfbd c325 553d 5f13 d83e 4d3f cebe
00000140: d150 b83e dd20 a23e 72eb dcbe f312 d33e
00000150: a3e7 3f3e 3de1 9abd 8885 88be 9f2e a03e
00000160: f877 b6bd f7e2 32be b0a9 d6bd 9401 abbe
00000170: 2e68 e2be 5b82 1cbd a4af d2bd fde9 bc3c
00000180: c5ee 88be 69be 12bf 3f51 13bc c787 1cbf
00000190: db11 0cbe 09e2 df3d 34bf 383e b7a4 4dbd
000001a0: 6da2 fabd afef 8dbe 8138 8b3c cdfb bebe
000001b0: 70d5 d23d b96f c43e 82a5 3c3f 0909 d8be
000001c0: 6c55 46bd 5334 f73d 7166 33be ca97 1dbf
000001d0: 6319 923d dab1 83be 366d 093e 1bcb 94be
000001e0: c81f f23e fd75 813d cf28 18bd 59b4 ae3c
000001f0: cd75 d9bd a7ef 683d 0d38 0abf 2229 37bd
00000200: b3ff ddbe 9cfb aabc 8c29 f63d aed8 d43e
00000210: a314 44bf 9bf0 843e 303c e63e 83b0 f33e
00000220: a4f6 a9be 8f13 db3d 0dba 373d ebbc 6d3e
00000230: f76a eabe 0263 29be 0174 1c3e 35a0 203d
00000240: 17af a83e 7027 e03d 10ae d0be 0eee 8c3d
00000250: cd01 803d f81f fdbd 8e9c 6cbd af76 fe3e
00000260: 3877 b33d 3507 c53d c2ee 873e a5d7 163f
00000270: 2890 703e d186 aa3e 558a 3abe 153d b73e
00000280: eca5 fcbe dec4 fe3d 215d 3abd 46ea 0b3f
00000290: 5b83 823d 09f6 57be 7222 1cbd 8cec 6a3e
000002a0: 5598 4bbb 3934 10bf 5564 793e 0b8b 1f3e
000002b0: ab39 2bbe 992c 9cbe 08da 4fbe 2d6c 8a3e
000002c0: 408d a33e 5034 013d 31cf a5bd 604a e4be
000002d0: cc4c c2be 3815 063e b691 9bbe 9ff5 9c3e
000002e0: 9820 69be 2a3a 09bf 5bfc ecbd 6780 51be
000002f0: e43d d3bc f46a 963e f499 34be 01f1 a8bd
00000300: 9a6c 0bbe ccf6 86be c3ed 71b9 fcc8 01be
00000310: a59a 3d3e 386a 81bd 52e0 7dbd 5665 503e
00000320: e421 1d3e a2e9 35bd b306 823d d841 f33b
00000330: 79a4 26be 9427 103e 1f6f 34bc cbc9 86b9
00000340: c1d7 0dbf c434 cfbd f1af b1bc 1d88 81bd
00000350: e23e 81be 0ee9 6e3d 10b9 6c3e 7e93 a53e
00000360: 3d2a d63d e5f8 863e eb01 89be fb81 d53d
00000370: 8272 6e3e 444f f4be 58dd c1bd 4ae8 953e
00000380: 4d6c b5be b2f8 ee3e e4b4 0c3f 1b1c 44be
00000390: 68fd c63d 3d9a 0b3d dd0b 443d 6349 24bf
000003a0: 019e e33e c2da e1bd 0d9b be3e 67b2 15bd
000003b0: f304 adbe 1a5a b8be d472 0e3d c463 1dbd
000003c0: 33cb 2bbf 3025 aebd 0898 a63e 2d0b 6f3b
000003d0: 4ddb 103f faa5 733d c006 983d 6bb2 b23d
000003e0: 08d8 aabe 85d1 c13d 8522 8d3e 5294 22be
000003f0: d653 a2be 1949 b8be b509 0ebf f718 923e

fc2.bias f4 [128]
-0.49618882 -0.41790858 -0.16372712 -0.46510056 -0.61378837 0.06718735 -0.13793723 -0.16697776
-0.40714303 -0.03960243 -0.29060417 -0.11979667 -0.17166914 -0.31019023 -0.17514779 -0.22958426
-0.5849879 0.0035251423 -0.2602954 -0.2185734 -0.19343027 -0.20581618 -0.3131318 -0.036153544
-0.44851324 -0.33265415 -0.33267337 0.04939405 -0.28329808 -0.5025633 -0.37615812 -0.13792135
-0.25110933 -0.16366327 -0.24585368 -0.44397864 -0.06212991 -0.083021946 -0.24632592 -0.33893454
-0.53801495 -0.29022 -0.44613722 -0.4397453 -0.061969385 -0.098491766 -0.28788984 -0.29542387
-0.3268271 -0.05059476 -0.648944 -0.11990909 -0.31262517 -0.17120108 -0.6780992 -0.69568646
-0.12512752 -0.5334688 -0.3929102 -0.30930525 -0.32217216 -0.30267584 -0.3110098 -0.49421802
0.024758248 -0.11815214 -0.21426642 -0.43301028 -0.50927687 -0.005729536 -0.19623582 -0.416985
-0.39711887 -0.4066956 -0.095324315 -0.45647708 -0.7392461 -0.3515505 -0.51068395 -0.035793368
-0.04383404 -0.0063002957 -0.37120357 -0.4129162 -0.39261952 0.07887014 -0.48146647 -0.7869279
-0.3902751 -0.41053453 -0.07154532 -0.15537712 -0.08716783 0.057407167 -0.011207441 -0.16708183
-0.20382252 -0.040712267 -0.43743297 -0.14979376 -0.23959099 -0.12319815 -0.20854518 -0.13777587
-0.24344556 -0.30366763 -0.61251587 -0.2749248 -0.076986216 -0.5848604 -0.34340727 -0.30712622
-0.2549237 -0.17855127 0.04452439 -0.333432 -0.3699121 -0.14739285 -0.54060507 -0.36108643
-0.14198278 -0.74373883 -0.11989546 -0.10556286 -0.17316484 0.26957098 -0.1719432 -0.28068691
00000000: 760c febe 1df8 d5be 15a8 27be a921 eebe
00000010: 3c21 1dbf 8599 893d 6b3f 0dbe 38fc 2abe
00000020: 0d75 d0be 2836 22bd 12ca 94be f557 f5bd
00000030: 09ca 2fbe 41d1 9ebe f159 33be 2318 6bbe
00000040: c4c1 15bf 1306 673b 7045 85be b5d1 5fbe
00000050: 9612 46be 7ac1 52be d052 a0be bd15 14bd
00000060: 87a3 e5be a551 aabe 2a54 aabe 6a51 4a3d
00000070: 720c 91be fda7 00bf cc97 c0be 413b 0dbe
00000080: 6791 80be 5897 27be 11c1 7bbe 2b51 e3be
00000090: ef7b 7ebd 6907 aabd dd3c 7cbe d488 adbe
000000a0: 59bb 09bf b797 94be 196c e4be 4c26 e1be
000000b0: 9cd3 7dbd 0db6 c9bd 4c66 93be cc41 97be
000000c0: e255 a7be 733c 4fbd 3221 26bf e692 f5bd
000000d0: 6810 a0be 564f 2fbe e997 2dbf 8218 32bf
000000e0: 6e21 00be 6991 08bf 872b c9be 425d 9ebe
000000f0: c0f3 a4be 54f8 9abe ad3c 9fbe 250a fdbe
00000100: cfd1 ca3c c0f9 f1bd a868 5bbe 86b3 ddbe
00000110: f85f 02bf d5be bbbb 0bf2 48be 0f7f d5be
00000120: 2a53 cbbe 683a d0be 6539 c3bd 5db7 e9be
00000130: 3b3f 3dbf 6dfe b3be 2fbc 02bf 119c 12bd
00000140: 538b 33bd b672 cebb 650e bebe c169 d3be
00000150: 6d05 c9be ab86 a13d c682 f6be 1b74 49bf
00000160: 23d2 c7be 9531 d2be 5a86 92bd 2e1b 1fbe
00000170: 0c85 b2bd c723 6b3d 6a9f 37bc 8017 2bbe
00000180: dab6 50be e8c1 26bd 37f7 dfbe 8963 19be
00000190: 5757 75be 504f fcbd de8c 55be 1e15 0dbe
000001a0: cb49 79be 537a 9bbe d7cd 1cbf f2c2 8cbe
000001b0: f3aa 9dbd 69b9 15bf 14d3 afbe a63f 9dbe
000001c0: 5c85 82be 25d6 36be 355f 363d 99b7 aabe
000001d0: 1e65 bdbe 27ee 16be 1865 0abf 52e0 b8be
000001e0: ef63 11be ab65 3ebf c08b f5bd 5731 d8bd
000001f0: 2052 31be 3505 8a3e e111 30be 32b6 8fbe

out.weight f4 [2, 128]
0.17326882 0.26552176 -0.059053957 0.49468568 -0.66589266 0.33064628 -0.4713225 0.0068759997
0.6029236 0.7294696 0.8868663 0.14743742 0.009193083 -0.33781993 0.49403888 -0.38151762
-0.6757127 -0.2156791 -0.18109943 0.1619886 -0.226792 -0.38569033 -0.41323215 0.12261763
0.19615096 -0.30177966 -0.15118288 -0.20537551 0.73685145 -0.41514102 0.3870768 0.26154536
-0.1071715 0.39514434 0.9070402 -0.106870174 -0.28461772 -0.28311002 -0.77409244 0.7459991
0.009043332 0.15897283 -0.2992053 -0.4994703 0.40432078 -0.008877935 0.002568505 0.22734417
0.14949094 -0.10907765 0.63165843 0.13453996 -0.7267387 -0.45395035 0.4330296 0.24905619
-0.34360486 -0.94796205 -0.5360588 -0.30795637 -0.56876874 0.14151718 0.052039295 0.84447217
-0.032688994 -0.25212523 0.37685898 0.1991803 0.073748276 -0.056760352 0.33217776 0.3595364
-0.09953289 -0.40680462 -0.009678988 -0.40902364 0.6914744 -0.797715 -0.5878159 -0.06866018
0.15059534 -0.16541317 0.49453574 0.6167846 0.3615297 -0.08346182 0.606392 1.318937
0.37059695 -0.39329216 -0.03558114 -0.09115797 0.34484148 -0.20569135 0.3131823 -0.23502626
0.0387306 0.11206773 -0.22869162 0.3282301 -0.49540904 -0.25327936 0.15047662 -0.24577728
0.4859431 0.44500187 0.58545876 0.47509673 -1.0086766 -0.27415022 0.3610072 0.057167042
0.8526536 -0.021567844 -0.22014631 -0.08290351 0.3848363 0.076417066 0.45826864 0.16643395
-0.43555537 -0.61507 -0.5120942 0.25144416 1.0682586 0.04467335 0.7507064 0.23678249
0.3245359 -0.23247461 -1.3797055 -0.5585301 -0.9121189 -0.33019975 1.1819885 -0.42049664
0.52453244 -0.5492846 -0.7107588 -0.32932338 0.5459345 0.021514684 -0.013516176 0.27050975
0.16495949 -0.007802051 0.4188097 -0.7441785 0.29415867 0.28730285 0.34475154 0.7944102
0.6296219 0.58068466 -0.7045013 -0.22858857 -0.2547392 -1.4755843 0.484183 0.122325145
-0.5803042 -0.12405245 0.5431726 0.34166506 0.17830797 0.5403026 -0.5817093 0.43625242
1.0705302 -0.69030017 -0.3482226 -0.32649684 -0.5307426 1.0979946 -0.41952938 1.2654954
0.4772972 -0.044346467 -0.00029758332 0.06813309 -0.5086236 -0.33666113 -0.856449 -1.0521821
-0.1965346 0.35394517 -0.10591235 0.44606087 -0.27527764 -0.66718936 0.6997329 -0.52590036
-0.34138408 0.6823755 0.32162982 0.94871044 0.40788105 0.26149306 0.25259164 0.055040896
-0.8547912 0.13850363 -0.08305469 0.34393457 -0.7040928 -0.71320647 -0.06663702 -0.32017615
-0.18581888 -0.11067252 0.18703584 0.22009729 0.44857058 0.87443554 -0.838942 -0.10451595
-0.45879954 0.34452593 1.0536026 0.9054732 0.2296903 0.050593797 -0.2655139 0.75961584
0.48159814 0.70404184 0.56446505 0.44437286 0.040080577 0.6264895 -0.33552474 -0.23058355
-0.3391378 -0.22157899 -0.4572186 -0.27130753 -0.77753365 0.29878443 0.5236821 0.06201752
0.24388966 0.6484904 -0.3107994 -0.21956536 -0.91542095 -0.83865726 -0.34703088 -0.5461884
-0.39139724 -0.66705936 0.12354944 0.43226436 -0.36887524 0.6344232 -0.8206166 1.3814547
00000000: 626d 313e 78f2 873e 90e2 71bd 7147 fd3e
00000010: f177 2abf 784a a93e 2f51 f1be 1150 e13b
00000020: 3359 1a3f 85be 3a3f ab09 633f d6f9 163e
00000030: 969e 163c bcf6 acbe aaf2 fc3e 4756 c3be
00000040: 82fb 2cbf fbda 5cbe 2172 39be 57e0 253e
00000050: 293c 68be 3479 c5be 2a93 d3be f41e fb3d
00000060: ccdb 483e dd82 9abe afcf 1abe f54d 52be
00000070: 4ca2 3c3f 5d8d d4be ee2e c63e 46e9 853e
00000080: bb7c dbbd 5c50 ca3e c933 683f c0de dabd
00000090: 6ab9 91be ccf3 90be ec2a 46bf ccf9 3e3f
000000a0: 7c2a 143c c6c9 223e 7031 99be 92ba ffbe
000000b0: 2203 cf3e c274 11bc 5d54 283b e9cc 683e
000000c0: 2714 193e 1a64 dfbd 5eb4 213f d8c4 093e
000000d0: 8c0b 3abf 2e6c e8be 0eb6 dd3e 9608 7f3e
000000e0: faec afbe a4ad 72bf 263b 09bf 75ac 9dbe
000000f0: d49a 11bf e1e9 103e 2827 553d 542f 583f
00000100: e5e4 05bd 8f16 81be a9f3 c03e ecf5 4b3e
00000110: 5609 973d 8b7d 68bd 3413 aa3e 2815 b83e
00000120: e6d7 cbbd b248 d0be 9e94 1ebc 8c6b d1be
00000130: 7704 313f 0d37 4cbf 1a7b 16bf b59d 8cbd
00000140: aa35 1a3e 1262 29be ca33 fd3e 98e5 1d3f
00000150: 6c1a b93e 08ee aabd 823c 1b3f edd2 a83f
00000160: e2be bd3e 975d c9be 88bd 11bd 08b1 babd
00000170: 108f b03e c1a0 52be 6e59 a03e b9aa 70be
00000180: faa3 1e3d c483 e53d 232e 6abe c70d a83e
00000190: 41a6 fdbe d5ad 81be 8b16 1a3e 0aad 7bbe
000001a0: 89cd f83e 49d7 e33e a0e0 153f e13f f33e
000001b0: 511c 81bf 6b5d 8cbe f0d5 b83e fd27 6a3d
000001c0: 8247 5a3f 0caf b0bc 096e 61be 51c9 a9bd
000001d0: 4309 c53e 8d80 9c3d 30a2 ea3e a96d 2a3e
000001e0: 1d01 dfbe 3a75 1dbf 9b18 03bf 4abd 803e
000001f0: b3bc 883f 67fb 363d 4b2e 403f 1c77 723e
00000200: 9229 a63e d30d 6ebe 319a b0bf d4fb 0ebf
00000210: a080 69bf f10f a9be 664b 973f 564b d7be
00000220: c247 063f ea9d 0cbf 4af4 35bf 139d a8be
00000230: 5dc2 0b3f 903f b03c f372 5dbc 4180 8a3e
00000240: 24eb 283e 59a8 ffbb 3a6e d63e 7b82 3ebf
00000250: f79b 963e 5c19 933e 4683 b03e 785e 4b3f
00000260: e72e 213f c0a7 143f 325a 34bf 1f13 6abe
00000270: 2d6d 82be f2df bcbf d6e6 f73e 9b85 fa3d
00000280: d18e 14bf 360f febd 5c0d 0b3f b9ee ae3e
00000290: 5d96 363e 4551 0a3f e7ea 14bf 7a5c df3e
000002a0: 2207 893f 83b7 30bf 3c4a b2be 982a a7be
000002b0: bfde 07bf 168b 8c3f 8ecc d6be c1fb a13f
000002c0: 4c60 f43e a4a4 35bd f504 9cb9 5d89 8b3d
000002d0: 2835 02bf d95e acbe 3e40 5bbf e7ad 86bf
000002e0: 5e40 49be 4d38 b53e 93e8 d8bd 1762 e43e
000002f0: 31f1 8cbe eccc 2abf b221 333f 68a1 06bf
00000300: e5c9 aebe 29b0 2e3f aaac a43e b0de 723f
00000310: c9d5 d03e 6be2 853e b153 813e 9072 613d
00000320: 99d3 5abf e5d3 0d3e 9418 aabd 3118 b03e
00000330: 6d3f 34bf b394 36bf fd78 88bd 21ee a3be
00000340: 4e47 3ebe 46a8 e2bd 5386 3f3e 2f61 613e
00000350: 0bab e53e 02db 5f3f e7c4 56bf 750c d6bd
00000360: c6e7 eabe b465 b03e 73dc 863f 17cd 673f
00000370: ef33 6b3e 713b 4f3d 70f1 87be 2f76 423f
00000380: 0894 f63e 163c 343f c880 103f d784 e33e
00000390: 882b 243d 9e61 203f e6c9 abbe 181e 6cbe
000003a0: 78a3 adbe 9ae5 62be 8e18 eabe d2e8 8abe
000003b0: 720c 47bf 46fa 983e 0810 063f 1506 7e3d
000003c0: 36be 793e 7803 263f 1921 9fbe bed5 60be
000003d0: 0759 6abf 3eb2 56bf 08ae b1be 01d3 0bbf
000003e0: 3865 c8be 67c4 2abf 7d07 fd3d c151 dd3e
000003f0: 37dd bcbe 8f69 223f ee13 52bf 82d3 b03f

out.bias f4 [2]
-0.17757547 0.17633803
00000000: 58d6 35be f591 343e

bn1.weight f4 [256]
1.542252 0.76560414 0.69373566 0.2933331 0.438844 1.6763241 0.009149321 0.015354285
1.1215676 1.0350302 0.13909642 1.1723964 0.80955315 0.506956 0.72243106 0.103049554
0.19142173 1.3841935 0.21612895 2.5779104 0.5210037 0.22022134 1.4808878 0.94716513
0.027984189 0.33318776 0.39913917 1.3795453 0.55883044 -0.06856904 1.0543174 0.5739511
0.6840105 0.54369277 0.561717 0.27069116 1.0501281 1.1708014 0.66178423 0.0051005874
0.5588004 0.21438469 0.32390866 0.043292947 1.0280297 0.90870655 0.59741044 0.8287934
-0.5833438 1.1105921 0.80963135 0.15670282 0.7408972 0.5181775 0.32109463 0.13189906
0.052254207 0.54078686 0.17913204 0.035810053 0.7848721 0.1902293 0.1885628 0.60360044
0.1047168 1.0709637 0.54188496 0.2984007 0.41675037 0.78527296 0.6173554 1.5924857
0.055770196 1.0950397 1.0710646 -0.0037624964 0.24616246 1.1392347 0.82904816 0.35629237
0.068449914 0.60938555 0.30778223 0.080064766 0.20389535 0.0591644 0.615595 0.10861969
0.69666296 0.5715442 1.0587604 0.5985966 0.29269114 0.22265682 1.3034544 2.3820915
0.75544786 0.6756136 0.6808649 0.31621602 0.39384595 0.24512647 0.0067516677 -0.005271837
-0.0113714 0.18793303 0.81616014 0.6976938 0.7904308 1.3287354 1.0352422 0.76964116
0.67687553 0.78708076 1.1958607 0.53480685 0.91267353 0.5967001 0.6574947 1.0562721
-0.2249476 1.0795141 0.31584936 0.56936145 0.7822181 0.2599856 1.0519452 0.39924675
0.18045273 0.73307353 0.7683857 0.09523217 -1.5763543 1.0279882 0.7837697 0.14210594
0.5516626 0.57131493 0.5109329 0.54841775 0.4476859 0.65233284 1.498631 0.5600062
0.066216715 1.3414682 0.6625656 0.03468492 0.55257255 -0.019750984 0.6238436 0.63885564
0.6047024 0.95692456 1.2227633 1.0508126 -0.033029158 1.1941806 0.25292316 0.79299766
0.8452391 0.75960857 0.3983019 0.6464227 0.4412293 1.2003864 0.83861566 0.82657504
-0.033046775 0.18980798 0.61438066 0.37859064 0.037948582 0.35982147 0.57799107 0.68308026
0.57281214 0.056273825 0.37300518 0.52103305 0.29401234 0.57159007 0.17333996 0.45926344
0.9115646 0.6588377 0.42218167 0.7064533 -0.024930585 0.7873154 0.4890088 0.96457773
0.6009843 1.5385016 0.9688291 0.55004525 0.38544166 0.82113594 0.5623244 0.83388156
0.7309108 0.67201203 0.666845 0.60193384 1.6443557 0.6072088 0.97747195 1.1485852
0.17443629 0.6727144 1.8426585 0.50747144 0.41259676 0.86635405 -0.46750167 0.5213556
0.5054214 0.9618473 0.6136425 0.7285352 -0.27275357 1.0845625 0.5227644 0.35901237
0.4966044 0.6663843 1.1111838 0.14140825 0.25091618 0.6308469 0.90754056 0.9783977
0.8422808 0.97375476 0.9733705 0.6366162 0.19915539 0.85260385 1.3430985 0.7812328
0.49997428 0.049008053 0.29519308 0.38905612 0.1052624 0.67440885 0.5038347 0.78021103
0.44140399 0.27747875 0.33195335 0.60595775 0.9154046 0.5870928 0.09692312 0.58203256
00000000: 8368 c53f a2fe 433f a998 313f c22f 963e
00000010: 29b0 e03e ca91 d63f 09e7 153c 8a90 7b3c
00000020: 878f 8f3f df7b 843f 4b6f 0e3e 1611 963f
00000030: e03e 4f3f dec7 013f 3ef1 383f a50b d33d
00000040: 0f04 443e 412d b13f e850 5d3e 7cfc 2440
00000050: 8060 053f b481 613e bb8d bd3f 6a79 723f
00000060: 193f e53c 9697 aa3e f85b cc3e f194 b03f
00000070: 830f 0f3f ed6d 8cbd dff3 863f 76ee 123f
00000080: 501b 2f3f 732f 0b3f afcc 0f3f 0898 8a3e
00000090: 996a 863f d2dc 953f b16a 293f d422 a73b
000000a0: 8b0d 0f3f a987 5b3e 5bd7 a53e f253 313d
000000b0: 7a96 833f fea0 683f e4ef 183f ce2b 543f
000000c0: 0556 15bf e227 8e3f 0044 4f3f b476 203e
000000d0: 70ab 3d3f 48a7 043f 8466 a43e 8c10 073e
000000e0: 8208 563d 0271 0a3f 646e 373e 90ad 123d
000000f0: 61ed 483f 78cb 423e 9b16 413e 8f85 1a3f
00000100: c375 d63d 5715 893f f9b8 0a3f fac7 983e
00000110: 4e60 d53e a607 493f 010b 1e3f 92d6 cb3f
00000120: 4a6f 643d 432a 8c3f a518 893f 3794 76bb
00000130: 0312 7c3e 71d2 913f 803c 543f f46b b63e
00000140: 782f 8c3d b100 1c3f a295 9d3e fff8 a33d
00000150: f1c9 503e 5f56 723d a297 1d3f 0074 de3d
00000160: 8158 323f b850 123f 7685 873f a03d 193f
00000170: 9ddb 953e 2600 643e 98d7 a63f 3074 1840
00000180: 0865 413f 03f5 2c3f 294d 2e3f 11e7 a13e
00000190: 2da6 c93e 6f02 7b3e 183d dd3b 60bf acbb
000001a0: 1c4f 3abc 8471 403e dfef 503f 109c 323f
000001b0: ac59 4a3f 0014 aa3f d182 843f 3407 453f
000001c0: b747 2d3f 207e 493f f711 993f 1ae9 083f
000001d0: f9a4 693f 56c1 183f 9351 283f ed33 873f
000001e0: aa58 66be 852d 8a3f 02b7 a13e acc1 113f
000001f0: 723f 483f d51c 853e 24a6 863f 126a cc3e
00000200: 9ac8 383e b5aa 3b3f edb4 443f 1509 c33d
00000210: fac5 c9bf 1e95 833f 22a5 483f 3884 113e
00000220: c339 0d3f b241 123f 80cc 023f 1b65 0c3f
00000230: 1637 e53e 49ff 263f 24d3 bf3f 915c 0f3f
00000240: a19c 873d 3bb5 ab3f e69d 293f c611 0e3d
00000250: 6575 0d3f d1cc a1bc 37b4 1f3f 0b8c 233f
00000260: c7cd 1a3f 02f9 743f 8283 9c3f 0781 863f
00000270: 9549 07bd e9da 983f 257f 813e e501 4b3f
00000280: 9761 583f b575 423f 3aee cb3e f57b 253f
00000290: cfe8 e13e 43a6 993f 84af 563f 6c9a 533f
000002a0: 0e5c 07bd 065d 423e 0d48 1d3f a2d6 c13e
000002b0: f96f 1b3d 853a b83e 39f7 133f 59de 2e3f
000002c0: d1a3 123f 627f 663d 89fa be3e 6c62 053f
000002d0: c988 963e ba53 123f 0880 313e 9424 eb3e
000002e0: 4c5c 693f 96a9 283f 3228 d83e 20da 343f
000002f0: 3a3b ccbc 818d 493f 5d5f fa3e 91ee 763f
00000300: 1bda 193f 9fed c43f 2f05 783f c4cf 0c3f
00000310: 9c58 c53e f735 523f 7ef4 0f3f 4379 553f
00000320: f81c 3b3f fb08 2c3f 5bb6 2a3f 5618 1a3f
00000330: 3f7a d23f 0972 1b3f 9a3b 7a3f d704 933f
00000340: 6d9f 323e 0337 2c3f 3cdc eb3f a6e9 013f
00000350: e23f d33e 61c9 5d3f 615c efbe 9077 053f
00000360: 4c63 013f a03b 763f ad17 1d3f 4881 3a3f
00000370: 5ba6 8bbe f2d2 8a3f e3d3 053f 78d0 b73e
00000380: ef42 fe3e 2998 2a3f 453b 8e3f 53cd 103e
00000390: 1678 803e 2f7f 213f 9454 683f 4678 7a3f
000003a0: b79f 573f fe47 793f cf2e 793f 47f9 223f
000003b0: 64ef 4b3e 3f44 5a3f a7ea ab3f dffe 473f
000003c0: a1fc ff3e abbc 483d 8c23 973e 5d32 c73e
000003d0: d093 d73d 0fa6 2c3f 50fb 003f e9bb 473f
000003e0: b4ff e13e b211 8e3e caf5 a93e 0c20 1b3f
000003f0: f557 6a3f b74b 163f a17f c63d 1600 153f

bn1.bias f4 [256]
0.16579792 0.135263 0.17907749 0.13736513 -0.0042668115 0.29784703 0.021882454 0.013743052
0.07365281 -0.37173197 0.037239432 0.03293671 0.19009744 0.2292429 0.18815733 0.09976176
0.0737541 -0.0104718525 0.25791305 0.37097114 0.29184654 -0.41560206 0.3778659 0.35030955
0.017079381 0.14842883 0.40565142 0.025042739 0.029969508 0.17535761 0.64393 -0.18871543
0.07920865 0.32748145 0.16736555 0.040379867 0.31010383 0.1698762 -0.1465934 0.017534902
0.11179112 1.176514 0.7633485 0.0014505645 -0.20063736 0.35667974 0.10477643 0.01645406
-0.9263135 -0.072090305 0.13307995 -0.03463308 0.60253674 0.15941249 0.27133197 -0.5291049
0.21882541 0.099453986 0.66056955 0.6809818 0.77011573 0.22316025 0.021032747 0.0018497169
0.047908094 0.096563034 -0.18486907 -0.18831734 -0.036428712 0.3426228 0.33301994 0.12020199
0.024366464 0.2553904 0.015418847 0.0020090656 0.29563895 0.58602965 -0.33893847 0.20107356
-0.023131488 0.29533717 0.049069062 -0.11519408 0.12080522 0.058577754 0.3215018 0.023946252
0.33692667 0.5552099 0.29729933 0.48082852 0.2464664 0.077012114 0.08533232 0.068246774
0.1435019 0.43698472 0.06435137 -0.090963095 0.16110326 0.09525424 -0.00065053016 0.0026747694
-0.0029304326 0.43377557 0.52052313 0.7584099 0.11251013 0.09886325 -0.022826348 0.13779195
0.2137715 -0.077324644 0.2932856 0.33980155 0.055617444 0.2173913 0.30679652 0.41332868
-0.17450877 -0.18010628 0.15530433 0.12005165 0.3017623 0.18006451 0.18339913 0.25267315
0.2612315 0.35420012 0.14029148 -0.2816019 1.004276 0.30739123 0.27259406 -0.17519347
0.023611985 -0.067638114 0.10608783 0.22872801 0.30996987 0.1298103 -0.24868302 0.14395861
-0.24255328 0.16016123 0.28659815 -0.00989647 0.26873982 -0.038914066 0.20964757 -0.2699008
0.17696153 0.24628165 0.22928412 -0.2942939 -0.0010810854 -0.23774107 -0.07215223 0.051366024
0.4234294 0.21637625 0.13075644 0.33843786 0.190228 0.2478446 0.2893603 0.21626274
-0.0070761996 0.49105376 0.4831439 -0.006374102 0.043990843 -0.008502264 0.2311614 0.37686118
-0.34465915 0.030347398 -0.12417493 0.36559072 0.8730151 0.13485824 0.95559835 0.06397437
0.041558668 0.10891931 0.24711375 0.50513715 0.13876621 -0.54196274 0.25124803 -0.10374574
0.55899554 0.22221076 -0.055983823 -0.07883359 0.018813832 -0.056733295 0.43486798 0.6520317
0.21246457 0.106290095 0.14130414 0.10581171 -0.034446586 0.17290029 0.5604552 0.35593128
0.03718181 0.30661 0.077172935 0.14558735 0.46273643 -0.1286961 -0.08124345 0.20143606
0.18820064 0.25859442 0.2228714 0.12822321 0.074123725 0.20302035 0.08621122 0.06645036
0.8747748 -0.1826371 -0.12502527 0.102232635 0.27777317 0.22561432 0.6161765 0.8008924
-0.22989155 0.21928227 0.43696982 -0.0031840168 0.23547025 0.38914832 0.21431787 0.3404662
0.27200097 0.007711087 -0.18419921 -0.0062002246 -0.50382286 0.2229241 0.29266274 -0.058044657
0.01922509 0.11159181 0.065448284 0.2293639 0.13951561 0.12414765 0.16322985 0.23438974
00000000: eec6 293e 6282 0a3e 1760 373e 72a9 0c3e
00000010: 9cd0 8bbb 687f 983e d542 b33c 8a2a 613c
00000020: 49d7 963d a753 bebe 6088 183d a5e8 063d
00000030: e7a8 423e a7be 6a3e 51ac 403e e54f cc3d
00000040: 640c 973d 2292 2bbc 2e0d 843e eeef bd3e
00000050: e96c 953e cbc9 d4be a477 c13e c65b b33e
00000060: 0fea 8b3c bafd 173e 8bb1 cf3e 6e26 cd3c
00000070: 9d82 f53c f290 333e 99d8 243f 9e3e 41be
00000080: 2538 a23d a6ab a73e e061 2b3e 5c65 253d
00000090: eec5 9e3e 07f4 2d3e 951c 16be 5ba5 8f3c
000000a0: bef2 e43d 0398 963f cf6a 433f de20 be3a
000000b0: e173 4dbe ba9e b63e 0695 d63d aaca 863c
000000c0: e222 6dbf 15a4 93bd 1c46 083e 6bdb 0dbd
000000d0: d93f 1a3f 073d 233e 06ec 8a3e 6b73 07bf
000000e0: c513 603e 88ae cb3d 161b 293f d354 2e3f
000000f0: 4e26 453f 1f84 643e de4c ac3c 3372 f23a
00000100: 473b 443d d7c2 c53d 514e 3dbe 43d6 40be
00000110: 4636 15bd 416c af3e 9781 aa3e 762c f63d
00000120: 2e9c c73c 88c2 823e 559f 7c3c 87aa 033b
00000130: fd5d 973e 0a06 163f 5889 adbe 3ae6 4d3e
00000140: 3f7e bdbc 6f36 973e a4fc 483d e0ea ebbd
00000150: ba68 f73d 3aef 6f3d e29b a43e ee2a c43c
00000160: a781 ac3e 3c22 0e3f 9e37 983e 282f f63e
00000170: b061 7c3e 87b8 9d3d b6c2 ae3d f7c4 8b3d
00000180: 29f2 123e 76bc df3e a7ca 833d dc4a babd
00000190: 41f8 243e a814 c33d 5788 2aba 2f4b 2f3b
000001a0: 800c 40bb d517 de3e 0141 053f 2727 423f
000001b0: b66b e63d d178 ca3d 52fe babc 5519 0d3e
000001c0: ebe6 5a3e 625c 9ebd 8829 963e 78fa ad3e
000001d0: 1ecf 633d d39b 5e3e 6f14 9d3e d19f d33e
000001e0: 6db2 32be c86d 38be 1908 1f3e a4dd f53d
000001f0: 9780 9a3e d562 383e fbcc 3b3e 605e 813e
00000200: 23c0 853e b859 b53e 92a8 0f3e 202e 90be
00000210: 1e8c 803f 6262 9d3e 7391 8b3e eb65 33be
00000220: ec6d c13c da85 8abd 9444 d93d ad37 6a3e
00000230: 5fb4 9e3e feec 043e c3a6 7ebe e369 133e
00000240: e35f 78be 4e01 243e febc 923e ce24 22bc
00000250: 4498 893e 5b64 1fbd daad 563e 7030 8abe
00000260: 6735 353e 4231 7c3e 75c9 6a3e b1ad 96be
00000270: 35b3 8dba 6572 73be 8cc4 93bd 2e65 523d
00000280: bdcb d83e bc91 5d3e 04e5 053e ba47 ad3e
00000290: 21cb 423e faca 7d3e 0927 943e fb73 5d3e
000002a0: 77df e7bb 666b fb3e a35e f73e d8dd d0bb
000002b0: be2f 343d 144d 0bbc 93b5 6c3e f3f3 c03e
000002c0: 2a77 b0be 1b9b f83c 6d4f febd b52e bb3e
000002d0: eb7d 5f3f 4718 0a3e 18a2 743f ff04 833d
000002e0: 6c39 2a3d 1611 df3d 630b 7d3e ab50 013f
000002f0: bb18 0e3e 12be 0abf 95a3 803e a678 d4bd
00000300: 551a 0f3f 388b 633e 4b4f 65bd 8173 a1bd
00000310: 771f 9a3c 2c61 68bd 04a7 de3e 8deb 263f
00000320: 5090 593e 9fae d93d 08b2 103e cfb3 d83d
00000330: dd17 0dbd c60c 313e fe79 0f3f a03c b63e
00000340: f44b 183d fcfb 9c3e d80c 9e3d da14 153e
00000350: caeb ec3e e9c8 03be f762 a6bd 4145 4e3e
00000360: abb7 403e 7d66 843e 6638 643e f24c 033e
00000370: 2ece 973d 91e4 4f3e 828f b03d 2017 883d
00000380: 3ef1 5f3f 3805 3bbe a006 00be 585f d13d
00000390: 4938 8e3e 7107 673e bebd 1d3f 4907 4d3f
000003a0: b168 6bbe 888b 603e 82ba df3e f0aa 50bb
000003b0: 1d1f 713e 733e c73e 2576 5b3e 9651 ae3e
000003c0: b643 8b3e 49ad fc3b b89e 3cbe 412b cbbb
000003d0: 89fa 00bf 3746 643e e4d7 953e 3cc0 6dbd
000003e0: f07d 9d3c 3f8a e43d c009 863d 5fde 6a3e
000003f0: 2edd 0e3e 2041 fe3d ba25 273e dd03 703e

bn1.running_mean f4 [256]
0.15813203 7.4519534 0.8227339 0.33546275 1.9453889 4.7794714 20.64158 20.95304
3.075661 4.0158534 3.0093722 3.0049782 0.70383334 1.1599209 3.4997802 4.7692056
4.191277 0.43845233 10.224483 4.5571547 1.2367193 7.1379337 1.9586511 1.5761989
5.901067 15.207138 3.0774832 8.28025 0.2604706 8.538116 1.5629659 2.9439833
0.07764767 5.045003 3.575347 -0.06176123 0.25418448 4.7604647 10.629125 16.497149
7.224945 8.812158 10.419171 6.0124726 3.22213 0.90802276 0.9125886 11.246179
2.1313372 0.024958838 0.5521593 1.1277207 5.5481668 2.664905 0.24272308 0.8837928
7.945853 1.6456047 23.029932 13.429907 8.157384 13.582522 21.726227 0.4544357
5.0717535 3.9074125 1.4235553 6.3378634 2.699972 1.6818075 2.787176 4.4854884
7.3361216 1.1133473 0.2295164 0.64675707 4.436421 4.858773 3.4453962 -0.046134356
7.9866624 6.7063365 12.843519 15.094422 6.120609 4.3000846 8.012674 3.3324811
-0.25898218 0.7347281 0.69064736 1.7106647 4.2606335 13.329963 5.336594 -0.0023675223
7.4640765 1.1513184 33.789986 7.1958327 21.732862 2.889283 20.97736 4.0952845
0.5683361 23.156973 2.4826245 2.2784126 0.12888856 5.285667 1.5368323 18.82104
3.093327 8.371512 -0.10400488 20.08457 0.17284578 28.117264 6.9560523 9.6531105
18.261284 3.215455 1.7187831 0.53621566 5.6186757 8.2730465 21.57264 4.124229
10.94055 7.420374 10.984791 3.5293584 2.2039752 0.91032314 -0.098096766 0.9573333
0.2801946 1.1856303 0.47950372 1.3256599 6.03418 3.8645768 9.302424 0.06902691
2.0086908 -0.04216231 0.52908576 20.38063 4.805918 1.9073584 9.463729 1.0391444
3.3272684 1.1232411 0.39992455 7.023713 1.7668202 0.3143684 2.3394194 0.84483
0.9690496 0.856611 0.5515659 9.317294 15.645049 1.9610713 0.8937321 1.142776
0.5084218 25.622498 1.2041674 0.56575984 26.03027 1.200176 1.1723155 0.10039914
1.2477773 15.987788 1.7815937 5.8728733 5.598046 4.3219876 0.16871767 0.1704604
21.807167 1.7003415 12.080746 5.11698 3.1627212 0.027758913 6.605051 -0.08355433
6.916502 6.5916777 0.93415993 5.8273234 0.13685854 1.3015527 0.55824184 4.1194086
7.8950224 0.080338426 0.16938135 6.4288487 1.539465 1.467783 3.1194365 2.298857
3.2459826 4.3807344 2.0395823 1.0571405 4.759477 0.20686826 0.10080782 6.624462
2.37787 0.6690409 0.4260904 1.4872217 4.5613356 2.1790967 0.30808774 0.11907664
4.519225 2.7562573 3.3616307 1.9668657 5.917597 -0.06190673 2.0776606 0.36261138
1.0759852 -0.09927773 1.7195345 2.173526 3.4254189 7.5822062 5.771364 -0.25007868
0.07824825 0.69507176 1.3519561 -0.031025859 11.144556 3.9054277 10.766784 2.8471816
4.400483 12.739053 0.10773062 6.371976 4.890839 25.323853 15.58516 2.9086437
00000000: 5ded 213e 6776 ee40 b09e 523f c6c1 ab3e
00000010: 8102 f93f 6ef1 9840 f521 a541 d39f a741
00000020: a1d7 4440 df81 8040 8e99 4040 9051 4040
00000030: 6c2e 343f 4a78 943f 66fc 5f40 559d 9840
00000040: f11e 8640 d37c e03e 7b97 2341 36d4 9140
00000050: d14c 9e3f f469 e440 14b5 fa3f e3c0 c93f
00000060: 8ad5 bc40 7050 7341 7cf5 4440 e77b 0441
00000070: 675c 853e 209c 0841 440f c83f 396a 3c40
00000080: be05 9f3d aa70 a140 7cd2 6440 58f9 7cbd
00000090: 7824 823e ba55 9840 e510 2a41 29fa 8341
000000a0: c032 e740 99fe 0c41 edb4 2641 2d66 c040
000000b0: 6137 4e40 2e74 683f 689f 693f 59f0 3341
000000c0: d467 0840 7a76 cc3c 505a 0d3f 2759 903f
000000d0: 958a b140 ce8d 2a40 668c 783e 3f40 623f
000000e0: 6e44 fe40 2da3 d23f 4d3d b841 e6e0 5641
000000f0: a584 0241 0352 5941 50cf ad41 ccab e83e
00000100: ce4b a240 0c13 7a40 0f37 b63f c7cf ca40
00000110: 57cc 2c40 7845 d73f 1761 3240 1f89 8f40
00000120: 82c1 ea40 2a82 8e3f 5906 6b3e df91 253f
00000130: 29f7 8d40 127b 9b40 5f81 5c40 61f7 3cbd
00000140: bd92 ff40 4f9a d640 0e7f 4d41 c182 7141
00000150: 07dc c340 4b9a 8940 ea33 0041 5f47 5540
00000160: 5099 84be 2417 3c3f 44ce 303f 10f7 da3f
00000170: 1c57 8840 8747 5541 61c5 aa40 6f28 1bbb
00000180: b7d9 ee40 675e 933f f228 0742 4344 e640
00000190: e7dc ad41 03ea 3840 a2d1 a741 920c 8340
000001a0: 7a7e 113f 7b41 b941 52e3 1e40 83d1 1140
000001b0: 5dfb 033e 2f24 a940 ecb6 c43f 7d91 9641
000001c0: 12f9 4540 b7f1 0541 8300 d5bd 33ad a041
000001d0: 7cfe 303e 28f0 e041 fb97 de40 2473 1a41
000001e0: 1c17 9241 04ca 4d40 1601 dc3f 6e45 093f
000001f0: 31cc b340 665e 0441 c494 ac41 aff9 8340
00000200: 7e0c 2f41 b473 ed40 b4c1 2f41 02e1 6140
00000210: ee0d 0d40 f00a 693f f5e6 c8bd cc13 753f
00000220: ab75 8f3e bcc2 973f 8381 f53e 39af a93f
00000230: 0118 c140 3a55 7740 bbd6 1441 fb5d 8d3d
00000240: 648e 0040 63b2 2cbd 2a72 073f 880b a341
00000250: 15ca 9940 5224 f43f 6f6b 1741 af02 853f
00000260: f7f1 5440 5dc6 8f3f e9c2 cc3e 42c2 e040
00000270: 2a27 e23f e5f4 a03e 0cb9 1540 c746 583f
00000280: a213 783f dc4a 5b3f 6c33 0d3f a313 1541
00000290: 1f52 7a41 6204 fb3f a0cb 643f 7c46 923f
000002a0: ee27 023f e0fa cc41 2822 9a3f a3d5 103f
000002b0: fe3d d041 5e9f 993f 6f0e 963f 109e cd3d
000002c0: 2bb7 9f3f fbcd 7f41 430b e43f 94ee bb40
000002d0: 3123 b340 b94d 8a40 53c4 2c3e 2c8d 2e3e
000002e0: 1475 ae41 caa4 d93f bc4a 4141 4dbe a340
000002f0: 066a 4a40 a966 e33c 945c d340 881e abbd
00000300: fc53 dd40 06ef d240 1b25 6f3f 6f79 ba40
00000310: a524 0c3e 4799 a63f f0e8 0e3f 32d2 8340
00000320: 06a4 fc40 7988 a43d 4e72 2d3e 21b9 cd40
00000330: 300d c53f 50e0 bb3f d9a4 4740 7920 1340
00000340: 2ebe 4f40 fa2e 8c40 8488 0240 6150 873f
00000350: a34d 9840 46d5 533e 5574 ce3d 98fb d340
00000360: 062f 1840 4446 2b3f 8528 da3e 485d be3f
00000370: 76f6 9140 5276 0b40 adbd 9d3e 74de f33d
00000380: 7e9d 9040 8566 3040 f524 5740 41c2 fb3f
00000390: f45c bd40 e991 7dbd 64f8 0440 33a8 b93e
000003a0: e2b9 893f 1f52 cbbd b519 dc3f 0d1b 0b40
000003b0: 103a 5b40 6fa1 f240 04af b840 500a 80be
000003c0: 9e40 a03d 39f0 313f e60c ad3f f129 febc
000003d0: 1a50 3241 87f2 7940 bf44 2c41 3938 3640
000003e0: c2d0 8c40 29d3 4b41 dfa1 dc3d 3ae7 cb40
000003f0: c181 9c40 4097 ca41 d15c 7941 3827 3a40
