checkpoint_critic_0.pth (torch_old, 224897 bytes, 11 tensors)

fc1.weight f4 [256, 52]
0.1438142 -0.3496082 -0.03619748 0.44245312 0.16476712 -0.8800832 -0.00477755 0.43784285
-0.018895643 -0.10533345 -0.31225687 0.42009836 0.05897749 -0.74858534 -0.2710901 0.39874718
0.19963613 -0.02943362 0.16545717 0.60431457 0.089388095 -0.9338316 0.19558308 0.5544505
0.027820136 -0.21312995 -0.47722796 -0.14836271 -0.14603288 -0.80705667 -0.48166677 -0.13884124
0.13485599 -0.5317953 -0.1596475 -0.663221 -0.1220566 -0.77465355 -0.13594224 -0.64340395
0.099402525 -0.75570756 -0.12172689 -0.13882357 -0.01930244 -0.92244005 -0.15292084 -0.19551082
0.5461135 0.70474684 0.8325965 -0.79006493 0.36304343 0.002378861 0.08220548 -0.04655614
0.009922458 -0.05552199 0.027372014 -0.0285836 0.2712091 -0.06535161 -0.30136877 0.463003
-0.039601702 0.122205555 -0.2731669 0.4036933 0.46644506 -0.0015341197 0.10240812 0.29584983
-0.16862342 0.12153045 0.07870531 0.40917498 0.62257695 -0.42056188 -0.36937457 -0.46297827
-0.09875842 -0.043797906 -0.377572 -0.42194992 0.59811145 -0.6608538 -0.43054584 -0.25937253
0.03381216 0.1067356 -0.3854273 -0.2945545 0.6310005 -0.7024059 0.17445755 -0.07989658
0.09126117 0.10434936 0.22834289 -0.0005149759 0.3383408 0.19972706 -0.7145881 0.49448273
-0.13089469 -0.916061 -0.08502835 0.63366723 -0.06759197 0.06460277 -0.105580285 0.5426679
0.1122222 -0.84116656 -0.060091693 0.2336542 0.036200438 -0.0868225 -0.045339867 0.22256085
0.44972846 -0.7397214 0.031447165 0.60696876 0.05994096 -0.7370753 0.021195218 0.71948224
0.0039149234 0.018883618 0.21749745 0.4340244 0.0943412 0.13854708 0.21451198 0.38462958
0.1686858 0.0485517 0.17422765 -0.10517697 -0.016954763 -0.16470344 0.104497306 -0.20725794
0.518093 0.07302806 -0.043568335 -0.20927382 -0.063984714 -0.74793375 -0.050177585 -0.10124113
0.22262849 2.534203 3.0601737 0.77229816 0.13548185 -0.38210404 0.015120565 0.9107415
0.28638768 0.18189521 0.069336236 0.8201315 -0.060755137 -0.43161395 -0.4037281 -0.06774567
0.16767935 0.46115583 -0.31661302 -0.089749396 0.09732349 -0.43449166 0.12123418 0.11015526
0.3324416 0.8186913 0.12632509 0.13016841 0.15747486 0.23290321 -0.33282986 -0.48948953
-0.2671304 0.18633689 -0.33264217 -0.47567427 0.28781086 0.1268932 -0.016077738 -0.14926231
-0.25536025 0.38007855 -0.12702176 -0.13391757 0.35488886 0.047945697 -0.008774082 -0.16565444
-0.24160402 0.8844155 -0.017085243 -0.23628804 0.99186647 -0.10840916 0.9282489 1.8781738
-0.0744334 0.700005 0.05317741 -0.11103457 -0.2764159 -0.6978936 0.020347072 -0.06773907
-0.29634714 0.47855425 -0.003947917 -0.31172282 -0.048034977 -0.7463663 0.03511308 -0.31480187
-0.18529843 0.71900266 -0.27838776 0.85997784 0.273284 -1.157326 -0.28769964 0.83083254
0.19913796 0.75330174 0.040931445 -0.76268435 0.32461208 -0.71611774 0.03731824 -0.7811379
-0.091693915 0.4153525 -0.075686686 -0.085121885 0.085693896 -0.7464207 -0.039011776 -0.07946417
-0.046862777 0.4951876 0.087097235 -0.049989793 -0.29402015 -1.2259526 0.10375221 -0.0005921812
00000000: 0844 133e d9ff b2be cf43 14bd 3789 e23e
00000010: b6b8 283e 224d 61bf ff8c 9cbb f02c e03e
00000020: 09cb 9abc 10b9 d7bd 22e0 9fbe 2217 d73e
00000030: 6192 713d 4aa3 3fbf 52cc 8abe 9728 cc3e
00000040: 6a6d 4c3e c61e f1bc 9b6d 293e 5cb4 1a3f
00000050: 1b11 b73d 960f 6fbf ee46 483e 78f0 0d3f
00000060: 0ee7 e33c bd3e 5abe 3957 f4be 65ec 17be
00000070: a589 15be 449b 4ebf 079d f6be 662c 0ebe
00000080: b017 0a3e bd23 08bf a27a 23be dac8 29bf
00000090: d0f8 f9bd b24f 46bf 7134 0bbe 1fb6 24bf
000000a0: 8d93 cb3d 0d76 41bf f34b f9bd c427 0ebe
000000b0: 2720 9ebc 0825 6cbf 4897 1cbe fd33 48be
000000c0: 18ce 0b3f 4a6a 343f 0b25 553f b241 4abf
000000d0: d4e0 b93e aae6 1b3b 595b a83d a7b1 3ebd
000000e0: ce91 223c 076b 63bd 463b e03c 2728 eabc
000000f0: ebdb 8a3e 11d7 85bd 024d 9abe bb0e ed3e
00000100: 6535 22bd e846 fa3d 88dc 8bbe e3b0 ce3e
00000110: e3d1 ee3e 8414 c9ba 59bb d13d a179 973e
00000120: 9eab 2cbe f5e4 f83d 4030 a13d 627f d13e
00000130: 3461 1f3f e353 d7be aa1e bdbe 7d0b edbe
00000140: db41 cabd 6f65 33bd 1e51 c1be d209 d8be
00000150: d51d 193f b72d 29bf 8170 dcbe 7acc 84be
00000160: 9f7e 0a3d 3298 da3d ba56 c5be d9cf 96be
00000170: 4089 213f e0d0 33bf 00a5 323e d1a0 a3bd
00000180: 23e7 ba3d 1eb5 d53d b8d2 693e 73ff 06ba
00000190: 013b ad3e 4085 4c3e 3fef 36bf d72c fd3e
000001a0: 4209 06be f982 6abf 5823 aebd 0438 223f
000001b0: a96d 8abd 754e 843d 7a3a d8bd 49ec 0a3f
000001c0: c1d4 e53d b156 57bf b522 76bd 0c43 6f3e
000001d0: e946 143d ffcf b1bd 4cb6 39bd fee6 633e
000001e0: cf42 e63e 625e 3dbf bece 003d 4e62 1b3f
000001f0: a784 753d f8b0 3cbf 98a1 ad3c fd2f 383f
00000200: c248 803b d1b1 9a3c a7b7 5e3e 7238 de3e
00000210: f635 c13d 49df 0d3e 07a9 5b3e 2bee c43e
00000220: f8bb 2c3e 26de 463d bc68 323e 0667 d7bd
00000230: b7e4 8abc 05a8 28be af02 d63d 6d3b 54be
00000240: bea1 043f bc8f 953d b674 32bd e04b 56be
00000250: 6b0a 83bd 9678 3fbf 0387 4dbd 8257 cfbd
00000260: b9f8 633e 6230 2240 e3d9 4340 55b5 453f
00000270: c1bb 0a3e 24a3 c3be 3fbc 773c 5b26 693f
00000280: 68a1 923e bd42 3a3e 2800 8e3d 23f4 513f
00000290: 61da 78bd 81fc dcbe 73b5 cebe 3ebe 8abd
000002a0: 23b4 2b3e 9e1c ec3e 1a1b a2be 88ce b7bd
000002b0: 8a51 c73d b175 debe a049 f83d 1599 e13d
000002c0: c935 aa3e c195 513f 5d5b 013e de4a 053e
000002d0: 1741 213e 2e7e 6e3e ad68 aabe 5f9e fabe
000002e0: 51c5 88be 19cf 3e3e 1350 aabe 948b f3be
000002f0: f25b 933e 4bf0 013e 76b5 83bc 38d8 18be
00000300: 94be 82be a899 c23e fe11 02be b021 09be
00000310: feb3 b53e b562 443d 2bc1 0fbc 51a1 29be
00000320: 0b67 77be 0e69 623f 5af6 8bbc 7ef5 71be
00000330: f6ea 7d3f 9f05 debd b8a1 6d3f 0068 f03f
00000340: 8a70 98bd 8733 333f 8ed0 593d 1866 e3bd
00000350: 6386 8dbe 28a9 32bf e7ae a63c c8ba 8abd
00000360: d0ba 97be 1005 f53e 875d 81bb 229a 9fbe
00000370: 53c0 44bd dd11 3fbf bcd2 0f3d b62d a1be
00000380: dfbe 3dbe 8f10 383f d788 8ebe 8227 5c3f
00000390: e1eb 8b3e 4223 94bf 5e4d 93be 71b1 543f
000003a0: d2ea 4b3e 62d8 403f bba7 273d 483f 43bf
000003b0: 8e33 a63e 7e53 37bf 03db 183d a7f8 47bf
000003c0: 05ca bbbd 15a9 d43e 9f01 9bbd 6254 aebd
000003d0: 4880 af3d 6d15 3fbf d0ca 1fbd 1cbe a2bd
000003e0: 2ff3 3fbd 3b89 fd3e 0960 b23d 19c2 4cbd
000003f0: cf89 96be 04ec 9cbf 0a7c d43d 9c3c 1bba

fc1.bias f4 [256]
-0.5347372 -0.54212934 -0.4170657 -0.56077766 -0.1272455 -0.11424995 -0.6830078 -0.2504045
-0.9629368 -0.694884 -0.19149181 0.015921073 -1.2933432 -0.42204618 -0.7769496 -0.8220031
-0.6416267 -0.36293566 0.25859064 -0.055683665 -0.59361815 -0.28324598 -0.83874846 -0.12806526
-0.6159947 -0.5319607 -0.52829176 -0.5279746 -0.5897764 -0.324549 -0.38963643 0.42443165
-1.0461653 -0.9464733 -0.942547 0.043808933 -0.4809597 -0.82336295 -1.032869 0.016921535
0.041924585 -1.2623036 -1.0287927 -2.1743393 -0.4551284 -0.44592592 -1.3449057 -0.7875514
-0.6895345 -0.34243867 -0.48665833 -0.23479939 -0.13213883 -0.5086298 -0.65506244 -0.31877893
-0.17406419 0.06170309 0.111605026 -0.85541177 -0.9222569 -0.6695813 -0.056916922 0.048077684
-0.40682274 -0.16607735 0.1385256 -0.50047314 -0.60515314 -0.6833077 -0.40620703 -0.06300127
-0.89805865 -0.8982298 -1.0453279 -0.6456151 -0.46160328 -0.5724581 -0.16700143 0.061176296
-0.0047074705 0.0885367 -0.27844417 -0.47712767 -0.9258166 -0.4953279 -0.8017448 -1.236763
-0.7395235 -0.46230122 -0.99566823 -0.36091667 -0.014378187 -0.6541961 -0.2193924 -0.041400902
-0.98174584 -0.40759832 -0.7214303 -0.37045553 -0.10851374 -0.6851169 -0.25613886 -1.1364708
-0.70813286 -0.17251109 -1.5120444 0.11662376 -0.18287492 -0.5596372 -0.61741555 -0.4205289
-0.16579477 -0.6038118 -0.37593913 -0.7273088 0.13810785 -0.6818315 -0.251348 -0.092811674
-0.23939447 -0.66181463 -0.06607706 -0.3322724 -0.32854107 -0.3887572 -0.51409864 -0.06499563
-0.44987106 -0.23227997 -0.2704786 -0.044882767 -0.19153722 -0.29962733 -0.17171477 -0.31545597
-0.3807882 -0.32271603 -0.664976 -0.26378947 -0.32589993 -0.71341 -0.70452946 -0.14759369
-0.59398973 -0.9355968 -0.34170148 -0.53605604 -0.8065436 -0.23914737 -0.32636678 -0.5292714
-0.48070604 -0.115750246 -0.835004 -0.17442389 -0.83451533 -1.0259596 -0.37305054 -0.16249935
-0.39616784 -0.27005848 -0.55339265 -0.32929072 -0.13685837 -0.55985636 0.653184 -0.32849088
0.03809831 0.049091566 -0.5232477 -0.28893876 -0.90058905 -0.57106763 -0.6595239 -0.31042737
-0.779696 -0.898669 0.030502524 -0.2506765 -0.15637149 -0.7613042 -0.4795511 -0.43243682
-0.9026337 -0.4935178 -0.31549034 -1.6412956 0.48124012 -1.0253043 -0.20812373 0.30027378
-1.2019937 -0.96073 -0.19279094 -0.77591133 -0.8332504 -0.39533004 0.021062272 -0.5249006
-0.45706633 -0.5312424 -0.46695313 -0.5385033 -0.31966004 -0.8802545 0.026599925 -0.8306917
-0.5685357 -0.094541386 -0.59698784 0.14757718 -0.71873516 -0.94915116 -0.6413817 -0.6314184
-0.94265854 -0.5873201 -1.0123488 -0.4194655 -0.22811593 -0.30492353 -0.8385914 -0.4765685
-0.8212716 -0.6352684 -0.84037554 -0.72266614 -0.31851715 -0.5878254 0.31683272 -0.2711654
-1.1216362 -0.28575423 0.10404588 -0.35285375 -1.7572975 0.027693788 -0.5388884 -0.4242729
-0.11603854 -0.24572773 -0.54237163 0.12395621 0.49176362 -0.5050965 -0.6399385 -0.46796554
-0.7255794 -0.8678261 0.1432472 -0.3347648 -0.36921057 -1.0369374 -0.50338024 -0.7072302
00000000: 8ae4 08bf fdc8 0abf a389 d5be 208f 0fbf
00000010: a54c 02be e1fb e9bd 99d9 2ebf 0535 80be
00000020: 0783 76bf ebe3 31bf 6e16 44be e96c 823c
00000030: 458c a5bf 7016 d8be 2be6 46bf cc6e 52bf
00000040: a641 24bf b4d2 b9be fe65 843e 8e14 64bd
00000050: 5cf7 17bf 9e05 91be 38b8 56bf 8a23 03be
00000060: d4b1 1dbf 942e 08bf 213e 07bf 5829 07bf
00000070: 96fb 16bf 492b a6be 6d7e c7be 1b4f d93e
00000080: bfe8 85bf 134c 72bf c34a 71bf ff70 333d
00000090: 5a40 f6be eac7 52bf 0d35 84bf 089f 8a3c
000000a0: 1db9 2b3d 2a93 a1bf 7baf 83bf 6028 0bc0
000000b0: 9706 e9be 6750 e4be df25 acbf f89c 49bf
000000c0: 5585 30bf 1f54 afbe 482b f9be 406f 70be
000000d0: 674f 07be 9035 02bf 2cb2 27bf fe36 a3be
000000e0: e23d 32be 61bc 7c3d 2d91 e43d 44fc 5abf
000000f0: 0719 6cbf ae69 2bbf b821 69bd 1bed 443d
00000100: 124b d0be 2e10 2abe a8d9 0d3e 021f 00bf
00000110: 51eb 1abf 41ed 2ebf 5efa cfbe cf06 81bd
00000120: 2ce7 65bf 63f2 65bf 4ecd 85bf 0847 25bf
00000130: 4457 ecbe 9d8c 12bf 6c02 2bbe ff93 7a3d
00000140: 2041 9abb bb52 b53d 3c90 8ebe 144a f4be
00000150: 5102 6dbf 9e9b fdbe 263f 4dbf 404e 9ebf
00000160: 6951 3dbf bfb2 ecbe 1de4 7ebf 12ca b8be
00000170: 7d92 6bbc 6579 27bf 67a8 60be fe93 29bd
00000180: b253 7bbf bab0 d0be a8af 38bf 59ac bdbe
00000190: 743c debd d263 2fbf a224 83be e077 91bf
000001a0: 3248 35bf bfa6 30be ac8a c1bf 70d8 ee3d
000001b0: 9043 3bbe 6244 0fbf f20e 1ebf 904f d7be
000001c0: 1bc6 29be 6993 1abf 187b c0be e930 3abf
000001d0: 256c 0d3e 828c 2ebf afb0 80be 0c14 bebd
000001e0: d323 75be af6c 29bf 6953 87bd 9c1f aabe
000001f0: 8936 a8be 2f0b c7be f89b 03bf 6e1c 85bd
00000200: 8055 e6be cdda 6dbe 2c7c 8abe fed6 37bd
00000210: 5522 44be c168 99be ffd5 2fbe 7283 a1be
00000220: acf6 c2be 093b a5be de3b 2abf 6a0f 87be
00000230: 5bdc a6be 0aa2 36bf 0b5c 34bf cd22 17be
00000240: b60f 18bf 4683 6fbf 7ff3 aebe f83a 09bf
00000250: a479 4ebf 0ce3 74be 8c19 a7be 557e 07bf
00000260: 1a1f f6be 770e edbd d2c2 55bf 2d9c 32be
00000270: cca2 55bf a552 83bf 7b00 bfbe 3b66 26be
00000280: 83d6 cabe 1b45 8abe 24ab 0dbf cb98 a8be
00000290: 9a24 0cbe bf52 0fbf 1137 273f f52f a8be
000002a0: f90c 1c3d 3d14 493d 90f3 05bf c8ef 93be
000002b0: 018d 66bf 7d31 12bf 8fd6 28bf 56f0 9ebe
000002c0: 289a 47bf 2c0f 66bf 6ee0 f93c ac58 80be
000002d0: d91f 20be d5e4 42bf b987 f5be 5c68 ddbe
000002e0: 0113 67bf 5dae fcbe f387 a1be f915 d2bf
000002f0: 1b65 f63e 2c3d 83bf 631e 55be 7cbd 993e
00000300: eeda 99bf 67f2 75bf fd6a 45be 20a2 46bf
00000310: e64f 55bf b368 cabe c98a ac3c e35f 06bf
00000320: 9904 eabe 80ff 07bf 7b14 efbe 5adb 09bf
00000330: 7baa a3be 5c58 61bf 16e8 d93c 36a8 54bf
00000340: 8e8b 11bf ea9e c1bd 32d4 18bf 791e 173e
00000350: 07ff 37bf 92fb 72bf 9731 24bf a3a4 21bf
00000360: 1252 71bf 9c5a 16bf a594 81bf 2fc4 d6be
00000370: 3997 69be f01e 9cbe edad 56bf c900 f4be
00000380: db3e 52bf f3a0 22bf da22 57bf a600 39bf
00000390: ae14 a3be ba7b 16bf e637 a23e 31d6 8abe
000003a0: c691 8fbf 614e 92be 0216 d53d 3fa9 b4be
000003b0: 20ef e0bf 15de e23c 97f4 09bf 4c3a d9be
000003c0: 9da5 edbd 0da0 7bbe ded8 0abf c1dc fd3d
000003d0: 71c8 fb3e 014e 01bf 02d3 23bf 2e99 efbe
000003e0: 92bf 39bf da29 5ebf 65af 123e 4b66 abbe
000003f0: 2b09 bdbe 5dba 84bf 87dd 00bf 0a0d 35bf

fc2.weight f4 [128, 256]
0.064704806 -0.5073999 -0.3604434 -0.4642373 0.4985061 -0.25956562 0.40675977 -0.7377484
0.11609473 0.30467817 0.08806675 0.29530594 -0.65374845 -0.26037508 0.0342774 -0.19367747
-0.5459921 -0.20642324 -0.30233702 0.43539298 0.33414257 0.5399893 -0.011729182 0.33291292
0.15795071 -0.053061336 0.5385058 -0.12825486 0.2565536 0.050779052 0.41320932 0.053310655
0.2734269 -0.1564075 0.25523978 -0.11693323 0.04843952 -0.090560086 -0.06771705 0.020412218
-0.20291287 0.57669246 0.5009833 0.21932526 0.4723505 -0.5663689 0.3370991 0.22876103
-0.21573855 0.10253527 -0.086034246 -0.22237574 -0.40114745 0.03954783 -0.20706502 -0.09237047
-0.1575188 -0.05026483 -0.016887097 0.2946463 -0.17109817 0.2897353 0.2562905 0.45524597
0.32500723 -0.062359665 0.38007364 -0.0071127065 0.8039775 0.18103036 0.3993748 -0.07289409
0.56070536 -0.18869765 -0.036169726 -0.14904045 0.41661796 -0.3667674 0.2507035 -0.07685679
-0.23770836 -0.1468291 -0.04305751 0.06723977 -0.36812103 0.38134623 -0.31147444 0.2847932
-0.5859314 0.097135834 -0.079410374 -0.020309422 -0.75819975 0.3132752 0.39567536 -0.051434565
0.5421544 0.28670207 0.11316755 -0.0003874639 0.23873109 0.0612074 0.028260356 0.11663011
0.14570765 -0.19060677 -0.26136526 0.041424576 -0.22102812 -0.014062941 -1.1428593 -0.12235885
0.34513623 -0.7127978 0.2912835 0.2703119 0.51042014 0.25098142 0.14088736 -0.08712291
-0.07479982 -0.25883016 0.22001958 -3.0077896e-05 0.18133116 0.0019445444 -0.19532543 -0.14632109
0.024203336 -0.51232195 0.15757637 -0.04370147 -0.29381296 -0.37023094 -0.109243885 0.0135375215
-0.20215084 0.33743504 0.13929974 -0.21157697 -0.31543845 -0.0050678873 -0.023782218 -0.31660783
0.13475369 -0.43339437 0.18712519 0.13206871 0.17033894 0.04565786 -0.041997425 0.38599023
-0.4389364 -0.0072490517 0.63994443 -0.074533835 0.15444903 -0.23909664 -0.031520206 -0.3578015
0.052404545 0.17252298 -0.61851627 -0.04408417 -0.17687981 0.062467624 0.13324782 0.24961571
-0.25440925 0.1051294 -0.14021732 -0.1884376 -0.5944121 -0.021130303 0.17371397 -0.07694346
-0.43935335 -1.4432745 -0.46432963 -0.56287324 -0.18188502 0.08810422 -0.47300825 -0.41834065
-0.45707962 -0.24765651 -0.08761573 -0.063045606 -0.4452277 0.15160313 0.19699943 0.12756196
-0.22762445 0.06446773 0.28311822 -0.14571653 0.06134314 -0.21745948 0.13162398 0.35964158
-0.1548039 0.41722772 0.2090689 0.46851787 0.25582862 0.122279525 0.09868697 0.14594363
0.1528505 0.2052819 0.30132455 0.038873646 0.038766928 -0.01146011 0.25609547 -0.1895897
-0.0013148256 -0.4765605 0.0195521 -0.4130282 -0.33927745 -0.49035466 -0.15859474 -0.39123628
0.14000624 0.45033816 0.23156476 0.223233 0.31194213 0.3033236 -0.47703356 0.12649286
-0.083458565 0.6343866 0.15639657 0.0435776 0.17740764 0.38674393 -0.015208199 0.095688984
-0.039297007 -0.6171631 -0.22979416 -0.2512566 -0.50603914 -0.0052469545 0.27169055 -0.14903793
0.31730822 -0.097395465 -0.22900388 -0.23650068 0.1898765 0.32233936 0.22732705 -0.04280713
00000000: f483 843d f6e4 01bf 0a8c b8be 83b0 edbe
00000010: 313c ff3e c9e5 84be d142 d03e 14dd 3cbf
00000020: 13c3 ed3d c7fe 9b3e 575c b43d 5732 973e
00000030: 0f5c 27bf e24f 85be 7566 0c3d 6353 46be
00000040: 23c6 0bbf 9d60 53be ebcb 9abe d4eb de3e
00000050: bc14 ab3e bd3c 0a3f c12b 40bc 9073 aa3e
00000060: d5bd 213e d856 59bd 84db 093f 3e55 03be
00000070: fe5a 833e b2fd 4f3d 2c90 d33e 465c 5a3d
00000080: 9cfe 8b3e 4a29 20be caae 823e b07a efbd
00000090: 8568 463d 9177 b9bd 3daf 8abd 8637 a73c
000000a0: 64c8 4fbe 1ea2 133f 7140 003f cd96 603e
000000b0: edd7 f13e 8dfd 10bf 4198 ac3e 5540 6a3e
000000c0: 91ea 5cbe 03fe d13d b932 b0bd 77b6 63be
000000d0: 3363 cdbe e8fc 213d da08 54be bb2c bdbd
000000e0: 9c4c 21be 7fe2 4dbd cf56 8abc e1db 963e
000000f0: 5c34 2fbe 2f58 943e 8238 833e 0016 e93e
00000100: 5967 a63e d96c 7fbd 0399 c23e b511 e9bb
00000110: 78d1 4d3f 0660 393e db7a cc3e 7f49 95bd
00000120: 638a 0f3f f539 41be b526 14bd 0f9e 18be
00000130: f34e d53e f0c8 bbbe 365c 803e 1867 9dbd
00000140: d269 73be 5e5a 16be 125d 30bd 01b5 893d
00000150: 5c7a bcbe d03f c33e 9479 9fbe 6ad0 913e
00000160: 9aff 15bf 27ef c63d e8a1 a2bd f25f a6bc
00000170: 6119 42bf 9b65 a03e f695 ca3e 0dad 52bd
00000180: a1ca 0a3f 9dca 923e 63c4 e73d 8624 cbb9
00000190: ec75 743e 9cb4 7a3d 4382 e73c c4db ee3d
000001a0: 6334 153e 6c2e 43be abd1 85be d1ac 293d
000001b0: 3255 62be 4068 66bc 3749 92bf 4797 fabd
000001c0: b2b5 b03e eb79 36bf 1c23 953e 5266 8a3e
000001d0: e5aa 023f a380 803e c744 103e 7f6d b2bd
000001e0: a630 99bd 6385 84be d04c 613e ca4f fcb7
000001f0: e0ae 393e 15e0 fe3a 6403 48be 32d5 15be
00000200: 1346 c63c 8827 03bf b35b 213e 5000 33bd
00000210: a76e 96be e98e bdbe 42bb dfbd 7bcc 5d3c
00000220: a100 4fbe 49c4 ac3e 97a4 0e3e a2a7 58be
00000230: 2681 a1be 8510 a6bb edd2 c2bc 6c1a a2be
00000240: dffc 093e dee5 ddbe bf9d 3f3e 053d 073e
00000250: 556d 2e3e bc03 3b3d 7e05 2cbd 83a0 c53e
00000260: 46bc e0be 7489 edbb 66d3 233f 32a5 98bd
00000270: e327 1e3e c0d5 74be 551b 01bd c231 b7be
00000280: 26a6 563d dda9 303e 1557 1ebf 9a91 34bd
00000290: fb1f 35be 0dde 7f3d 1e72 083e 439b 7f3e
000002a0: ee41 82be 154e d73d 2195 0fbe c9f5 40be
000002b0: 642b 18bf 7519 adbc 13e2 313e 8894 9dbd
000002c0: ecf2 e0be 38bd b8bf 9dbc edbe 7618 10bf
000002d0: 1140 3abe fc6f b43d 232e f2be bf30 d6be
000002e0: 5706 eabe ab99 7dbe e06f b3bd 0e1e 81bd
000002f0: e3f4 e3be da3d 1b3e 38ba 493e 9a9f 023e
00000300: 6216 69be a807 843d dff4 903e b736 15be
00000310: f242 7b3d b3ad 5ebe 70c8 063e f122 b83e
00000320: ea84 1ebe df9e d53e 2816 563e 93e1 ef3e
00000330: f8fb 823e b06d fa3d 651c ca3d 3f72 153e
00000340: d784 1c3e 6b35 523e 3647 9a3e f939 1f3d
00000350: 12ca 1e3d 2fc3 3bbc f21e 833e cd23 42be
00000360: 3a56 acba bdff f3be ba2b a03c 6f78 d3be
00000370: c6b5 adbe c40f fbbe a966 22be 1f50 c8be
00000380: cc5d 0f3e b992 e63e 501f 6d3e 3197 643e
00000390: e1b6 9f3e 3b4d 9b3e be3d f4be 5887 013e
000003a0: 53ec aabd 2967 223f 6c26 203e 6d7e 323d
000003b0: 59aa 353e 4d03 c63e cf2b 79bc 96f8 c33d
000003c0: e6f5 20bd 67fe 1dbf 294f 6bbe b4a4 80be
000003d0: c88b 01bf a5ee abbb 061b 8b3e 669d 18be
000003e0: 3976 a23e 4677 c7bd fe7f 6abe 3c2d 72be
000003f0: fc6e 423e aa09 a53e 6cc8 683e 8756 2fbd

fc2.bias f4 [128]
-0.15951413 -0.32316157 -0.18490386 -0.17750482 0.12415735 -0.26799026 -0.3999133 -0.15347289
-0.26808113 -0.36850423 -0.12104931 -0.14700389 -0.22155826 -0.2904526 -0.44234222 -0.33384907
-0.12694678 -0.10341002 -0.17774609 0.12728266 -0.19376059 -0.29249355 0.08201279 -0.25234777
-0.1932995 -0.27802965 -0.16460882 -0.3823214 -0.35191357 -0.07961723 -0.15923509 -0.78777707
-0.2000954 -0.2812928 -0.1604385 -0.2113254 -0.18223923 -0.14541613 -0.27477118 -0.28831717
-0.0044213533 -0.33585307 0.2693469 -0.107196964 -0.18660195 -0.12102903 -0.2486351 -0.133825
-0.35208538 -0.32167387 -0.29086673 -0.33046922 -0.14970541 -0.19596268 -0.32250842 -0.17883016
-0.014435205 -0.08102573 -0.22134455 -0.36499476 -0.13916542 -0.14234617 -0.32737592 -0.2249675
-0.1380177 -0.13444395 -0.25995803 -0.3660227 -0.2506461 -0.3482941 -0.06389706 -0.10420784
-0.21269266 -0.33665282 -0.39786795 -0.2378323 -0.25102636 0.06725318 -0.34863102 -0.07627053
-0.6590585 -0.039187834 -0.20771353 -0.30123484 -0.14762793 -0.32909516 -0.20228752 -0.87033904
-0.37432083 -0.452466 -0.42846286 -0.23890042 -0.30230677 -0.4953226 -0.31985223 -0.44804275
-0.65067405 -0.0017137954 -0.317215 -0.1635681 -0.25815 -0.24606436 -0.13555744 -0.25388274
-0.30264357 -0.3243237 -0.17605849 -0.14863338 -0.19117948 -0.25501224 -0.4374763 -0.018171564
-0.17202029 -0.777654 -0.18718763 -0.25841504 -0.14765725 -0.40286916 -0.07698028 0.076210596
-0.44890207 -0.074703075 -0.01786123 -0.25841632 -0.3631305 -0.021338599 -0.18956637 -0.35528845
00000000: ac57 23be 6f75 a5be 7057 3dbe d3c3 35be
00000010: 3546 fe3d 0536 89be 70c1 ccbe ff27 1dbe
00000020: ee41 89be 96ac bcbe b3e8 f7bd 3088 16be
00000030: 2be0 62be 34b6 94be ae7a e2be 44ee aabe
00000040: 56fe 01be a2c8 d3bd 1203 36be 6356 023e
00000050: 2d69 46be b7c1 95be 52f6 a73d ba33 81be
00000060: 4ef0 45be e759 8ebe 378f 28be a1bf c3be
00000070: 042e b4be 5c0e a3bd 860e 23be c2ab 49bf
00000080: cfe5 4cbe 9c05 90be fd49 24be b065 58be
00000090: ec9c 3abe f7e7 14be cfae 8cbe 4f9e 93be
000000a0: 00e1 90bb eff4 abbe d6e7 893e 158a dbbd
000000b0: 9514 3fbe 11de f7bd 339a 7ebe 6c09 09be
000000c0: 8944 b4be 70b2 a4be 7cec 94be 4333 a9be
000000d0: 604c 19be 71aa 48be d31f a5be 411f 37be
000000e0: a381 6cbc d1f0 a5bd 25a8 62be 98e0 babe
000000f0: 6181 0ebe 32c3 11be d19d a7be e15d 66be
00000100: 8354 0dbe adab 09be 3819 85be 5467 bbbe
00000110: b054 80be 9b53 b2be 76dc 82bd ec6a d5bd
00000120: 1bcc 59be c25d acbe 59b5 cbbe 4f8a 73be
00000130: 8786 80be 09bc 893d c47f b2be b933 9cbd
00000140: 0fb8 28bf 6c83 20bd dbb2 54be 743b 9abe
00000150: c72b 17be 297f a8be 7624 4fbe 8ace 5ebf
00000160: fba6 bfbe a0a9 e7be 7c5f dbbe 50a2 74be
00000170: f4c7 9abe ec9a fdbe acc3 a3be dc65 e5be
00000180: 9392 26bf 6ea1 e0ba 016a a2be 657e 27be
00000190: 3d2c 84be 4cf8 7bbe 92cf 0abe ebfc 81be
000001a0: 19f4 9abe c20d a6be ad48 34be 5933 18be
000001b0: 8ec4 43be f790 82be e5fc dfbe 88dc 94bc
000001c0: 1626 30be 5514 47bf 1dae 3fbe fa4e 84be
000001d0: 7633 17be de44 cebe d6a7 9dbd 4d14 9c3d
000001e0: 7ed6 e5be edfd 98bd b751 92bc 254f 84be
000001f0: 3eec b9be 49ce aebc b01d 42be 5ee8 b5be

fc3.weight f4 [64, 128]
-0.15230966 0.045998458 -0.2276695 0.10529231 0.17359973 -0.090450324 -0.40205804 -0.50601363
0.36235076 0.19061944 -0.109078065 -0.2097679 0.13269097 0.011595893 0.033299036 -0.38029024
-0.23258133 0.20466198 -0.24909842 -0.108328246 0.17661804 -0.2800538 -0.22982535 0.053959295
-0.45741126 -0.14009032 -0.027617361 0.3749106 -0.17496641 -0.15507226 -0.14941053 -0.10443189
0.42926952 -0.6347106 -0.385471 0.05809592 -0.6802489 -0.39302963 -0.2817485 -0.43476316
0.07418145 -0.24720183 0.19131349 -0.28478435 -0.3507858 -0.45051023 -0.35501137 -0.330838
0.5054541 -0.39149213 -0.21156433 -0.40706098 0.08171607 -0.08539759 0.08007307 -0.088963635
-0.33478597 -0.19868393 -0.24678797 -0.2585929 -0.17478728 -0.16990378 -0.12213181 0.07412464
0.0425849 0.06727364 -0.49326873 -0.0010080317 0.06876479 0.035820358 0.17582938 0.3042859
0.013541949 0.06777323 0.008535972 -0.29995206 0.51144487 -0.07556107 0.25902158 -0.15992425
0.21212195 -0.15822247 0.035024818 -0.40559822 -0.4806166 -0.45363298 -0.13070418 -0.016811604
-0.021416185 0.22565915 -0.20129202 -0.33332655 -0.17125441 -0.45397574 0.11530543 0.13177308
-0.17084682 -0.014630508 -0.090120934 0.22725932 -0.31213474 -0.37031823 -0.05853854 0.10580598
-0.33705032 0.038095094 -0.43188608 0.20082328 0.19861723 -0.27273065 0.020836588 -0.41638988
-0.038485434 -0.18124497 -0.12197847 -0.5221366 0.4449346 -0.14438389 -0.54690075 0.060842533
-0.26611316 -0.08432986 -0.29885936 -0.22893628 0.24294049 -0.06742424 -0.21962239 -0.51133966
0.07760116 0.17216997 -0.28586107 -0.24333632 -0.013069944 0.07037403 0.11783312 -0.42705885
-0.04036446 -0.3128627 -0.15123428 -0.063560985 0.18731686 -0.31733862 -0.17129047 -0.0938397
0.13501951 -0.2722564 0.2638833 -0.05023539 0.040129967 -0.16761903 -0.42780054 -0.22393398
-0.35263288 -0.16017681 -0.025967915 -0.23679295 -0.2396956 -0.45113382 -0.50611615 -0.5273042
0.42540428 -0.24949354 -0.007774924 0.0022143696 0.099716716 0.36676186 -0.25735658 0.060084365
-0.03689352 -0.15041134 -0.08524572 0.2309493 -0.50360364 -0.04817313 0.26035163 -0.22427793
0.34102553 -0.08781556 -0.044954304 0.055846006 -0.24500032 -0.21108547 -0.1294473 0.18145524
-0.14615114 0.3562725 0.018430237 0.2860406 -0.52605224 -0.38344443 -0.5356336 -0.18103184
-0.47953972 -0.2873733 -0.1496889 0.0813402 -0.2880749 -0.008550961 -0.35564318 -0.3166502
-0.18043414 -0.48049572 0.36426798 0.2119421 -0.29829597 -0.046314005 -0.19208089 -0.4506988
-0.086349815 0.11938402 -0.3618798 -0.27736396 -0.4967435 -0.15620585 -0.31362188 -0.16390304
0.19780959 -0.14296287 0.026242804 -0.10288776 -0.35754117 -0.5362537 0.23346193 -0.15665413
0.1355043 0.13483872 -0.2703578 -0.15341474 -0.16334867 -0.20115083 -0.302044 0.08982335
0.33830652 -0.41136864 0.19569564 -0.7037944 -0.124114536 0.008084181 0.19039881 0.16191931
-0.25136954 -0.30541825 -0.83087957 -0.07081351 0.27686977 0.18903174 -0.029309154 0.18451686
-0.37409878 -0.17419396 -0.10251345 -0.12511113 0.009534845 -0.021832822 -0.033008527 -0.2080399
00000000: 10f7 1bbe e168 3c3d 3222 69be 7fa3 d73d
00000010: 21c4 313e 053e b9bd 8dda cdbe 1c8a 01bf
00000020: 0a86 b93e be31 433e 5264 dfbd 65cd 56be
00000030: 24e0 073e b3fc 3d3c 9264 083d 67b5 c2be
00000040: cd29 6ebe e992 513e a813 7fbe 33db ddbd
00000050: 5cdb 343e 3663 8fbe 5657 6bbe 6c04 5d3d
00000060: cf31 eabe d673 0fbe ce3d e2bc 48f4 bf3e
00000070: 652a 33be 43cb 1ebe 13ff 18be 63e0 d5bd
00000080: 37c9 db3e 657c 22bf 745c c5be fdf5 6d3d
00000090: cb24 2ebf 2e3b c9be 5741 90be 4799 debe
000000a0: 72ec 973d 7a22 7dbe afe7 433e 41cf 91be
000000b0: 329a b3be 47a9 e6be 0dc4 b5be 9963 a9be
000000c0: 7165 013f a871 c8be 52a4 58be 4c6a d0be
000000d0: c15a a73d efe4 aebd 5afd a33d 9132 b6bd
000000e0: 1169 abbe cd73 4bbe fcb5 7cbe 4a66 84be
000000f0: 70fb 32be 42fb 2dbe 3e20 fabd a9ce 973d
00000100: 816d 2e3d c3c6 893d b88d fcbe ee1f 84ba
00000110: 8ed4 8c3d 5eb8 123d 9e0c 343e 5dcb 9b3e
00000120: 0ddf 5d3c b1cc 8a3d 76da 0b3c 5193 99be
00000130: 0dee 023f c3bf 9abd 7a9e 843e 2fc3 23be
00000140: 7f36 593e 1205 22be 2f76 0f3d 92aa cfbe
00000150: 6113 f6be 9542 e8be 51d7 05be 7db8 89bc
00000160: ff70 afbc 3113 673e 7f1f 4ebe c7a9 aabe
00000170: 515d 2fbe 826f e8be 4125 ec3d 86ef 063e
00000180: 78f2 2ebe ccb4 6fbc 5391 b8bd abb6 683e
00000190: 20d0 9fbe 5a9a bdbe 1cc6 6fbd ceb0 d83d
000001a0: dc91 acbe 9a09 1c3d 2c20 ddbe 9ea4 4d3e
000001b0: 5162 4b3e 5aa3 8bbe 7eb1 aa3c 0e31 d5be
000001c0: e7a2 1dbd 4898 39be d9cf f9bd bfaa 05bf
000001d0: 78ce e33e 5fd9 13be b001 0cbf 0536 793d
000001e0: fc3f 88be 22b5 acbd 1804 99be 466e 6abe
000001f0: 64c5 783e b815 8abd b1e4 60be 28e7 02bf
00000200: 5bed 9e3d 534d 303e 625c 92be 282d 79be
00000210: 5223 56bc 4220 903d 7e52 f13d 75a7 dabe
00000220: 3455 25bd 8a2f a0be 29dd 1abe 432c 82bd
00000230: fecf 3f3e 357a a2be c566 2fbe 072f c0bd
00000240: 8e42 0a3e 3165 8bbe b61b 873e a0c3 4dbd
00000250: 525f 243d 53a4 2bbe ac08 dbbe f34e 65be
00000260: 4c8c b4be 6405 24be aaba d4bc da79 72be
00000270: c372 75be 03fb e6be d490 01bf 68fd 06bf
00000280: 97ce d93e 3c7b 7fbe cac4 febb f51e 113b
00000290: 4738 cc3d 36c8 bb3e 3ec4 83be 061b 763d
000002a0: a91d 17bd 6e05 1abe 4f95 aebd f97d 6c3e
000002b0: 2bec 00bf 3051 45bd cf4c 853e 1da9 65be
000002c0: e69a ae3e a5d8 b3bd 0122 38bd c8be 643d
000002d0: 5de1 7abe ca26 58be d58d 04be 67cf 393e
000002e0: a5a8 15be 5969 b63e 02fb 963c ea73 923e
000002f0: 5cab 06bf d452 c4be 491f 09bf 6960 39be
00000300: 3b86 f5be 9822 93be 0c48 19be b195 a63d
00000310: 8e7e 93be 5419 0cbc dd16 b6be fa1f a2be
00000320: bac3 38be 8903 f6be 5581 ba3e 5a07 593e
00000330: 40ba 98be c1b3 3dbd dab0 44be fec1 e6be
00000340: 2cd8 b0bd 9c7f f43d 4f48 b9be a602 8ebe
00000350: 2a55 febe 6df4 1fbe 0c93 a0be 33d6 27be
00000360: 998e 4a3e dc64 12be 26fb d63c d1b6 d2bd
00000370: a30f b7be ec47 09bf a510 6f3e f169 20be
00000380: a4c1 0a3e 2913 0a3e 566c 8abe c118 1dbe
00000390: e044 27be 7cfa 4dbe 83a5 9abe 4ef5 b73d
000003a0: 8336 ad3e e99e d2be 7064 483e df2b 34bf
000003b0: c32f febd 8373 043c e8f7 423e 2dce 253e
000003c0: 82b3 80be c85f 9cbe 86b4 54bf ac06 91bd
000003d0: e0c1 8d3e 8991 413e c019 f0bc fdf1 3c3e
000003e0: e089 bfbe e75f 32be 92f2 d1bd 221d 00be
000003f0: 0a38 1c3c bfda b2bc f333 07bd 6908 55be

fc3.bias f4 [64]
0.63458824 -0.2625004 -0.18583503 -0.52521616 -0.46182182 -0.44032523 0.103577115 -0.3067988
-0.26461804 0.12500788 0.12551154 -0.7879758 -0.016786998 0.30435055 -0.51144326 -0.1983848
0.41720825 -0.7077781 -0.25673804 0.2783483 -0.52887547 -0.25333112 0.066322826 -0.27040374
-0.10167667 -0.3098263 -0.108565 -0.28332746 -0.7572224 0.5685518 -0.20417209 0.11629184
-0.31954375 -0.7443107 0.4081723 -0.33179727 -0.085711725 -0.52195007 -0.21286972 0.12089548
0.31723815 -0.7826654 -0.18494138 -0.6119519 -0.678176 0.16752274 0.06654375 0.3923578
-0.23680942 -0.012266957 -0.77067477 -0.19255315 -0.30763337 -0.04262239 -0.09265931 -0.20751767
-0.36262286 0.07451725 0.12848397 -0.73738086 -0.5040224 0.03531773 0.31945506 -0.14535157
00000000: 6074 223f 7466 86be 8a4b 3ebe 9174 06bf
00000010: e973 ecbe 4f72 e1be 3d20 d43d bb14 9dbe
00000020: 047c 87be 1102 003e 1986 003e c8b8 49bf
00000030: e384 89bc d6d3 9b3e f2ed 02bf 6325 4bbe
00000040: 529c d53e f230 35bf 2b73 83be ab83 8e3e
00000050: 6264 07bf 9eb4 81be 43d4 873d 5c72 8abe
00000060: dc3b d0bd 8ea1 9ebe 5457 debd 4c10 91be
00000070: 54d9 41bf 9c8c 113f 7d12 51be 6b2a ee3d
00000080: 3d9b a3be 258b 3ebf f6fb d03e 55e1 a9be
00000090: a189 afbd 859e 05bf 85fa 59be 0d98 f73d
000000a0: 0a6d a23e c25c 48bf 4661 3dbe e1a8 1cbf
000000b0: f19c 2dbf 158b 2b3e 1748 883d 1fe3 c83e
000000c0: 2b7e 72be 59fb 48bc f14a 45bf a72c 45be
000000d0: 1f82 9dbe d194 2ebd 2ac4 bdbd 837f 54be
000000e0: b4a9 b9be 809c 983d 4d91 033e fec4 3cbf
000000f0: 9d07 01bf 53a9 103d 9d8f a33e 0bd7 14be

fc4.weight f4 [1, 64]
-0.048105113 -0.020778343 -0.048007503 0.060014427 -0.07503917 0.26195332 -0.07830225 0.036643486
-0.035270814 0.0116513455 0.048540898 -0.09343041 -0.019332157 -0.01435366 -0.0391588 0.009369108
-0.030811427 -0.09358444 -0.060458984 -0.022676874 -0.02631346 0.062855236 -0.042992577 0.02038081
-0.042368814 -0.050830364 0.04378505 -0.029540708 -0.11155408 -0.025054887 0.051417947 0.016711328
0.026890447 0.055938464 -0.042182133 -0.026378697 0.025638022 -0.05368694 -0.03357888 0.023564856
0.02815206 -0.07927264 -0.018262092 -0.017605672 -0.054993987 0.06453716 0.025826044 0.02855033
-0.03628921 0.06352722 -0.09194362 0.031990282 -0.027820373 -0.027909813 -0.030154517 -0.042661414
-0.04825545 0.035098504 0.013868009 -0.042190373 -0.023205167 0.017599856 0.014411892 -0.04877227
00000000: de09 45bd 5837 aabc 84a3 44bd b0d1 753d
00000010: 23ae 99bd bf1e 863e ee5c a0bd 7b17 163d
00000020: 2178 10bd 49e5 3e3c d2d2 463d 7158 bfbd
00000030: 795e 9ebc 9d2b 6bbc fa64 20bd e380 193c
00000040: 3f68 fcbc 33a9 bfbd d7a3 77bd dac4 b9bc
00000050: 538f d7bc 3fba 803d fc18 30bd a8f5 a63c
00000060: ec8a 2dbd 8033 50bd f457 333d 5bff f1bc
00000070: 7776 e4bd e83f cdbc a09b 523d 32e6 883c
00000080: 5b49 dc3c bb1f 653d 2cc7 2cbd 2318 d8bc
00000090: d406 d23c d6e6 5bbd 028a 09bd 160b c13c
000000a0: 269f e63c b259 a2bd 629a 95bc c539 90bc
000000b0: 6041 61bd 0f2c 843d 2491 d33c 62e2 e93c
000000c0: ffa3 14bd 8f1a 823d f04c bcbd 3e08 033d
000000d0: 8de7 e3bc 1fa3 e4bc 9b06 f7bc bcbd 2ebd
000000e0: 82a7 45bd 73c3 0f3d a536 633c d0cf 2cbd
000000f0: c318 bebc 932d 903c db1f 6c3c 6fc5 47bd

bn1.weight f4 [256]
0.07751867 0.1149001 0.09296849 0.15517764 0.15576597 0.16947924 0.19827308 0.15398623
0.30394205 0.17656645 0.18918628 0.5495167 0.7340205 0.39048544 0.150106 0.20202307
0.23094955 0.20183426 0.8249778 0.11513187 0.62293273 0.32715857 1.0672456 0.21551557
0.13664214 0.1626633 0.21924616 0.08888628 0.1653427 0.18466991 -0.25256515 0.35053068
-0.18494542 0.117023155 1.2426604 0.22479008 0.20584092 0.20272778 0.152718 0.08710687
0.2031553 0.19062792 0.20972773 0.23805815 -0.10451937 0.15792906 0.11298705 0.1459472
0.4459267 0.1714318 0.11379721 0.29275975 0.25797412 0.23262608 1.1546389 0.1929854
0.15663682 0.15045556 0.37002274 0.29134354 0.15828063 0.053732816 0.2884536 0.20900618
0.44445783 0.15111493 0.35574263 0.15167002 0.21120082 0.30494437 0.17743605 -0.017131813
0.20617096 0.17786334 0.11672573 0.21865429 0.4342104 -0.12224289 0.36744043 0.1929259
0.19911961 0.18246593 0.18265606 0.11907717 0.15576766 0.13320553 0.187676 0.2911426
0.16853699 0.24014063 0.74182683 0.29099128 0.28745332 0.14085628 0.41616306 0.4013833
0.1365402 0.18186016 0.22784978 -0.19302852 0.3008458 -0.20146906 0.2457513 0.22029458
0.085602716 0.24058136 0.31259602 0.18981177 0.3782515 0.4175328 0.14105473 0.36246973
0.1954676 0.38996136 0.21895069 0.34799182 -0.17415582 0.19568162 0.28303012 0.29883865
0.21071301 -0.18354133 0.16259937 0.61893654 0.2967412 0.24928704 0.08390263 0.16879004
0.21254934 0.21399562 0.35800675 0.15886833 0.19492571 0.12557219 0.24310078 0.12866811
0.18919495 0.16909799 0.1522757 0.31117234 0.23052222 0.28327772 0.20673962 0.5324728
1.0378226 0.21427837 0.35212576 0.11849748 0.24394801 -0.48300624 0.008220088 0.1938673
0.22252771 0.20810305 0.17786092 0.2944114 0.45670795 0.12645231 0.2582724 0.45682937
1.2723454 0.70007795 0.14511016 0.16158487 0.15899214 0.18145032 0.28156078 0.4175129
0.31878215 -0.09601592 0.12327316 0.17650631 0.19128315 0.18295214 0.16108489 0.3080667
0.34039325 0.16998023 0.35628465 0.8346659 0.2044683 0.43516943 0.2499459 0.67368895
0.5710896 0.23702186 0.43644336 0.13638979 0.27205867 0.14462818 0.18305476 0.31667513
0.14631885 0.4647957 0.3600779 0.21194942 0.2272969 0.13451001 0.45243615 0.20593715
0.25763297 0.093339734 0.41827765 0.31178772 0.13308531 0.08101139 0.31098503 0.072517306
0.17213626 0.14228866 0.09366574 0.3092303 0.16868922 0.07936155 0.09776387 0.25908574
0.14040434 0.45327073 0.11915288 0.58784485 0.29202065 0.17806529 0.13037276 0.3488381
0.20065056 0.16776937 0.43361294 0.13738054 0.31019956 0.14561744 0.18641236 -0.13122019
0.21690601 0.29181483 -0.21740414 0.4693402 0.36659002 0.598484 0.19456244 0.18443671
0.7970666 0.18471496 0.11895731 0.1473105 0.46065885 -0.0015459438 0.12451703 0.1846698
0.31444937 0.23745412 0.22740407 0.06532168 0.28518784 0.04410605 0.16929284 0.50869817
00000000: 1cc2 9e3d be50 eb3d 4466 be3d e3e6 1e3e
00000010: 1d81 1f3e f78b 2d3e 1908 4b3e 91ae 1d3e
00000020: 4b9e 9b3e d6cd 343e 0cba 413e 20ad 0c3f
00000030: c4e8 3b3f b5ed c73e 63b5 193e 23df 4e3e
00000040: 0a7e 6c3e a4ad 4e3e bf31 533f 42ca eb3d
00000050: 8578 1f3f 5481 a73e 819b 883f 1db0 5c3e
00000060: ebeb 0b3e 3591 263e 1182 603e 030a b63d
00000070: 994f 293e 1c1a 3d3e 3850 81be c278 b33e
00000080: 5562 3dbe d6a9 ef3d 7f0f 9f3f 5f2f 663e
00000090: f6c7 523e df97 4f3e 1b62 1c3e 1665 b23d
000000a0: f107 503e f733 433e dec2 563e 84c5 733e
000000b0: 400e d6bd 28b8 213e c165 e73d 2f73 153e
000000c0: 8150 e43e d18b 2f3e 830e e93d 9be4 953e
000000d0: 2f15 843e 8835 6e3e 35cb 933f f79d 453e
000000e0: 6765 203e 0611 1a3e 9f73 bd3e fb2a 953e
000000f0: 5114 223e f116 5c3d 31b0 933e b705 563e
00000100: fa8f e33e dfbd 1a3e e623 b63e 634f 1b3e
00000110: 0745 583e ab21 9c3e ccb1 353e 0458 8cbc
00000120: 7b1e 533e cf21 363e e60d ef3d e9e6 5f3e
00000130: d350 de3e 7b5a fabd 2721 bc3e 5e8e 453e
00000140: 03e6 4b3e 59d8 3a3e 310a 3b3e bbde f33d
00000150: 8f81 1f3e 0867 083e 232e 403e a510 953e
00000160: f694 2c3e 6de7 753e 5de8 3d3f cffc 943e
00000170: 152d 933e a13c 103e 5313 d53e 1d82 cd3e
00000180: 32d1 0b3e 8d39 3a3e 7451 693e 45a9 45be
00000190: 7608 9a3e e84d 4ebe 3ba6 7b3e e794 613e
000001a0: 7a50 af3d f65a 763e 960c a03e 045e 423e
000001b0: 2eaa c13e dcc6 d53e a770 103e a295 b93e
000001c0: a928 483e 04a9 c73e 9c34 603e fc2b b23e
000001d0: e755 32be c360 483e 53e9 903e 6101 993e
000001e0: 27c5 573e 42f2 3bbe 7380 263e a072 1e3f
000001f0: 76ee 973e 1a45 7f3e 24d5 ab3d 4cd7 2c3e
00000200: 89a6 593e ab21 5b3e a94c b73e 61ae 223e
00000210: 9b9a 473e ff95 003e 69ef 783e 93c1 033e
00000220: 52bc 413e 0628 2d3e 29ee 1b3e fb51 9f3e
00000230: 040e 6c3e c709 913e 8db3 533e 2350 083f
00000240: 5fd7 843f ca6b 5b3e d449 b43e cfae f23d
00000250: 82cd 793e 984c f7be 8cad 063c 2685 463e
00000260: 4ede 633e f718 553e 2c21 363e 17bd 963e
00000270: a0d5 e93e b77c 013e 483c 843e 8ae5 e93e
00000280: 37dc a23f 4f38 333f c297 143e 8176 253e
00000290: d6ce 223e 1dce 393e bc28 903e 40c4 d53e
000002a0: 6a37 a33e ffa3 c4bd a376 fc3d 12be 343e
000002b0: bbdf 433e ce57 3b3e 70f3 243e ebba 9d3e
000002c0: 0648 ae3e 4c0f 2e3e f16a b63e aaac 553f
000002d0: 2360 513e 87ce de3e d1f1 7f3e e176 2c3f
000002e0: ee32 123f dcb5 723e 8175 df3e c4a9 0b3e
000002f0: 464b 8b3e 6919 143e b572 3b3e 3e23 a23e
00000300: 9cd4 153e b4f9 ed3e 215c b83e 4509 593e
00000310: 85c0 683e febc 093e b6a5 e73e 30e1 523e
00000320: 78e8 833e e728 bf3d 7d28 d63e a4a2 9f3e
00000330: 8447 083e 4de9 a53d 6e39 9f3e f483 943d
00000340: 7d44 303e 1eb4 113e d3d3 bf3d 6f53 9e3e
00000350: debc 2c3e 4f88 a23d 6d38 c83d e3a6 843e
00000360: 28c6 0f3e 1a13 e83e 6d06 f43d 007d 163f
00000370: bb83 953e bf56 363e 7080 053e e89a b23e
00000380: 5777 4d3e bccb 2b3e 8402 de3e 7cad 0c3e
00000390: 7ad2 9e3e bd1c 153e e2e2 3e3e 965e 06be
000003a0: 9c1c 5e3e c168 953e 319f 5ebe 5c4d f03e
000003b0: b0b1 bb3e 3f36 193f 603b 473e fadc 3c3e
000003c0: 8f0c 4c3f eb25 3d3e e49f f33d 90d8 163e
000003d0: 7adb eb3e 44a1 caba c902 ff3d 141a 3d3e
000003e0: 82ff a03e 2c27 733e 9ddc 683e 5fc7 853d
000003f0: 2404 923e 8ca8 343d 1a5b 2d3e 0b3a 023f

bn1.bias f4 [256]
0.0029767805 0.005865425 0.016914885 0.055112954 -0.04298831 0.026541006 0.0067839646 0.05722593
0.17399961 0.03266117 0.0690003 0.1680575 0.10446842 0.22641967 -0.01874289 0.07411876
0.040660005 0.07718093 0.20050615 -0.005350608 0.2412232 0.11549119 0.45109564 0.17361097
0.006600021 0.07284419 0.08034231 -0.009460967 0.036381193 0.06486186 -0.064946875 0.07129073
0.0009237369 0.00045679347 -0.01414665 0.07930032 0.04509674 0.044130936 -0.06597576 -0.028365895
0.05368817 0.025897114 0.11828655 0.007689424 0.0350163 -0.010878045 0.021344144 0.030267993
0.01915682 0.039881293 0.020046882 0.08493445 0.058732085 -0.015954405 0.23082325 0.051674303
0.025321977 0.031281553 0.09940176 -0.0024755867 -0.09379712 0.010266201 0.10172962 0.046575934
0.23352404 0.033816285 0.09979473 0.034894124 0.013585164 0.17842062 0.04367552 -0.0029348563
-0.016693741 0.059228342 0.026727537 0.024515798 -0.00924033 -0.0072474377 0.11507432 -0.031081462
0.04344949 0.062129933 0.031013519 0.032638263 -0.017325174 0.042375714 0.048007842 0.0003310264
-0.01838994 0.042005397 0.61136276 0.05077884 0.038170755 0.036956534 0.20454223 -0.0030818274
0.027839761 0.077316865 0.13371944 -0.039303016 0.09903346 0.034505673 0.03188953 -0.26806766
0.015364132 0.023108529 -0.08728697 0.027730169 0.1903285 0.074654095 0.019642895 0.12789446
0.02754736 0.20545754 0.0691338 0.18615839 -0.100495584 0.072020665 -0.011101079 0.13442843
0.031356033 -0.07271209 0.04768694 0.28734595 0.1693319 0.11530317 0.024710344 0.06227693
0.031035295 0.033607587 0.20781326 0.01095614 0.043509234 0.011364074 0.042456523 -0.0013472185
0.034950756 0.05029579 0.047023136 0.15409325 0.061409447 0.14629282 0.07593011 0.41715613
-0.16724065 0.08967554 0.19763157 -0.044635464 0.07533177 -0.25786522 0.002016227 0.04249422
0.046532158 0.042306624 0.024919813 0.09269903 0.0297557 0.030958813 0.05567803 0.21609616
0.3354612 0.08629408 0.009808769 0.024038896 0.04638211 0.038356747 -0.033457495 0.09439298
0.084578276 -0.069928154 -0.025954315 0.0851063 0.08808475 0.024903078 -0.12028686 0.15088014
0.06804052 0.013373655 0.21241249 0.5051958 0.025906015 0.13275476 0.13938494 0.32211357
0.122218125 0.075517505 0.17786916 0.020994859 0.03147725 0.027339838 -0.050516594 0.14664039
-0.026500033 0.15355644 0.10605161 -0.021814346 0.07524386 0.02328757 0.2769012 0.07723486
0.053646002 -0.0014565669 0.17776746 0.14958109 0.024573488 0.027016155 -0.0018992091 0.0039064693
0.051708657 -0.02869399 0.015617971 0.099450365 0.064630724 -0.016219327 -0.006326548 0.10747169
0.03876003 0.28285426 0.019016385 0.36389706 0.054700073 -0.0067431713 0.03355846 0.1003485
0.041167013 0.036464807 -0.27022347 0.049666807 0.10276398 0.009002593 0.025810609 -0.0040879
0.057256743 0.22469446 -0.16844311 0.29599229 -0.13282225 0.24997479 0.011383749 0.043115728
0.34874067 0.029026592 -0.01013093 0.015628282 0.09578738 -0.00048083463 -0.012121715 0.02618301
0.07755731 0.025711665 0.056561686 0.032783013 0.08450941 0.012525992 0.09296021 0.31084138
00000000: 1716 433b c032 c03b 1691 8a3c 1fbe 613d
00000010: 8314 30bd 866c d93c 054c de3b bd65 6a3d
00000020: f42c 323e b8c7 053d 0750 8d3d 4417 2c3e
00000030: 8af3 d53d 8fda 673e b08a 99bc 94cb 973d
00000040: 1b8b 263d 0911 9e3d 7c51 4d3e 2754 afbb
00000050: 3703 773e a586 ec3d 02f6 e63e 13c7 313e
00000060: fd44 d83b 562f 953d 828a a43d 2c02 1bbc
00000070: 7204 153d 4bd6 843d de02 85bd e000 923d
00000080: ef26 723a c87d ef39 5ac7 67bc 3568 a23d
00000090: 5cb7 383d a4c2 343d 4d1e 87bd 985f e8bc
000000a0: 20e8 5b3d 2f26 d43c 3840 f23d 90f7 fb3b
000000b0: 406d 0f3d d439 32bc ead9 ae3c 95f4 f73c
000000c0: c3ee 9c3c 915a 233d 5c39 a43c 1df2 ad3d
000000d0: 0e91 703d d0b2 82bc ee5c 6c3e 6fa8 533d
000000e0: 0970 cf3c 1621 003d 2693 cb3d 743d 22bb
000000f0: b418 c0bd 9133 283c 9e57 d03d 68c6 3e3d
00000100: ed20 6f3e f282 0a3d 2e61 cc3d 24ed 0e3d
00000110: 4f94 5e3c e5b3 363e 1ae5 323d b856 40bb
00000120: 50c1 88bc 6b99 723d b5f3 da3c 5bd5 c83c
00000130: c164 17bc ea7b edbb 16ac eb3d 8d9e febc
00000140: 18f8 313d f57b 7e3d 1010 fe3c b3af 053d
00000150: 86ed 8dbc 2892 2d3d dfa3 443d 9c8d ad39
00000160: 80a6 96bc da0d 2c3d 4582 1c3f 79fd 4f3d
00000170: f058 1c3d bc5f 173d 8573 513e 7cf8 49bb
00000180: 3610 e43c 4e58 9e3d c0ed 083e 33fc 20bd
00000190: 0ed2 ca3d d255 0d3d 999e 023d 2a40 89be
000001a0: d7b9 7b3c 194e bd3c 83c3 b2bd 612a e33c
000001b0: 79e5 423e 3fe4 983d 23ea a03c c4f6 023e
000001c0: 00ab e13c 7663 523e 0696 8d3d 4ea0 3e3e
000001d0: a1d0 cdbd 927f 933d 4de1 35bc 9ba7 093e
000001e0: 2f6f 003d 14ea 94bd 6153 433d 021f 933e
000001f0: 5765 2d3e 1224 ec3d 596d ca3c 1816 7f3d
00000200: bb3d fe3c 1ca8 093d 00cd 543e 6281 333c
00000210: bd36 323d 6230 3a3c e4e6 2d3d 2795 b0ba
00000220: 8628 0f3d f502 4e3d 559b 403d 9fca 1d3e
00000230: 7988 7b3d c9cd 153e 3f81 9b3d 7d95 d53e
00000240: 2241 2bbe cfa7 b73d ee5f 4a3e add3 36bd
00000250: 8b47 9a3d e906 84be ad22 043b 6b0e 2e3d
00000260: 8198 3e3d b649 2d3d a324 cc3c fdd8 bd3d
00000270: 3ac2 f33c 569d fd3c a50e 643d 5048 5d3e
00000280: 92c1 ab3e f3ba b03d f6b4 203c 38ed c43c
00000290: 2bfb 3d3d f71b 1d3d ba0a 09bd 1b51 c13d
000002a0: 6037 ad3d 7e36 8fbd 259e d4bc 364c ae3d
000002b0: c765 b43d 8a01 cc3c f558 f6bd 5380 1a3e
000002c0: d458 8b3d 2d1d 5b3c a982 593e 8354 013f
000002d0: da38 d43c ddf0 073e edba 0e3e 12ec a43e
000002e0: 7f4d fa3d eca8 9a3d 5523 363e 69fd ab3c
000002f0: 4aee 003d ccf7 df3c 7dea 4ebd e628 163e
00000300: 9916 d9bc e63d 1d3e 9631 d93d 00b4 b2bc
00000310: 7419 9a3d 93c5 be3c fec5 8d3e 4f2d 9e3d
00000320: e9bb 5b3d 46ea beba ac08 363e c92b 193e
00000330: 574e c93c fc50 dd3c e2ee f8ba d701 803b
00000340: 75cc 533d a90f ebbc 85e2 7f3c a2ac cb3d
00000350: 1d5d 843d 65de 84bc ee4e cfbb 1e1a dc3d
00000360: d6c2 1e3d 46d2 903e 40c8 9b3c b750 ba3e
00000370: 2f0d 603d d2f5 dcbb 9974 093d 8483 cd3d
00000380: be9e 283d 1f5c 153d bb5a 8abe 6c6f 4b3d
00000390: ec75 d23d 9d7f 133c c570 d33c caf3 85bb
000003a0: 0c86 6a3d 4e16 663e 5a7c 2cbe 4d8c 973e
000003b0: 8e02 08be 64f9 7f3e e782 3a3c 1e9a 303d
000003c0: 238e b23e 2dc9 ed3c 33fc 25bc e206 803c
000003d0: 2d2c c43d 8818 fcb9 289a 46bc c07d d63c
000003e0: 5ed6 9e3d 45a1 d23c 3aad 673d 7b47 063d
000003f0: 4513 ad3d d139 4d3c ec61 be3d 9a26 9f3e

bn1.running_mean f4 [256]
1.1549252 1.777476 4.2668805 5.322436 0.84086883 0.7429249 0.18251735 1.4623243
7.2344832 1.9765358 1.4976972 1.108689 2.4185438 2.8489933 5.996061 3.9663303
1.6684389 0.6764311 0.40843508 0.8764801 4.581519 3.0691302 27.050327 5.2946553
1.210285 5.842635 4.6312943 1.1381946 1.7453492 3.2857728 4.1583295 0.56142884
2.445897 4.7483892 3.179867 0.43653703 1.5791945 3.8222823 9.494315 8.112332
0.6115246 1.4535333 7.22474 18.527365 0.11679127 1.4879605 8.070112 4.5487638
8.896911 1.718438 0.46597338 3.8386686 3.013224 3.820362 27.810574 0.32651392
0.9411172 0.8803079 1.9659835 6.37166 6.6684017 12.991485 1.6517256 0.39030635
2.329037 0.63513184 11.325027 0.60059494 6.281234 7.2533345 1.142568 13.725733
2.7821345 2.5558178 4.267501 1.4419188 2.5321307 0.03998788 0.68225884 2.3819988
0.66513705 3.2319632 1.7891146 4.610415 2.3077662 4.8656335 1.7071679 1.3581511
4.938616 2.6667492 6.505246 1.7355841 0.9354724 5.427782 6.076306 1.5714105
3.6160731 10.743791 9.178411 1.7468089 1.1480244 3.05684 0.25515538 15.003008
-0.16733423 3.704164 5.1064277 1.5909942 9.738849 1.2845452 0.46838304 2.320023
1.7148772 2.7436025 4.085452 4.990285 0.510214 4.159256 4.198932 2.226138
1.1716837 3.413325 0.81751055 10.97811 4.883362 1.7024169 -0.0053409426 1.1457015
3.5399044 0.5306546 6.1990185 2.1745932 0.24422693 2.1516838 0.34916598 3.1659596
1.419079 1.1792128 1.4854089 2.283706 2.0330367 8.599518 2.0770373 6.3032584
28.677498 4.7840767 5.191818 3.0115528 5.78255 6.8307724 1.9851091 1.4669217
0.21779716 1.4450312 1.9099331 3.1802485 3.688891 1.5716558 0.95202357 1.7930585
50.88101 8.320918 0.41582406 4.3200617 6.9308934 0.3187268 1.3931495 16.017647
3.0869896 18.480967 7.185994 4.5081315 9.297406 3.310244 2.6053967 6.220334
3.245908 0.5380585 5.825033 1.372398 1.2879765 2.6391573 3.2387831 1.3972201
8.331312 1.4685256 1.03065 14.521504 0.6599254 0.5224228 0.7555651 4.2016535
1.9120604 8.954592 2.0018833 5.429121 5.0125237 0.8193063 2.6315935 3.5955613
1.9941167 0.65812945 3.609301 2.8259292 3.654995 4.1412888 2.346956 8.219355
2.0830631 6.267687 7.4903936 -0.012031269 6.2252936 2.6470902 0.2564321 0.6434503
11.461577 6.4026837 5.400064 2.3252034 2.757863 5.972101 9.422359 2.108617
2.2155185 6.9944363 30.133757 3.0422685 3.8309052 1.9781475 1.5185841 3.0052469
1.1207203 3.7245727 9.824923 5.1770005 25.530504 2.6988897 1.2505531 0.3669476
3.1647267 0.29576206 0.8477317 0.3153035 0.3065211 24.87913 2.0132678 2.9364903
3.572684 4.479622 3.1056278 1.6544731 2.0042653 5.1046567 10.921418 6.039399
00000000: 97d4 933f 5584 e33f 498a 8840 6551 aa40
00000010: 2e43 573f 5430 3e3f d4e5 3a3e 712d bb3f
00000020: e380 e740 20ff fc3f 8bb4 bf3f 85e9 8d3f
00000030: 6cc9 1a40 e855 3640 bbdf bf40 5bd8 7d40
00000040: 688f d53f 972a 2d3f 671e d13e 0061 603f
00000050: ce9b 9240 a16c 4440 1267 d841 d16d a940
00000060: 9eea 9a3f def6 ba40 9033 9440 5cb0 913f
00000070: 9a67 df3f 1a4a 5240 0911 8540 cdb9 0f3f
00000080: 9489 1c40 cef2 9740 f182 4b40 c881 df3e
00000090: 0c23 ca3f 46a0 7440 b7e8 1741 1dcc 0141
000000a0: e08c 1c3f 610d ba3f 1231 e740 0b38 9441
000000b0: 4330 ef3d 7d75 be3f 2e1f 0141 798f 9140
000000c0: bf59 0e41 c7f5 db3f 1094 ee3e bfac 7540
000000d0: a9d8 4040 d080 7440 0e7c de41 d52c a73e
000000e0: 0fed 703f dc5b 613f 59a5 fb3f a4e4 cb40
000000f0: 8c63 d540 1fdd 4f41 bf6b d33f 3cd6 c73e
00000100: f10e 1540 0098 223f 5033 3541 97c0 193f
00000110: deff c840 511b e840 ab3f 923f 9a9c 5b41
00000120: 7e0e 3240 8592 2340 5e8f 8840 cc90 b83f
00000130: 6e0e 2240 55ca 233d 84a8 2e3f ab72 1840
00000140: 6c46 2a3f 7cd8 4e40 b501 e53f 8588 9340
00000150: 71b2 1340 45b3 9b40 7a84 da3f e5d7 ad3f
00000160: 2409 9e40 05ac 2a40 fa2a d040 9f27 de3f
00000170: 1f7b 6f3f 64b0 ad40 1971 c240 fb23 c93f
00000180: be6d 6740 91e6 2b41 c5da 1241 6f97 df3f
00000190: 77f2 923f 44a3 4340 baa3 823e 520c 7041
000001a0: aa59 2bbe 0611 6d40 db67 a340 b3a5 cb3f
000001b0: 53d2 1b41 fa6b a43f e7cf ef3e 427b 1440
000001c0: 1981 db3f 2f97 2f40 06bc 8240 6ab0 9f40
000001d0: 629d 023f a018 8540 a75d 8640 0c79 0e40
000001e0: bbf9 953f eb73 5a40 5f48 513f 57a6 2f41
000001f0: 8044 9c40 cce8 d93f 1303 afbb 59a6 923f
00000200: cb8d 6240 fbd8 073f 5c5e c640 892c 0b40
00000210: a016 7a3e 30b5 0940 e2c5 b23e 159f 4a40
00000220: 61a4 b53f 72f0 963f e121 be3f 3d28 1240
00000230: 461d 0240 a097 0941 2eee 0440 4bb4 c940
00000240: 846b e541 2817 9940 6023 a640 48bd 4040
00000250: a60a b940 b095 da40 0e18 fe3f 17c4 bb3f
00000260: 3806 5f3e c8f6 b83f b078 f43f 3189 4b40
00000270: ca16 6c40 042c c93f d1b7 733f f182 e53f
00000280: 2786 4b42 7b22 0541 e4e6 d43e f23d 8a40
00000290: e1c9 dd40 2930 a33e b952 b23f 2424 8041
000002a0: 3d91 4540 05d9 9341 aaf3 e540 9d42 9040
000002b0: 2dc2 1441 0adb 5340 d2be 2640 fa0c c740
000002c0: f5bc 4f40 34be 093f ac66 ba40 bdaa af3f
000002d0: 6adc a43f f4e7 2840 3948 4f40 1cd8 b23f
000002e0: 0e4d 0541 a6f8 bb3f 57ec 833f 1558 6841
000002f0: dff0 283f 80bd 053f b76c 413f f273 8640
00000300: 65be f43f 0246 0f41 db1e 0040 5cbb ad40
00000310: 9866 a040 0fbe 513f 076c 2840 ad1d 6640
00000320: 373f ff3f 2c7b 283f cafe 6640 06dc 3440
00000330: 70eb 6940 7085 8440 8734 1640 7a82 0341
00000340: e850 0540 e490 c840 4eb1 ef40 cd1e 45bc
00000350: 9b35 c740 ed69 2940 114b 833e 29b9 243f
00000360: 9f62 3741 c9e2 cc40 53cd ac40 22d0 1440
00000370: d480 3040 741b bf40 fcc1 1641 95f3 0640
00000380: 0ecb 0d40 6cd2 df40 ef11 f141 87b4 4240
00000390: 8d2d 7540 f033 fd3f f760 c23f f755 4040
000003a0: c373 8f3f 665f 6e40 e232 1d41 fda9 a540
000003b0: 793e cc41 9cba 2c40 2012 a03f 8ee0 bb3e
000003c0: e28a 4a40 206e 973e f204 593f 766f a13e
000003d0: 55f0 9c3e 7508 c741 61d9 0040 75ef 3b40
000003e0: dba6 6440 1059 8f40 9bc2 4640 c6c5 d33f
000003f0: e245 0040 5959 a340 21be 2e41 c242 c140
