checkpoint_critic_1.pth (torch_old, 224905 bytes, 11 tensors)

fc1.weight f4 [256, 52]
0	0x3eeefeee	0.4667887
1	0xbe328df9	-0.17436971
2	0x3cb293ac	0.021798931
3	0x3d44d4b9	0.04805443
4	0x3e086f63	0.1332374
5	0xbf651172	-0.89479744
6	0x3d59fbec	0.053218767
7	0x3d31f280	0.043444157
8	0x3c98a2e2	0.018632356
9	0xbf0c6a52	-0.5484973
10	0xbeb0f979	-0.34565333
11	0xbe2ba2e5	-0.16761358
12	0x3e859eb0	0.2609763
13	0xbed6e964	-0.41974938
14	0xbe9be638	-0.3044908
15	0xbe417fed	-0.18896456
16	0xbdbe7235	-0.09299127
17	0xbf3ccbd5	-0.73748523
18	0xbdc83c32	-0.09777106
19	0x3e674024	0.22583061
20	0x3ee23249	0.4417899
21	0xbe28f583	-0.16499905
22	0xbd8a8a03	-0.06764605
23	0x3e342fcf	0.17596363
24	0x3f3ba5b8	0.7329974
25	0xbfb9f18c	-1.4526839
26	0xbe23865b	-0.15969221
27	0x3e3a3e19	0.18187751
28	0xbdea814c	-0.11450443
29	0xbf525f8c	-0.8217704
30	0xbe28123b	-0.16413204
31	0x3e43fdf3	0.19139843
32	0x3f1700e0	0.5898571
33	0xbfea2841	-1.8293535
34	0xbd8e6719	-0.06953258
35	0x3d3a7144	0.045518175
36	0xbea5ea46	-0.324053
37	0xbee441f5	-0.4458157
38	0xbd3bb5d7	-0.045827713
39	0x3d85cee0	0.06533599
40	0x3ef7e46a	0.48416454
41	0xbff49d5b	-1.9110521
42	0xbe0f8c3e	-0.14018342
43	0x3e9363a7	0.28786966
44	0xbebe4fc9	-0.37170246
45	0xbe1d4b58	-0.15360773
46	0xbe2f7d37	-0.1713761
47	0x3e6cba2d	0.23117895
48	0xbf31270c	-0.69200206
49	0x3f51cdf3	0.8195488
50	0x3f8c9296	1.0982234
51	0xbea0b833	-0.31390533
52	0x3e5491f0	0.20758796
53	0x3f4d4bd0	0.80193806
54	0x3ccbc28a	0.024873037
55	0xbd0d5439	-0.03450415
56	0xbee3fb14	-0.44527495
57	0xbfa76eb5	-1.308066
58	0xbcf57171	-0.02996132
59	0xbc876acd	-0.016530419
60	0x3ece127d	0.4024848
61	0x3f2dc877	0.6788401
62	0xbd0b719e	-0.0340439
63	0x3e991423	0.29898176
64	0xbf061095	-0.5236905
65	0xbed9fecc	-0.42577207
66	0xbbbf6b91	-0.0058416803
67	0x3e756c40	0.23967075
68	0x3f666259	0.89993817
69	0x3f157aec	0.5839069
70	0x3c000e38	0.00781589
71	0xbe41bfbc	-0.18920797
72	0xbf2c4e42	-0.6730691
73	0x3f64280e	0.8912362
74	0xbc82246b	-0.015886506
75	0xbd9b685c	-0.07588264
76	0x3d85fa2e	0.065418586
77	0x3dca6351	0.09882224
78	0xbbf010d0	-0.007326223
79	0x3d67f7d3	0.056632828
80	0x3eb67f2f	0.35643908
81	0xbfa5ee98	-1.2963438
82	0xbc7e56f5	-0.015523662
83	0x3dc7ffb0	0.097655654
84	0xbdb2ff78	-0.08740133
85	0xbe2a87bd	-0.16653343
86	0xbc824522	-0.015902106
87	0x3c1ee0d7	0.009697161
88	0x3f049533	0.5179016
89	0xbee1ea9b	-0.44124302
90	0x3cef57be	0.029216643
91	0xbcd0c4d7	-0.025484486
92	0xbdaeb6c6	-0.08530955
93	0xbe7bee46	-0.24602613
94	0xbcdc545a	-0.02689569
95	0xbe2161c0	-0.15759945
96	0x3f18809d	0.5957125
97	0x3f5fc220	0.87405586
98	0x3cdd1774	0.026988722
99	0xbda02f32	-0.07821502
100	0x402246f0	2.5355797
101	0x3d81bbd4	0.063346535
102	0x3f4af332	0.79277337
103	0x3f396ca0	0.72431374
104	0xbedb4f73	-0.42834052
105	0xbebb959a	-0.36637574
106	0x3d35bb97	0.044368353
107	0x3c20ff49	0.00982649
108	0x3e785f53	0.24255113
109	0x3e201196	0.15631709
110	0x3cc31b23	0.02381665
111	0xbda63e72	-0.08117379
112	0xbc5f8268	-0.013641931
113	0xbf1ffe58	-0.6249747
114	0xbd400a4f	-0.04688483
115	0xbdcccc15	-0.09999863
116	0x3eaee0ca	0.34155875
117	0xbe677c3c	-0.22605985
118	0xbd039d0d	-0.032132197
119	0xbde38473	-0.11109247
120	0x3ec7b744	0.39007008
121	0xbf0bde3c	-0.5463598
122	0x3dc78046	0.09741263
123	0x3d81f15c	0.06344864
124	0x3db13db1	0.08654345
125	0xbf20bbf7	-0.6278681
126	0x3db280f8	0.08716005
127	0x3e342f08	0.17596066
128	0x3e2b2d58	0.16716516
129	0x3e9cc627	0.30619928
130	0xbad98bab	-0.001659741
131	0x3eecf571	0.46281007
132	0xbe5cfb5e	-0.21580264
133	0x3e6bc9ed	0.23026247
134	0xbb9836eb	-0.0046452186
135	0x3ed3ab31	0.41341546
136	0x3e9ff0dd	0.31238452
137	0x3f0968e5	0.5367568
138	0x3d992ca7	0.0747922
139	0x3f5e1142	0.86745083
140	0xbea50624	-0.32231247
141	0xbe9b9e4c	-0.30394208
142	0x3ba5dd3e	0.0050617745
143	0x3f43eeec	0.7653644
144	0x3efeec0a	0.4978946
145	0x3f5a3cbc	0.85248923
146	0x3e10bab5	0.14133723
147	0xbe2000fc	-0.15625376
148	0xbdb98597	-0.09058683
149	0xbf2383d9	-0.6387306
150	0x3e09f5d6	0.13472685
151	0xbd458397	-0.048221197
152	0x401c5b7a	2.4430833
153	0xbebd43b0	-0.36965704
154	0x4084efd9	4.1542783
155	0x3e929856	0.28631848
156	0xbd5a9fba	-0.053374983
157	0x3fbc8797	1.4728879
158	0xbe19cee3	-0.15020327
159	0x3f0d4b58	0.5519309
160	0x3e6ecaec	0.23319596
161	0x3ef0fe36	0.47068948
162	0xbdc4952c	-0.09598765
163	0x3eec325e	0.46132177
164	0x3db15689	0.086590834
165	0x3fd394a9	1.6529742
166	0xbe28de38	-0.1649102
167	0x3e88c5f0	0.26713514
168	0x3d7f12d6	0.062273823
169	0x3e0752c8	0.13215172
170	0xbd9f5292	-0.07779421
171	0x3e7b03bc	0.24513143
172	0x3eccdd6f	0.4001269
173	0x3fe61edc	1.7978168
174	0x3e76737d	0.24067493
175	0xbeaf445d	-0.34231845
176	0xbcfc0202	-0.030762676
177	0xbb3e2652	-0.002901454
178	0x3e7baa13	0.24576597
179	0xbea5054d	-0.32230607
180	0xbe701b11	-0.23447825
181	0xbec693b0	-0.38784552
182	0xbe0be96f	-0.13663267
183	0x3da1ce68	0.07900697
184	0xbe5b1288	-0.21393788
185	0x3ef34447	0.4751303
186	0xbe0bb836	-0.1364449
187	0x3dbe190e	0.092821226
188	0xbe46a6e2	-0.19399598
189	0xbe2196b8	-0.15780151
190	0xbc4aabb9	-0.012370043
191	0x3e8d98c4	0.27655613
192	0xbe198e4b	-0.14995687
193	0x3d513564	0.051076308
194	0xbdfc8b53	-0.123312615
195	0x3e9573e9	0.29189995
196	0xbe92525e	-0.28578466
197	0x3dab5f80	0.083678246
198	0xbe42da44	-0.19028574
199	0x3f5d2365	0.8638213
200	0x3df90770	0.12159622
201	0x3d80aa0e	0.06282435
202	0xbe4b5d0a	-0.1985971
203	0x3f4b0e8e	0.79319084
204	0x3ec00181	0.37501147
205	0x3f6fb4d6	0.9363531
206	0xc01c0636	-2.437879
207	0xbf615944	-0.88026834
208	0xbf03f6cf	-0.51548475
209	0xbf19f915	-0.60145694
210	0xbc3acd67	-0.011401511
211	0xbd896e99	-0.06710548
212	0x3f0ed8f1	0.55799776
213	0xbe3dc925	-0.18533762
214	0xbd352ceb	-0.04423229
215	0xbcc30d2f	-0.023809997
216	0xbeba13dd	-0.3634328
217	0xbf0dc17d	-0.55373365
218	0xbc254efc	-0.010089632
219	0x3ef07ae4	0.46968758
220	0x3ea512b2	0.32240826
221	0xbf5494b0	-0.8303938
222	0x3ced56aa	0.028971989
223	0x3eeee75b	0.46660885
224	0x3d157be1	0.036495093
225	0xbea79364	-0.32729638
226	0xbcbaae45	-0.022788176
227	0x3ebde7da	0.3709095
228	0xbd56de34	-0.052458003
229	0xbfd502dc	-1.6641498
230	0xbd037c5b	-0.032101016
231	0x3eaefc16	0.341767
232	0xbd9131dc	-0.07089588
233	0x3f2d5f69	0.6772371
234	0xbd6ff3e6	-0.05858221
235	0xbd4d0581	-0.050054077
236	0xbf028295	-0.509805
237	0xbe5072b9	-0.20356263
238	0xbd7ec033	-0.062195014
239	0xbd8c4dec	-0.068508
240	0xbe4aebe8	-0.19816554
241	0x3f44318b	0.76638097
242	0xbdace67b	-0.08442398
243	0x3f24717a	0.6423565
244	0xbe91cb0e	-0.2847523
245	0xbf54983f	-0.8304481
246	0xbd439457	-0.04774889
247	0x3f25e44d	0.64801484
248	0xbec19f61	-0.3781691
249	0x3f885d6d	1.0653511
250	0xbe5cb05d	-0.21551652
251	0x3e34c30e	0.17652532
252	0x3d01f06f	0.031723436
253	0xbfddcbaf	-1.7327784
254	0xbe4ba263	-0.19886164
255	0x3e6758d7	0.22592483

fc1.bias f4 [256]
0	0xbf322a96	-0.6959623
1	0xbf801b59	-1.0008346
2	0xbef777bc	-0.48333538
3	0xbf2d5595	-0.6770871
4	0xbf102eb0	-0.5632124
5	0x3e0ec12a	0.13940874
6	0xbf923c01	-1.1424562
7	0xbf4cea21	-0.8004475
8	0xbfaad360	-1.3345757
9	0xbf9e87ae	-1.2385156
10	0xbdabd239	-0.08389706
11	0x3dcc4410	0.099739194
12	0xbf71a982	-0.94399273
13	0xbecd8af7	-0.40145084
14	0x3c570733	0.013124275
15	0xbef50b70	-0.4786029
16	0xbf8edacd	-1.1160523
17	0xbf69412b	-0.91115063
18	0x3ec052bf	0.3756313
19	0x3ed398ec	0.41327608
20	0xbfb310f1	-1.3989545
21	0x3e038077	0.12841974
22	0xbfd6ed52	-1.6791174
23	0xbe7a4e9c	-0.2444405
24	0xbf2ef771	-0.68346316
25	0x3bb1ff7a	0.0054320665
26	0xbf26e399	-0.65191036
27	0xbe8579df	-0.26069543
28	0xbe0fef68	-0.1405617
29	0xbee8a2ff	-0.45436856
30	0xbecf6753	-0.40508518
31	0xbe3368bc	-0.17520422
32	0xbef38a9d	-0.4756669
33	0xbe806913	-0.25080165
34	0xbed5e450	-0.4177575
35	0xbf41a458	-0.75641394
36	0xbf83e8ae	-1.0305383
37	0xbf80bea7	-1.0058182
38	0xbedc361b	-0.4301003
39	0xbe3fe58d	-0.1873991
40	0xbf0555ad	-0.52083856
41	0xbf3d0c10	-0.7384653
42	0xbf3c1762	-0.7347318
43	0xc0511f9b	-3.267554
44	0xbe7bac34	-0.24577409
45	0xbf092d0b	-0.53584355
46	0xbe6746e6	-0.2258564
47	0x3eaf973e	0.34295076
48	0xbf8b3430	-1.0875301
49	0xbf827ccf	-1.0194339
50	0xbf594dd2	-0.8488437
51	0xbd93dadd	-0.07219479
52	0xbf0e4fce	-0.5559052
53	0xbf381ab4	-0.71915746
54	0xbefa8f7d	-0.48937598
55	0xbe2286bb	-0.15871708
56	0xbead64ea	-0.33866054
57	0xbf2d5517	-0.6770796
58	0xbf46a4ba	-0.775951
59	0x3d365e0c	0.044523284
60	0xbf02ba12	-0.5106517
61	0xbf191813	-0.5980236
62	0xbf339216	-0.70144784
63	0x3e6f0228	0.23340666
64	0xbfabee7c	-1.3432155
65	0xbe92f105	-0.28699508
66	0xbe08b4b9	-0.1335019
67	0xbf35a717	-0.70958084
68	0xbef8a606	-0.48564166
69	0xbf43968f	-0.7640161
70	0xbf47c920	-0.7804127
71	0xbea88e96	-0.32921284
72	0xbeb3b704	-0.35100567
73	0xbf335d02	-0.70063794
74	0xbf14d9b2	-0.58144677
75	0xbe0fd8b2	-0.14047506
76	0xbe887699	-0.26652983
77	0x3becde47	0.007228646
78	0xbf16f4ec	-0.5896747
79	0xbf3fc6a5	-0.7491248
80	0xbe688358	-0.22706354
81	0xbefbdd76	-0.491924
82	0xbf775261	-0.96610075
83	0xbf98b88e	-1.1931322
84	0xbf937416	-1.1519802
85	0xbf4e918c	-0.80690837
86	0xbe952f80	-0.29137802
87	0xbf54eb04	-0.83171105
88	0xbf0e1a17	-0.5550856
89	0xbf38cd91	-0.7218867
90	0xbf122a29	-0.5709558
91	0xbeafa773	-0.3430744
92	0xbf3b1b1e	-0.7308825
93	0xbf48f833	-0.7850372
94	0xbf6675d5	-0.9002355
95	0x3e8a4639	0.270067
96	0xbf16acea	-0.58857596
97	0xbf0a4d07	-0.54023784
98	0xbedaf46f	-0.42764613
99	0xbeac0cc3	-0.33603486
100	0xbf0c388d	-0.5477379
101	0xbe9df7e5	-0.3085319
102	0xbe6f5c03	-0.23374943
103	0xbf0942ab	-0.5361735
104	0x3e9fa538	0.3118074
105	0xbef9907d	-0.48743048
106	0xbfa6f1b3	-1.3042511
107	0xbeaced1b	-0.33774647
108	0xbf8aa6db	-1.083217
109	0xbf86b895	-1.052508
110	0xbc906bdf	-0.017629562
111	0xbd14b979	-0.036309693
112	0xbf3d95c6	-0.7405666
113	0xbdaec97a	-0.08534522
114	0xbf886003	-1.06543
115	0xbfa62a66	-1.2981689
116	0xbddf345a	-0.10898657
117	0xbf4b9655	-0.79526263
118	0x3e7c8098	0.2465843
119	0xbee13289	-0.43983868
120	0xbee4b84c	-0.44671857
121	0xbee5a34b	-0.44851145
122	0xbf4618bc	-0.7738149
123	0xbe0007ec	-0.12503022
124	0xbeeee4df	-0.4665899
125	0xbed4d726	-0.41570395
126	0xbef3088d	-0.4746746
127	0xbef5ed0f	-0.48032424
128	0xbe54aa40	-0.2076807
129	0xbee52ea6	-0.44762152
130	0xbe967752	-0.2938791
131	0xbf322ae5	-0.695967
132	0xbfd73f65	-1.6816221
133	0xbef8737f	-0.48525617
134	0xbef5c06c	-0.4799837
135	0x3cb57ff2	0.022155736
136	0xbf196b0b	-0.5992896
137	0xbeb32b7c	-0.34994113
138	0xbd6edfa6	-0.058318757
139	0xbd8f2f70	-0.0699147
140	0xbe74a7f3	-0.23892193
141	0xbdf00965	-0.11720542
142	0xbf22f6a5	-0.636576
143	0xbd91e73e	-0.07124184
144	0xbf6a452a	-0.91511786
145	0xbfbbe325	-1.4678694
146	0xbed47dab	-0.41502127
147	0xbf3f985f	-0.74841875
148	0xbc4bea72	-0.012446033
149	0xbe9b4342	-0.3032475
150	0xbe069825	-0.13143976
151	0xbf0ddf90	-0.55419254
152	0xbf64e428	-0.8941064
153	0xbf3fd7eb	-0.7493884
154	0xbf0cb40f	-0.5496225
155	0x3e08d05a	0.1336073
156	0xbfa3a2d2	-1.2784064
157	0xbf23f90e	-0.640519
158	0xbecb6056	-0.39721936
159	0xbea24c82	-0.31698996
160	0xbfad3a8c	-1.3533492
161	0xbea8c62d	-0.32963696
162	0xbf2eaa73	-0.68228835
163	0xbf275f98	-0.6538024
164	0xbf3f96ba	-0.74839365
165	0xbecde232	-0.40211636
166	0xbf36c129	-0.7138849
167	0xbfc95e3f	-1.5731887
168	0xbf518ab5	-0.81852275
169	0xbe057c32	-0.13035658
170	0x3bd6a3e2	0.006550298
171	0xbf468e34	-0.77560735
172	0xbf189249	-0.59598213
173	0xbe1e98a4	-0.15487915
174	0xbf3e5cc8	-0.7436032
175	0xbe6bc588	-0.23024571
176	0xbc864d79	-0.016394364
177	0xbf7492c1	-0.9553643
178	0xbd92fc8a	-0.07177074
179	0xbf419c6e	-0.7562932
180	0xbf2f56e2	-0.6849195
181	0xbf3a5148	-0.72780275
182	0xbf2b97aa	-0.67028296
183	0xbf74981a	-0.9554459
184	0xbf8b8048	-1.0898523
185	0xbf473acd	-0.778241
186	0xbe5a5210	-0.21320367
187	0xbf37148c	-0.7151573
188	0xbefe3d5c	-0.49656188
189	0xbebab20c	-0.36463964
190	0xbecb0933	-0.39655456
191	0xbd291893	-0.0412832
192	0xbf89c675	-1.0763689
193	0xbf7b1668	-0.98081064
194	0xbd950ac9	-0.07277448
195	0xbd8140b8	-0.06311172
196	0xbf2d606c	-0.67725253
197	0xbf0bfe4d	-0.5468491
198	0xbeba64cb	-0.36405024
199	0xbf1635c7	-0.5867581
200	0xbdc720a5	-0.09723023
201	0xbf0eba4e	-0.5575303
202	0xbd75ee93	-0.060041975
203	0xbeec8da4	-0.46201813
204	0xbf307802	-0.6893312
205	0xbe62370e	-0.22091314
206	0x3dfb3777	0.122664385
207	0xbf9b4f8d	-1.2133652
208	0xbeda6192	-0.42652565
209	0x3d8aa28f	0.06769287
210	0xbf22cc31	-0.6359282
211	0x3f012adf	0.5045604
212	0xbf0787d4	-0.5294163
213	0xbf1b43de	-0.6065043
214	0xbf81b0e0	-1.0132103
215	0xbfc2fd8b	-1.5233625
216	0xbeebed7f	-0.46079633
217	0x3df01ed6	0.117246315
218	0xbf33f4e6	-0.7029556
219	0xbdeffa9a	-0.1171772
220	0xbf2d2eee	-0.67649734
221	0xbe96a176	-0.2942006
222	0xbf27117f	-0.6526107
223	0xbe0eee37	-0.13958059
224	0xbeb68afb	-0.3565291
225	0xbf454021	-0.7705098
226	0xbfa13cd0	-1.2596684
227	0xbed9ccab	-0.42538962
228	0xbf1abcbb	-0.6044423
229	0xbf1f4577	-0.6221537
230	0xbf22e70b	-0.63633794
231	0xbeafc4b1	-0.3432975
232	0xbf68174c	-0.9066055
233	0xbf09de99	-0.5385528
234	0xbcdc580c	-0.026897453
235	0xbe38732d	-0.18012686
236	0xbf537f6e	-0.8261632
237	0xbf3570ed	-0.70875436
238	0xbe8f9632	-0.28044277
239	0xbf0cf70c	-0.55064464
240	0xbfe7054b	-1.804849
241	0xbf0663b3	-0.5249588
242	0xbf0bc939	-0.54603916
243	0xbef33288	-0.4749949
244	0xbec8461e	-0.39115995
245	0xbf61b6fa	-0.88169825
246	0x3ec097d3	0.37615833
247	0xbee508e7	-0.44733354
248	0xbf44c0f7	-0.7685694
249	0xbd91a497	-0.07111471
250	0xbe1d4709	-0.15359129
251	0xbf08b7a7	-0.5340523
252	0xbecd12db	-0.40053448
253	0x3e615cb3	0.22008018
254	0xbe128e23	-0.14312033
255	0xbf38df50	-0.7221575

fc2.weight f4 [128, 256]
0	0xbe4df355	-0.20112355
1	0xbe1f90e0	-0.15582609
2	0xbeef72b1	-0.4676719
3	0x3e8c2836	0.2737443
4	0x3e8e21af	0.27760074
5	0xbecf40e9	-0.4047921
6	0xbd9ffcc3	-0.07811882
7	0xbef07794	-0.4696623
8	0x3e79df6d	0.24401636
9	0x3ce34c4f	0.027746348
10	0xbe564c81	-0.20927621
11	0xbe71ef6b	-0.23626487
12	0xbf27bbea	-0.6552111
13	0xbf019d21	-0.50630385
14	0x3eeb4fd3	0.4595934
15	0xbe66fe07	-0.22557841
16	0xbef2bb2d	-0.4740843
17	0x3eebb3f4	0.4603573
18	0x3dba3e39	0.09093899
19	0x3df30fce	0.11868249
20	0xbdc1f1b6	-0.09469931
21	0x3dc7c952	0.09755196
22	0x3b150e3e	0.0022744085
23	0xbe823450	-0.25430536
24	0xbdf9480f	-0.12171947
25	0x3ee6b9ea	0.45063716
26	0x3ef041c8	0.46925187
27	0xbcda70cc	-0.026665114
28	0xbf7b5b42	-0.98186123
29	0x3f091512	0.53547776
30	0xbe886444	-0.26638997
31	0xbedbe6fa	-0.4294966
32	0xbf24bab6	-0.643474
33	0x3dcc7455	0.09983126
34	0x3ea14803	0.31500253
35	0xbd572985	-0.05252983
36	0x3e092d6d	0.13396235
37	0x3e9c8489	0.30569866
38	0xbe9717b8	-0.29510283
39	0x3de98341	0.11401988
40	0x3e4bd017	0.19903599
41	0x3deaf191	0.114718564
42	0x3dd02484	0.10163215
43	0xbe787973	-0.24265079
44	0x3efd820b	0.49513277
45	0x3e6be504	0.23036581
46	0x3ccd0540	0.025026917
47	0xbe5a26fd	-0.21303935
48	0x3cfd682f	0.030933468
49	0xbef92a25	-0.48664966
50	0xbe94fd1c	-0.29099357
51	0xbd7dc674	-0.061956838
52	0x3e93181b	0.2872933
53	0x3df342fc	0.11878011
54	0xbd9be877	-0.076126985
55	0xbeb7a554	-0.35868323
56	0x3e44d504	0.19221884
57	0x3c43290a	0.01191164
58	0x3e2cb2a0	0.16865015
59	0xbe282996	-0.16422114
60	0xbd4e787c	-0.05040787
61	0xbe1b7844	-0.15182596
62	0x3dee9fd8	0.116515815
63	0xbe460434	-0.19337541
64	0x3e30fda5	0.17284258
65	0x3e6abc8f	0.22923492
66	0xbe6ff337	-0.23432623
67	0x3d145fd0	0.036224186
68	0xbeb7d327	-0.35903284
69	0xbd023460	-0.03178823
70	0xbf4a38b4	-0.7899277
71	0x3d8e4c1f	0.06948113
72	0xbe508aec	-0.20365494
73	0xbdd23ff9	-0.10266108
74	0xbf204b2e	-0.62614715
75	0xbf185377	-0.5950236
76	0xbedb9efe	-0.4289474
77	0xbe95bf49	-0.29247501
78	0x3eb62c27	0.3558056
79	0x3e233ed5	0.15941937
80	0xbe9be9f2	-0.30451924
81	0xbf35d000	-0.7102051
82	0xbcf73b40	-0.03017962
83	0x3ddbcfc6	0.10732989
84	0x3e202ea2	0.15642789
85	0x3c7b0714	0.015321512
86	0x3c0a19f7	0.008429042
87	0xbe591707	-0.2120019
88	0xbe8d651d	-0.27616206
89	0xbe4e5372	-0.2014902
90	0xbdd829d2	-0.105548516
91	0xbddd9538	-0.10819477
92	0x3ec899d4	0.39179862
93	0xbf412549	-0.7544752
94	0xbe510a04	-0.20413977
95	0x3d3b9dcd	0.045804787
96	0xbf3515ee	-0.7073659
97	0x3e15b6d6	0.14620528
98	0x3d63a0f3	0.055573415
99	0x3d9ca548	0.076487124
100	0xbe147633	-0.14498214
101	0x3d288c6c	0.04114954
102	0x3dc5e217	0.09662264
103	0xbd37f8b9	-0.044914935
104	0xbf3e806e	-0.7441472
105	0xbc9a1969	-0.018810945
106	0xbce051f3	-0.027382826
107	0xbdf05a53	-0.11735978
108	0xbd2ea342	-0.042636164
109	0xbee65001	-0.44982913
110	0x3d2f16ec	0.04274647
111	0x3ec30dcb	0.3809646
112	0xbe8e40b9	-0.27783754
113	0x3e8778fa	0.26459485
114	0xbe272668	-0.16323245
115	0x3c089465	0.008336161
116	0x3e8f3813	0.2797247
117	0xbf09f59b	-0.5389039
118	0xbe09ce9f	-0.13457726
119	0x3d7313f0	0.059345186
120	0x3e7eefb2	0.24896124
121	0xbd33e9a4	-0.04392399
122	0xbe87fe6e	-0.26561302
123	0xbdc68731	-0.096937545
124	0x3cf726d8	0.03016989
125	0xbd8e81bd	-0.06958339
126	0x3e9fc4f1	0.31204942
127	0xbcd96d95	-0.02654151
128	0xbedb727a	-0.42860776
129	0xbc86d190	-0.016457349
130	0xbeb9d05a	-0.36291772
131	0xbe853c7e	-0.26022714
132	0xbebdbfab	-0.37060294
133	0xbe9e0e31	-0.30870202
134	0x3f21e95e	0.63246715
135	0xbd41bf4a	-0.047301568
136	0xbd75c7cf	-0.060005005
137	0x3cf49a71	0.0298588
138	0x3e1b5eb6	0.15172848
139	0x3d8c5ebe	0.06854008
140	0x3f2d7ecd	0.6777161
141	0xbebf1922	-0.37323862
142	0xbdfc2af6	-0.12312882
143	0x3dc7dce1	0.09758926
144	0x3df98a4e	0.12184583
145	0xbd9e1dc0	-0.07720518
146	0xbf20ae33	-0.62765807
147	0x3ea0c382	0.3139916
148	0xbd6c4a0d	-0.057687808
149	0x3f351496	0.70734537
150	0x3e9d9647	0.30778715
151	0x3ea7129c	0.32631385
152	0xbeeeaaa2	-0.46614558
153	0xbe1919e3	-0.14951281
154	0xbf3027ef	-0.68810934
155	0x3eaad433	0.3336502
156	0x3d9c3706	0.076276824
157	0xbe815b2e	-0.25264877
158	0x3e04005d	0.12890764
159	0xbdec1f48	-0.11529404
160	0x3da9f599	0.08298797
161	0xbe2879cf	-0.16452716
162	0xbc9c5625	-0.019084046
163	0x3e1a6e1d	0.15081067
164	0x3eccd815	0.40008608
165	0x3dbf8a97	0.09352606
166	0x3dc4c5c0	0.0960803
167	0xbe97c6d0	-0.2964387
168	0x3c142581	0.009042145
169	0xbe43668f	-0.19082092
170	0xbe4ca23a	-0.1998376
171	0xbe7d49ac	-0.24735135
172	0x3e25b059	0.16180553
173	0x3e4f6902	0.20254901
174	0x3eb3a81e	0.350892
175	0xbede6fbc	-0.43444622
176	0x3a651fe5	0.00087404094
177	0xbeb86d1c	-0.36020744
178	0xbe809996	-0.25117177
179	0xbefd5b2d	-0.49483624
180	0x3eb3c4e6	0.3511116
181	0xbed499ee	-0.4152369
182	0x3d899f54	0.067198426
183	0xbd81ec89	-0.063439436
184	0xbdcff4ab	-0.101540886
185	0xbeb3c0dd	-0.3510808
186	0x3dec1f81	0.115294464
187	0x3c2b11fd	0.0104413
188	0x3d144b8f	0.03620487
189	0xbe037ab0	-0.1283977
190	0x3d9afde3	0.07567956
191	0x3eed407a	0.46338254
192	0xbd845c15	-0.06462876
193	0x3eddb663	0.43303213
194	0x3e63e553	0.22255449
195	0xbdea921e	-0.11453651
196	0x3d5a9c97	0.053371992
197	0xbf223370	-0.6335974
198	0xbe19993a	-0.14999858
199	0x3d8b84fd	0.06812475
200	0x3e951af3	0.29122123
201	0xbf245d9e	-0.6420535
202	0xbeea6e0d	-0.45787087
203	0xbe88c03f	-0.26709172
204	0xbe520f8a	-0.2051374
205	0x3e188c26	0.14897212
206	0x3dfd2cd4	0.12362066
207	0x3beff26e	0.007322601
208	0x3c809c3c	0.015699498
209	0x3e976e4a	0.2957633
210	0xbe1221c7	-0.14270698
211	0xbebce24e	-0.36891407
212	0xbf551d21	-0.8324757
213	0xbef17264	-0.47157586
214	0x3db21585	0.08695511
215	0x3baf2fff	0.0053462978
216	0x3e84b033	0.2591568
217	0xbdb5dc3e	-0.088798985
218	0xbeaddaed	-0.3395609
219	0x3edae691	0.42754033
220	0xbed615b4	-0.41813433
221	0x3e6777ca	0.2260429
222	0x3d031e57	0.032011356
223	0xbb330d5a	-0.002732119
224	0x3d5a5c49	0.053310666
225	0x3e89d591	0.2692075
226	0xbe17dde7	-0.14830743
227	0xbc7ec783	-0.015550497
228	0x3f14fab6	0.58195055
229	0x3e8ce4c3	0.2751828
230	0xbe3dd46a	-0.18538061
231	0xbebb2d67	-0.36558077
232	0xbe06c518	-0.13161123
233	0xbe5cf0a0	-0.21576166
234	0xbe545b8e	-0.2073805
235	0xbe901453	-0.28140506
236	0xbe2a70f4	-0.1664465
237	0x3ef989cf	0.48737952
238	0xbec873c7	-0.3915083
239	0xbce6e463	-0.028185075
240	0x3e8e3bd8	0.27780032
241	0xbf0e1635	-0.55502635
242	0xbefba4af	-0.4914908
243	0xbefd1a2b	-0.49434027
244	0x3ee2bc85	0.44284454
245	0xbe88b42f	-0.2669997
246	0xbe5575f4	-0.20845777
247	0x3e35c26e	0.1774995
248	0xbd03d9af	-0.03219002
249	0x3e291681	0.16512491
250	0xbe315f24	-0.1732145
251	0x3e90663a	0.28202993
252	0x3e4ca37c	0.1998424
253	0xbedb74f2	-0.4286266
254	0x3e9e2d73	0.3089405
255	0xbe228bed	-0.1587369

fc2.bias f4 [128]
0	0xbe005d95	-0.12535699
1	0xbd86d98c	-0.065844625
2	0xbefa30af	-0.48865268
3	0xbe95c62d	-0.2925276
4	0xbe4a442f	-0.19752572
5	0xbeb0ec90	-0.34555483
6	0xbe2a39ba	-0.16623583
7	0xbd8040aa	-0.06262334
8	0xbd3ad1cb	-0.04561023
9	0xbe8f6c5d	-0.28012362
10	0xbea40cc4	-0.3204099
11	0xbeb88bc8	-0.36044145
12	0xbe8a3e41	-0.2700062
13	0xbe5c815e	-0.21533725
14	0xbd41a097	-0.04727229
15	0xbf028b5b	-0.5099389
16	0xbeb8741d	-0.36026087
17	0xbe28c6a4	-0.16482025
18	0xbe46cb14	-0.19413406
19	0xbeb146c4	-0.34624302
20	0xbe612642	-0.2198725
21	0xbeefb88b	-0.46820483
22	0xbe007270	-0.12543654
23	0xbe622c3c	-0.22087187
24	0x39b4c0b3	0.00034475847
25	0xbf336e53	-0.70090216
26	0xbe2cbef9	-0.16869725
27	0xbe9e5fce	-0.30932468
28	0x3c8b38e5	0.016994903
29	0xbe72ed25	-0.23723276
30	0xbe075bfc	-0.13218683
31	0xbf156087	-0.58350414
32	0x3eb2a76e	0.34893364
33	0xbeddae8e	-0.43297237
34	0xbef4dbf4	-0.4782406
35	0xbe82f2ee	-0.25575966
36	0xbe6c17dd	-0.23055978
37	0xbed5aaa9	-0.41731766
38	0xbe6e1a81	-0.23252298
39	0xbda49356	-0.080359146
40	0xbe587437	-0.21138082
41	0xbe6c9e77	-0.23107325
42	0xbe43adb1	-0.19109227
43	0xbe16f852	-0.14743164
44	0xbed4cfeb	-0.4156488
45	0xbeb07fb0	-0.34472418
46	0xbe6f90a8	-0.23395026
47	0xbec0e955	-0.37678018
48	0xbf196f67	-0.5993561
49	0xbc62eaf0	-0.013849959
50	0xbe980bda	-0.29696542
51	0xbea190ee	-0.31555885
52	0xbe9dff31	-0.30858758
53	0xbecc26bd	-0.39873305
54	0xbee8e88f	-0.45489928
55	0xbe91fc32	-0.28512722
56	0xbe25ef98	-0.16204679
57	0xbda2edf8	-0.07955545
58	0xbe2d2a32	-0.16910627
59	0xbe99b4f1	-0.3002086
60	0xbea40dde	-0.3204183
61	0xbe10f76b	-0.14156882
62	0xbe51504f	-0.20440792
63	0xbe8a90b8	-0.27063537
64	0xbe926781	-0.28594592
65	0xbc4786e7	-0.012178159
66	0xbebc27db	-0.36749157
67	0xbecfa58f	-0.40556
68	0x3ddb5a22	0.10710551
69	0xbea7249e	-0.32645124
70	0xbe704b4e	-0.23466226
71	0xbe3443e0	-0.17604017
72	0xbe14f413	-0.14546232
73	0xbea371db	-0.31922802
74	0xbecb111a	-0.39661485
75	0xbdf284b7	-0.118417196
76	0xbdce8ea5	-0.10085801
77	0xbdf005d8	-0.117198646
78	0xbd1b79a3	-0.0379578
79	0xbe95a697	-0.2922866
80	0xbf7517ca	-0.95739424
81	0xbf38e9a3	-0.722315
82	0xbec6cafc	-0.3882674
83	0xbeeddce1	-0.4645758
84	0xbe9f2154	-0.31080115
85	0xbed6e6e8	-0.41973042
86	0xbf01488c	-0.5050132
87	0xbf7ba624	-0.98300385
88	0xbdec67f3	-0.11543264
89	0xbe947f61	-0.29003432
90	0xbecc1a77	-0.3986394
91	0xbe4f0d0b	-0.20219819
92	0xbdc2513f	-0.09488153
93	0xbea1ddf1	-0.3161464
94	0xbe6b4b3f	-0.22977923
95	0xbe413b78	-0.18870342
96	0xbeaa44aa	-0.33255512
97	0xbf1b11a0	-0.6057377
98	0xbe93cef0	-0.28868818
99	0xbe9906d9	-0.29888037
100	0xbd7add5f	-0.061246272
101	0xbe4d19bd	-0.2002935
102	0xbf01f314	-0.5076153
103	0xbdc9785a	-0.09837408
104	0xbea1c652	-0.3159662
105	0xbe03170e	-0.12801763
106	0xbd785561	-0.0606283
107	0xbe767d71	-0.2407129
108	0xbd7d24db	-0.061802726
109	0xbf1b1dd2	-0.6059238
110	0x3c08f9d2	0.008360343
111	0xbe22b47e	-0.15889165
112	0xbe97b272	-0.2962833
113	0xbe0ec268	-0.13941348
114	0xbe719925	-0.23593576
115	0xbe328227	-0.17432462
116	0xbe47212f	-0.19446252
117	0xbe8502d9	-0.25978735
118	0xbec74340	-0.38918495
119	0xbe319178	-0.17340648
120	0xbe688372	-0.22706392
121	0xbee1a204	-0.4406892
122	0xbf23a058	-0.6391654
123	0xbd98d367	-0.07462197
124	0x3c3da197	0.011574171
125	0xbeb07f1e	-0.34471983
126	0xbed7fe85	-0.4218637
127	0xbe6062cc	-0.21912688

fc3.weight f4 [64, 128]
0	0x3dac9779	0.084273286
1	0xbe79a04d	-0.24377556
2	0xbd7484f2	-0.0596971
3	0xbbbd3d55	-0.0057751336
4	0x3ea03df1	0.31297258
5	0x3e21e32f	0.1580932
6	0xbe8c7e07	-0.274399
7	0xbed257cd	-0.41082612
8	0xbea94ded	-0.33067265
9	0xbce2bf5a	-0.027679134
10	0xbdcd5553	-0.1002604
11	0x3d3bea30	0.045877635
12	0xbe6062c7	-0.2191268
13	0xbe820f83	-0.2540246
14	0x3e5ff724	0.2187162
15	0xbe326320	-0.17420626
16	0xbdf238b8	-0.118272245
17	0xbbed551f	-0.0072428132
18	0xbee36d1c	-0.4441918
19	0xbed22758	-0.41045642
20	0x3ccb7361	0.02483529
21	0xbcdf74bf	-0.027277349
22	0x3cf6b728	0.030116633
23	0xbe3f2284	-0.1866551
24	0xbebc25bf	-0.36747548
25	0x3d0d1476	0.03444334
26	0xbe8d83b1	-0.27639535
27	0x3e35bbf9	0.17747487
28	0x3ddffc42	0.10936786
29	0xbe29c2a8	-0.16578162
30	0x3e102cc3	0.14079575
31	0xbcd5c4ec	-0.026094876
32	0x3dcb9db6	0.0994219
33	0x3ee42615	0.44560304
34	0xbfa70723	-1.3049053
35	0xbe5e4e9e	-0.21709678
36	0xbeda0661	-0.42582992
37	0xbeeb2726	-0.45928305
38	0xbe2b2949	-0.16714968
39	0xbeebe934	-0.46076357
40	0xbe61b46d	-0.22041483
41	0xbeb9e732	-0.363092
42	0x3de758b2	0.11296214
43	0xbe346b30	-0.17619014
44	0x3e88d1da	0.26722604
45	0xbe43b2ff	-0.1911125
46	0x3e7b83c4	0.24561983
47	0xbeb9d766	-0.36297148
48	0xbb367840	-0.002784267
49	0x3e935f14	0.28783476
50	0xbe10d5a7	-0.14144002
51	0xbe7f81da	-0.24951878
52	0xbe353b9e	-0.17698523
53	0xbe79b452	-0.24385193
54	0xbd2d1ada	-0.042261936
55	0xbe6969d8	-0.22794282
56	0xbe91e3c2	-0.28494078
57	0xbc680358	-0.014160953
58	0xbe511dee	-0.20421574
59	0x3ed0a785	0.40752807
60	0xbde9e7f7	-0.11421197
61	0xbda98355	-0.08277003
62	0xbdfe2592	-0.1240951
63	0xbe9f5cf9	-0.3112562
64	0x3dc40439	0.09571118
65	0x3c2b79d6	0.01046606
66	0x3d448dd3	0.047986817
67	0x3dd676cb	0.10471877
68	0xbe3e58dd	-0.18588586
69	0xbcce6bd7	-0.025197906
70	0xbdd365fa	-0.10322185
71	0x3d99e070	0.07513511
72	0x3d961033	0.073273085
73	0x3e385421	0.18000843
74	0x3ebc26ab	0.3674825
75	0xbe64b0b1	-0.22333027
76	0x3d5a940c	0.053363845
77	0xbe41009d	-0.1884789
78	0xbe588ca5	-0.21147402
79	0xbda52644	-0.08063939
80	0xbc1177e7	-0.008878685
81	0xbeb9bbec	-0.36276186
82	0xbee51109	-0.4473956
83	0x3dc4f295	0.09616581
84	0xbd4c872f	-0.04993361
85	0xbc83f93d	-0.016110057
86	0xbc90b8b5	-0.0176662
87	0x3dddb436	0.10825388
88	0x39ec8f29	0.0004512009
89	0xbe35c35c	-0.17750305
90	0x3edd399e	0.4320802
91	0x3da93ec5	0.082639255
92	0xbe056514	-0.1302684
93	0x3d35063b	0.044195395
94	0x3e3718a1	0.17880489
95	0xbe222482	-0.15834239
96	0x3d8e3cd1	0.069451936
97	0xbe346bce	-0.17619249
98	0x3e5a55a1	0.21321727
99	0xbf0218e8	-0.50819254
100	0xb99f18f3	-0.00030345432
101	0xbdb20e8b	-0.0869418
102	0xbe828540	-0.25492287
103	0xbcd89eac	-0.026442848
104	0xbe1b826e	-0.15186474
105	0xbf0f7633	-0.5603973
106	0xbc93251f	-0.017962037
107	0xbdf08a2f	-0.117451064
108	0x3f1f9f55	0.62352496
109	0xbed8711c	-0.42273796
110	0x3e23c36f	0.15992521
111	0xbca66dc3	-0.02031601
112	0x3dee1946	0.11625914
113	0xbe05c69b	-0.13064043
114	0xbf2c1fba	-0.6723591
115	0x3e02fc86	0.12791643
116	0xbd327037	-0.043564048
117	0x3e56aaa7	0.20963536
118	0xbe57e4ef	-0.21083425
119	0xbe11f7bc	-0.1425466
120	0xbcd7da28	-0.026349142
121	0x3e1eb63e	0.15499207
122	0x3e72b10a	0.23700348
123	0x3cb21b70	0.021741599
124	0x3d2b05ad	0.04175346
125	0x3d8fa2e8	0.07013494
126	0xbedc64be	-0.4304561
127	0xbc2f1ec1	-0.010688485
128	0xbf10dafb	-0.5658414
129	0xbeb7e58a	-0.35917312
130	0xbe1b9ef2	-0.15197352
131	0x3df6200f	0.120178334
132	0xbe89d49b	-0.26920018
133	0x3e3105d2	0.17287377
134	0xbeb838b7	-0.3598077
135	0xbe459138	-0.19293678
136	0xbb9f0262	-0.004852579
137	0xbed2e1cb	-0.4118789
138	0xbe533f10	-0.20629525
139	0x3dc2825e	0.09497522
140	0xbe092927	-0.13394605
141	0xbd9caec5	-0.07650522
142	0x3dde0986	0.1084166
143	0x3babeede	0.005246981
144	0xbdb78bdd	-0.08962224
145	0x3dbaae03	0.09115221
146	0xbcbc79bb	-0.023007264
147	0xbdb13584	-0.086527854
148	0x3e27280a	0.16323867
149	0xbe657f73	-0.224119
150	0xbdc642ca	-0.09680708
151	0x3cb8afb6	0.022544723
152	0xbec93f25	-0.39305988
153	0xbe24b396	-0.16084132
154	0x3c9acecb	0.018897435
155	0xbe868423	-0.26272687
156	0xbf61b2ea	-0.88163626
157	0xbc6fb421	-0.014630348
158	0xbd1590f9	-0.03651521
159	0xbe1dc010	-0.15405297
160	0xbd44d715	-0.04805668
161	0xbe9ddc9f	-0.30832383
162	0x3e70faf6	0.23533234
163	0xbed1e8e7	-0.40998003
164	0xbed9b416	-0.42520207
165	0xbef730fc	-0.4827956
166	0xbef2a912	-0.47394615
167	0xbd802bc2	-0.06258346
168	0x3e22d5a5	0.15901811
169	0x3dd67410	0.10471356
170	0x3e01500e	0.12628195
171	0x3cba498e	0.022740152
172	0x3e20ecdd	0.15715356
173	0x3e317bba	0.17332354
174	0x3e7099ab	0.2349612
175	0xbecf0592	-0.40433937
176	0xbeb72f43	-0.35778245
177	0x3e9d5694	0.30730116
178	0xbe904960	-0.2818098
179	0x3c3c315c	0.011486378
180	0x3e6857e9	0.22689785
181	0xbc4a6cbf	-0.012355029
182	0xbd9a176f	-0.07524001
183	0x3e44a69a	0.19204178
184	0x3e779ae4	0.2418018
185	0x3cb6fcf3	0.022337412
186	0xbd9cd4d4	-0.07657781
187	0xbef445fd	-0.47709647
188	0xbf01b0f9	-0.50660664
189	0xbdcdb524	-0.100443155
190	0xbeb149d9	-0.34626654
191	0x3dbddf33	0.092710875
192	0xbe5e2dbe	-0.21697137
193	0x3d8a402c	0.06750521
194	0xbd00e535	-0.03146859
195	0xbd9b069f	-0.07569622
196	0xbed04d7f	-0.40684125
197	0xbe87b043	-0.26501665
198	0xbc8890f3	-0.01667068
199	0xbe2610b5	-0.1621731
200	0x3d8c96c3	0.06864693
201	0x3ee92ca2	0.45541865
202	0xbd2016e4	-0.03908433
203	0xbdb57583	-0.08860304
204	0xbdbda474	-0.092598826
205	0xbbada12c	-0.005298754
206	0xbf073b5f	-0.5282497
207	0x3de73507	0.11289411
208	0xbdfe97a1	-0.12431265
209	0xbe7ebec0	-0.24877453
210	0xbc81784e	-0.015804436
211	0xbd37eb9e	-0.044902436
212	0xbcaf7e15	-0.021422425
213	0xbe9f6186	-0.31129092
214	0x3e9135cc	0.28361356
215	0xbdf63cea	-0.12023337
216	0x3cb5973e	0.022166844
217	0x3c84784a	0.01617064
218	0x3ea4fc1a	0.32223588
219	0xbd9b095a	-0.07570143
220	0xbdfabbb0	-0.1224283
221	0x3dc20ead	0.094754554
222	0x3e401892	0.18759373
223	0x3e1fa54d	0.15590401
224	0xbeaf1d4a	-0.34202033
225	0xbea69494	-0.3253523
226	0xbe384b3d	-0.17997451
227	0xbee31a17	-0.44355842
228	0xbe0ba2eb	-0.13636367
229	0xbd9cba5e	-0.07652734
230	0xbe3f2118	-0.18664968
231	0x3e21f13a	0.15814677
232	0xbd998d70	-0.0749768
233	0xbe1c76df	-0.1527972
234	0x3e85483f	0.26031682
235	0x3e47a34c	0.19495887
236	0xbf11ab31	-0.5690184
237	0xbddd9bcb	-0.10820731
238	0xbeb358df	-0.3502874
239	0x3e0820d5	0.13293774
240	0xbe197237	-0.14984976
241	0x3ea00085	0.31250396
242	0xbe8c8e1c	-0.2745217
243	0xbdbebb10	-0.09313023
244	0xbdefc8f9	-0.11708254
245	0xbe482b54	-0.19547778
246	0xbdd9999c	-0.10625002
247	0xbf09b516	-0.5379194
248	0xbd185518	-0.037190527
249	0x3ccf18b5	0.025280336
250	0x3c9f26f0	0.019427747
251	0xbf055e78	-0.5209727
252	0xbee2ccc3	-0.44296846
253	0xbd75c6be	-0.06000399
254	0xbe6ae509	-0.22938932
255	0x3e563bc4	0.20921236

fc3.bias f4 [64]
0	0x3f17aa55	0.5924428
1	0xbec0fc7c	-0.3769263
2	0xbd0bb893	-0.03411157
3	0xbe92a871	-0.28644136
4	0x3f27be7f	0.6552505
5	0x3cbcb482	0.023035292
6	0x3f59168e	0.8480004
7	0xbe0fe036	-0.14050373
8	0xbe4da276	-0.20081505
9	0x3f0d414f	0.5517778
10	0x3d8472d2	0.06467213
11	0xbf31de36	-0.6947969
12	0xbf187051	-0.5954638
13	0x3d8e37f0	0.06944263
14	0xbf42bc21	-0.7606831
15	0xbecdf5a7	-0.4022648
16	0xbd594ecc	-0.053053662
17	0xbed52ca0	-0.4163561
18	0xbe6f0dbc	-0.23345083
19	0xbe05831e	-0.13038298
20	0xbe333de9	-0.17504086
21	0x3cf3663b	0.029711833
22	0xbe88e8b5	-0.2674004
23	0x3e9b84e1	0.30374816
24	0xbef7bdc4	-0.48386967
25	0xbdaeafa8	-0.085295975
26	0x3e74eab7	0.23917662
27	0xbe2e777d	-0.17037769
28	0xbf29532e	-0.6614255
29	0x3be68ef3	0.007036084
30	0x3dad918c	0.084750265
31	0xbec66250	-0.3874688
32	0xbed3ce8f	-0.4136853
33	0xbe9b3db9	-0.30320528
34	0xbf070bfd	-0.5275267
35	0xbd3b4775	-0.045722444
36	0xbe99d514	-0.30045378
37	0xbec75711	-0.38933614
38	0xbd6d32ab	-0.05790965
39	0xbe05e576	-0.13075814
40	0xbdaadfdf	-0.08343481
41	0xbe8452a2	-0.25844294
42	0xbed9fd16	-0.42575902
43	0xbea59012	-0.3233648
44	0xbe22d8d2	-0.15903023
45	0x3ee2b4b3	0.44278488
46	0x3e8e43e7	0.2778618
47	0xbd177641	-0.03697801
48	0xbe6ec881	-0.23318674
49	0x3e005e49	0.12535967
50	0xbe77cfa0	-0.24200296
51	0xbded8fe0	-0.115997076
52	0x3f4f221b	0.80911416
53	0xbecd8037	-0.40136883
54	0x3d1452e6	0.03621187
55	0x3da8caaa	0.0824178
56	0xbe6798cc	-0.22616881
57	0xbe39d1ae	-0.18146393
58	0xbe99ab01	-0.30013278
59	0x3d7ba1ba	0.06143353
60	0xbf06322c	-0.52420306
61	0xbe792eac	-0.2433421
62	0x3ef0fece	0.470694
63	0xbe6e139d	-0.2324967

fc4.weight f4 [1, 64]
0	0xbcf0929d	-0.029366786
1	0xbd27aa3a	-0.040933825
2	0x3d10aaa1	0.035318974
3	0xbd335adc	-0.043787822
4	0xbd252834	-0.040321544
5	0x3d05ec4c	0.032696053
6	0xbd2454b8	-0.040119857
7	0xbcd7186d	-0.026256764
8	0xbcfb49c1	-0.030674817
9	0x3cafe4ac	0.021471344
10	0x3cdbd952	0.026837025
11	0xbccdcdb4	-0.025122501
12	0xbd45f4fb	-0.048329335
13	0xbcad6ee6	-0.021171045
14	0xbde437e5	-0.111434735
15	0xbd8347a8	-0.06410152
16	0xbd7ce6e0	-0.061743617
17	0xbcaed943	-0.021343833
18	0xbd6b7799	-0.057487104
19	0xbcd1fcdc	-0.025633268
20	0x3d066c4d	0.032818127
21	0x3d278057	0.04089388
22	0xbd0710ae	-0.03297489
23	0x3c37fcbc	0.01122969
24	0xbd185329	-0.037188683
25	0xbd1e2eec	-0.038618967
26	0x3d5a3725	0.053275246
27	0xbcef2cbc	-0.029196136
28	0xbc89fc2c	-0.016843878
29	0xbd17aa70	-0.037027776
30	0xbd33696f	-0.04380172
31	0xbd32c3b7	-0.04364368
32	0x3e1574eb	0.14595382
33	0x3e0d003b	0.13769619
34	0xbd4023e2	-0.04690922
35	0xbd034525	-0.032048363
36	0x3c89f5c5	0.016840825
37	0xbd35bfd6	-0.044372402
38	0xbdaa2fe9	-0.083099194
39	0x3d042210	0.032259047
40	0xbd284f63	-0.041091334
41	0xbd78412a	-0.06060902
42	0xbd310ba5	-0.043223996
43	0x3dcc9adb	0.09990474
44	0x3c73f7dd	0.014890638
45	0x3d4505fd	0.048101414
46	0x3d82bdf1	0.06383885
47	0x3d5f3853	0.054497074
48	0xbd81c5c9	-0.06336553
49	0x3d0c3109	0.03422645
50	0xbcab1eea	-0.020888764
51	0x3dcfdc5c	0.10149452
52	0xbd3a1058	-0.045425743
53	0xbd2863e7	-0.0411109
54	0xbd138a02	-0.036020286
55	0x3d8d9445	0.06913046
56	0xbd3bdca7	-0.045864727
57	0x3d154cb0	0.036450088
58	0xbd364369	-0.04449788
59	0x3d1b3c8d	0.037899543
60	0x3d20146d	0.03908198
61	0xbd3b4da9	-0.04572836
62	0x3c2b67f1	0.010461793
63	0xbd3f6979	-0.046731446

bn1.weight f4 [256]
0	0x3df8b5fb	0.12144085
1	0x3eeb3658	0.45939898
2	0x3e51979a	0.20467988
3	0x3dfa2b9f	0.12215351
4	0x3d85d1e9	0.06534178
5	0x3e20ffbd	0.15722556
6	0x3da45f7f	0.08026027
7	0x3e479285	0.19489487
8	0x3e790b07	0.24320613
9	0x3e5350a6	0.20636234
10	0x3e353a9c	0.17698139
11	0xba71f701	-0.0009230227
12	0x3ec214cb	0.3790649
13	0x3e476c5d	0.19474931
14	0x3e64dab7	0.22349058
15	0x3e46bf07	0.19408809
16	0x3e3a62a1	0.18201686
17	0x3ddb63f0	0.10712421
18	0x3f44d2d1	0.7688418
19	0x3e9917f4	0.29901087
20	0x3e12215c	0.14270538
21	0x3ee7acd0	0.45249033
22	0x3ef7f8f3	0.4843212
23	0x3e27e453	0.16395693
24	0x3dd85653	0.1056334
25	0x3dec6fe7	0.11544781
26	0x3e0546c8	0.13015282
27	0x3e080b9f	0.13285683
28	0x3de0818b	0.10962208
29	0x3dda92ec	0.106725544
30	0xbe380572	-0.17970827
31	0x3e7388f1	0.23782708
32	0xbe673bbb	-0.22581379
33	0x3bedda69	0.0072587025
34	0x3e2cc24d	0.16870995
35	0x3e84c620	0.25932407
36	0x3e08afcf	0.13348316
37	0x3f2361fb	0.6382138
38	0x3e31d9df	0.17368267
39	0x3e763a7b	0.24045746
40	0x3da15e28	0.07879287
41	0x3da46c18	0.0802843
42	0x3e148c93	0.1450675
43	0x3eae974b	0.34099802
44	0xbe15c26a	-0.14624944
45	0x3e2d1995	0.1690429
46	0x3e91e8ad	0.2849783
47	0x3e3908e3	0.18069796
48	0x3eb44068	0.35205388
49	0x3e5d70db	0.21625082
50	0x3dd9e723	0.10639789
51	0x3f82fb36	1.0232913
52	0x3df9ba8a	0.12193783
53	0x3e281c82	0.16417125
54	0x3dd8215a	0.10553236
55	0x3e70f9d9	0.2353281
56	0x3e68704e	0.22699091
57	0x3e46d7d5	0.19418271
58	0x3e923e6a	0.28563243
59	0x3f708791	0.9395686
60	0x3e3e1286	0.18561754
61	0x3da98ca7	0.082787804
62	0x3e67eb29	0.226483
63	0x3e58878d	0.21145459
64	0x3ea2be76	0.31785935
65	0x3e97ed53	0.29673252
66	0x3e9e2ee9	0.30895165
67	0x3e142ae3	0.14469485
68	0x3e133550	0.14375806
69	0x3e2c860a	0.16848007
70	0x3e9e09ca	0.30866843
71	0x3e5e9a12	0.2173846
72	0x3f04caf9	0.5187221
73	0x3e115521	0.1419263
74	0x3e07461f	0.13210343
75	0x3ef9c1b5	0.487806
76	0x3e177233	0.14789657
77	0xbe0ab26e	-0.13544628
78	0x3e8a1a43	0.2697316
79	0x3d8aa6af	0.067700736
80	0x3e087d32	0.13329008
81	0x3e2925c8	0.16518319
82	0x3ed82a7f	0.42219922
83	0x3e5011fc	0.2031936
84	0x3e8c0a67	0.27351686
85	0x3e38ddb1	0.18053319
86	0x3e1aa9f3	0.15103893
87	0x3e3815c6	0.17977056
88	0x3e31e6b8	0.17373168
89	0x3e4aaee4	0.19793278
90	0x3e66abd6	0.22526488
91	0x3e5048bf	0.2034025
92	0x3e641150	0.22272229
93	0x3e60e434	0.21962053
94	0x3f3b39cf	0.73135084
95	0x3e988ab6	0.29793328
96	0x3e394237	0.18091665
97	0x3e006769	0.12539448
98	0x3e0b43db	0.13600104
99	0x3e9254e1	0.28580382
100	0x3e7ae686	0.24502
101	0x3da64dab	0.08120283
102	0x3e33aff0	0.17547584
103	0x3dcc9f2e	0.099912986
104	0x3ed8a73d	0.42315093
105	0x3e940ee7	0.2891762
106	0x3dabe3c5	0.08393053
107	0x3e1088b4	0.14114648
108	0x3e7bf0f3	0.24603634
109	0x3e85d52e	0.26139206
110	0x3e707a11	0.23484065
111	0x3e5ca4b1	0.215472
112	0x3d5b552a	0.053548016
113	0x3ed8e7d0	0.4236436
114	0x3ee91ebf	0.4553127
115	0x3e43dd96	0.19127497
116	0x3e22344f	0.15840267
117	0x3dfb0026	0.12255888
118	0x3ee0624f	0.43825004
119	0x3f6a589c	0.9154146
120	0x3db2de6b	0.08733829
121	0x3eff7ac9	0.49898365
122	0x3e8550c9	0.26038197
123	0x3e6bfb13	0.23044996
124	0x3e298879	0.16555966
125	0x3e73711f	0.23773621
126	0x3e07bc66	0.13255462
127	0x3dd45eb2	0.10369624
128	0x3eff76ea	0.49895412
129	0x3e0c42e8	0.13697398
130	0x3ee37c09	0.4443057
131	0x3e968660	0.29399395
132	0x3f9322f3	1.1495041
133	0x3e165a1a	0.14682809
134	0x3ddffacd	0.10936508
135	0x3e78e4ff	0.24306105
136	0x3e5edb90	0.21763444
137	0x3e1fceff	0.15606306
138	0x3e525d18	0.20543325
139	0x3e5acffe	0.21368405
140	0x3e364c32	0.17802504
141	0x3ecebaf8	0.4037702
142	0x3ec3f5ca	0.3827346
143	0x3eaf65fe	0.342575
144	0x3e316a3a	0.17325678
145	0x3ef9ef5f	0.48815438
146	0x3e6fa027	0.23400937
147	0x3f0421aa	0.5161387
148	0x3edd6ecb	0.4324859
149	0xbe855c01	-0.26046756
150	0x3e2a0e96	0.16607127
151	0x3df4a5cf	0.11945688
152	0x3e5c93bc	0.21540731
153	0x3e6ed686	0.23324022
154	0x3e1882fc	0.14893717
155	0x3e9119ee	0.28340095
156	0x3e0a1bb7	0.13487135
157	0x3e28532a	0.16437975
158	0x3eb3c27f	0.35109326
159	0x3e2bbb85	0.16770752
160	0x3e6a5365	0.22883375
161	0x3e386ffc	0.18011469
162	0x3e1c2f49	0.15252413
163	0x3e3b53ca	0.18293682
164	0x3e062b58	0.13102472
165	0xbe1978ec	-0.14987534
166	0x3e2f8cd3	0.17143564
167	0x3ecbfec8	0.3984282
168	0x3dc32c08	0.09529883
169	0xbe421440	-0.18953037
170	0x3e67ba9a	0.22629777
171	0x3e75bd61	0.23998024
172	0x3db13c05	0.08654026
173	0x3e50a615	0.20375855
174	0x3e3f789c	0.18698353
175	0x3e0d2f27	0.13787518
176	0x3ef801ea	0.4843896
177	0x3f0b0860	0.54309654
178	0x3e7f1d49	0.24913515
179	0x3f288722	0.65831196
180	0x3e5f3761	0.21798469
181	0x3e89164f	0.26774833
182	0x3e0ebce0	0.13939238
183	0x3f881d39	1.0633918
184	0x3fe4d3c0	1.7877121
185	0x3e1515a1	0.14559032
186	0x3e174c13	0.14775114
187	0x3e332512	0.1749461
188	0x3dc837fc	0.09776303
189	0x3e2dd75e	0.16976687
190	0x3e6fa010	0.23400903
191	0x3e4fccd3	0.20292978
192	0x3dd86b31	0.1056732
193	0x3e0da36c	0.13831872
194	0x3e73dec9	0.23815455
195	0x3e55ca4f	0.20877956
196	0x3e0f0f11	0.13970591
197	0x3dfc6bd4	0.12325254
198	0x3eb23c85	0.34811798
199	0x3e7de8bd	0.24795814
200	0x3e16d5f1	0.1473005
201	0x3dd08269	0.10181124
202	0x3ea0cef9	0.31407908
203	0x3e834e3a	0.2564562
204	0x3e3f0a27	0.18656217
205	0x3e5f85f0	0.21828437
206	0x3e061050	0.1309216
207	0x3e4f3b52	0.20237473
208	0x3ea53404	0.32266247
209	0x3e694582	0.22780421
210	0x3ea83168	0.32850194
211	0x3efa5c08	0.4889834
212	0x3e4095a3	0.18807082
213	0x3dc5941e	0.09647392
214	0x3e380475	0.1797045
215	0x3f738184	0.951195
216	0x3e687f75	0.22704871
217	0x3e42453b	0.18971722
218	0x3ec4b303	0.38417825
219	0x3e434048	0.1906749
220	0x3eafed60	0.3436079
221	0x3e81df8a	0.2536586
222	0x3e247bcb	0.16062848
223	0xbe1dbd4c	-0.15404242
224	0x3e3b19e2	0.18271592
225	0x3fb24307	1.3926705
226	0x3e635f03	0.22204213
227	0x3e5814cd	0.21101685
228	0x3e35adf7	0.17742144
229	0x3e2576f1	0.16158654
230	0x3ea7d16e	0.3277697
231	0x3e5dfcc1	0.21678449
232	0x3e3ac186	0.18237886
233	0x3e582345	0.21107204
234	0x3e25204e	0.16125605
235	0x3d9af0be	0.07565449
236	0x3f83fd1b	1.0311617
237	0x3e6b1358	0.22956598
238	0x3eaad5c6	0.3336622
239	0x3e06b261	0.13153984
240	0x3ed02a56	0.406573
241	0x3e57273f	0.21011065
242	0xbe16e1ee	-0.14734623
243	0x3e44f9ae	0.1923587
244	0x3e392bce	0.18083116
245	0x3ef463fb	0.4773253
246	0x3e21dd0b	0.15806977
247	0x3e63f51c	0.2226147
248	0x3c0e1af8	0.008673422
249	0x3ea1211d	0.31470576
250	0x3e5c240e	0.21498129
251	0x3ee1d1cc	0.44105375
252	0x3e58032e	0.21094963
253	0x3e8cb265	0.27479854
254	0x3eae972d	0.34099713
255	0x3e3bf2ad	0.18354292

bn1.bias f4 [256]
0	0x3c68b376	0.014202943
1	0x3dce7c12	0.10082258
2	0x3d1abe3f	0.03777909
3	0xbb02e98c	-0.001997563
4	0xbd0efa68	-0.034906775
5	0x3d4718db	0.04860769
6	0xbcc91109	-0.024544256
7	0x3df1b106	0.11801343
8	0x3d96f7f8	0.07371515
9	0x3d66b16f	0.056321558
10	0x3d653892	0.055962153
11	0x3a1b09f3	0.00059142633
12	0x3e498e07	0.19683085
13	0x3d3be170	0.04586929
14	0xbdc261b5	-0.094912924
15	0x3dbd3fc8	0.09240681
16	0x3ce8b7e9	0.028408008
17	0x3a8ca7cb	0.0010731159
18	0x3e3dfdc3	0.18553834
19	0x3e1034d8	0.14082658
20	0xbcf0de37	-0.029402835
21	0xbd3d7dbe	-0.046262495
22	0xbc4f178c	-0.012639891
23	0x3dc5b5d7	0.09653824
24	0x3d197b1b	0.03747092
25	0x3cd4c671	0.02597353
26	0x3bf0613e	0.007335811
27	0x3bd98658	0.0066383295
28	0x3cf300f8	0.029663548
29	0xbaeb5b8a	-0.0017956358
30	0xbcbd58de	-0.023113664
31	0x3dba0eb8	0.09084839
32	0xbd85f69b	-0.06541177
33	0xbc59d047	-0.013294286
34	0x3d0a9fc8	0.033843786
35	0x3d8bfbe7	0.06835156
36	0x3c78b6ea	0.015180329
37	0x3e96ea95	0.29475847
38	0x3d75ae9d	0.059980977
39	0x3dadc323	0.08484485
40	0x3d49c4b7	0.049259868
41	0x3c0eeb79	0.008723133
42	0xbc7ec60d	-0.015550149
43	0x3d4bede7	0.04978743
44	0xbd07b6e8	-0.033133417
45	0xbbdd477b	-0.006752906
46	0x3e456965	0.19278486
47	0x3d89b107	0.067232184
48	0x3df8a918	0.12141627
49	0x3df14ce1	0.117822416
50	0x3b65252e	0.0034964788
51	0x3ea4eb40	0.32210732
52	0xbc702d5a	-0.01465925
53	0x3b54fd86	0.0032499745
54	0xbd1ac16e	-0.037782125
55	0x3d58a86d	0.052895
56	0x3d8dff78	0.069334924
57	0x3ddfb956	0.10924022
58	0x3d933ae5	0.071889676
59	0x3e405eee	0.18786213
60	0x3ccacb3c	0.024755113
61	0x3cc2798e	0.023739602
62	0x3d725b62	0.05916918
63	0x3d845c10	0.06462872
64	0xbc5fac43	-0.01365191
65	0x3e0e9b9d	0.1392655
66	0x3d7e39aa	0.06206671
67	0x3d55ec33	0.05222721
68	0x3d2898e3	0.04116143
69	0x3ce48d5b	0.027899435
70	0x3df19286	0.11795525
71	0x3ce3b9ce	0.02779856
72	0x3e8caddf	0.27476403
73	0x3cae7007	0.021293653
74	0x3d02f3c6	0.03197076
75	0x3e548153	0.20752458
76	0x3d605426	0.05476775
77	0xbc3226af	-0.010873481
78	0xbc02b1e3	-0.007976982
79	0xbc908cbe	-0.017645236
80	0x3cd9ef38	0.026603326
81	0x3d41fa22	0.047357686
82	0x3dfad1a1	0.12247015
83	0x3cc6439e	0.024202164
84	0x3d815b8e	0.06316291
85	0x3c1dc71f	0.009629994
86	0x3c97c7ea	0.018527944
87	0x3d96ab51	0.07356895
88	0x3d463ef4	0.04839988
89	0x3d5bfe69	0.05370942
90	0x3d86726b	0.06564792
91	0x3d9e6f30	0.07736051
92	0x3d796732	0.06088943
93	0x3d7f0224	0.0622579
94	0x3eabebe3	0.33578405
95	0x3e15925e	0.14606616
96	0x3d6f5242	0.058428057
97	0xbd44c57b	-0.048039895
98	0x3d53a793	0.051673483
99	0x3e39bc65	0.18138273
100	0x3ce6b142	0.028160695
101	0xbe5ba624	-0.21450096
102	0x3dd65497	0.10465353
103	0x3c5acd74	0.013354648
104	0x3e1a19d0	0.15048909
105	0x3dcfd32e	0.10147701
106	0x3ca5fe90	0.020262986
107	0x3db2dc71	0.08733452
108	0x3dd50415	0.10401169
109	0xbb720213	-0.0036927506
110	0x3e1200eb	0.14258163
111	0x3ceeaa97	0.029134078
112	0xbc976cd6	-0.018484514
113	0x3e010cf3	0.12602596
114	0x3df8e2ff	0.12152671
115	0x3c9b015b	0.018921545
116	0x3c16e589	0.009209999
117	0x3cc42512	0.023943458
118	0x3da091b0	0.07840288
119	0x3e22f31c	0.15913051
120	0xbc5b2b3e	-0.013377009
121	0x3dbdf999	0.092761226
122	0x3e64a30b	0.22327821
123	0xbb2cf8f4	-0.0026393505
124	0x3d3d7199	0.046250913
125	0x3d47274f	0.048621472
126	0x3bf1b344	0.0073761065
127	0x3c02e13d	0.007988271
128	0x3e6795f4	0.22615796
129	0xbb5e52ae	-0.0033923793
130	0x3ead0dc7	0.33799574
131	0x3d910e60	0.0708282
132	0x3ef09860	0.46991253
133	0x3d34b7c9	0.044120584
134	0x3b5affd0	0.0033416636
135	0x3dcc7d8b	0.09984883
136	0xbd9cbc59	-0.07653112
137	0x3d4873bb	0.048938494
138	0xbde815d3	-0.11332288
139	0x3ca3bcd6	0.019987505
140	0x3d49f7c6	0.04930856
141	0x3dfef875	0.12449733
142	0x3dc9a74e	0.09846364
143	0x3e51c6ca	0.20485988
144	0x3c256c44	0.010096613
145	0x3dd9bda3	0.106318735
146	0x3cf19cd5	0.029493729
147	0x3e77d374	0.24201757
148	0x3d57833d	0.052615393
149	0xbd94eeec	-0.07272133
150	0xbb4e8f76	-0.0031518615
151	0x3d01e4e4	0.031712428
152	0x3d8f37b7	0.06993049
153	0x3dde32ef	0.108495586
154	0x3c6a202a	0.014289895
155	0x3da4e9f4	0.080524355
156	0xbd509554	-0.05092366
157	0x3ca596a2	0.020213429
158	0x3db92dce	0.0904194
159	0x3d1aa1a7	0.03775182
160	0xbd88576d	-0.066573
161	0xbd5e4cc4	-0.05427243
162	0x3d763766	0.060111426
163	0x3d2464d5	0.040135223
164	0xbbc6946d	-0.006060174
165	0xbbae979f	-0.0053281332
166	0x3d3c53e6	0.04597845
167	0x3d97c69e	0.0741093
168	0x3d1d4f4e	0.03840571
169	0xbd8bb1f7	-0.068210535
170	0x3d8f69dd	0.07002614
171	0x3da2cdd0	0.07949412
172	0x3c5e253c	0.013558682
173	0x3c835bcd	0.016034985
174	0x3da03602	0.07822801
175	0x3a8669a2	0.001025487
176	0xbdc00509	-0.093759604
177	0x3e680cd8	0.2266115
178	0x3d3357cc	0.0437849
179	0x3e321fab	0.17394893
180	0xbc2770ff	-0.010219811
181	0x3dc601c7	0.09668308
182	0x3bda6675	0.006665046
183	0xbdba7b20	-0.091055155
184	0x3e492a5c	0.19645065
185	0xb99b52ab	-0.00029625496
186	0x3aab7a83	0.0013082776
187	0x3d06da82	0.03292323
188	0x3d74c9fe	0.059762947
189	0x3c25ecbd	0.010127244
190	0x3d85bb8f	0.065299146
191	0x3ca324ef	0.019915072
192	0xbd9cdfc5	-0.07659868
193	0x3d2e4e9f	0.042555448
194	0x3cedd417	0.029031796
195	0xbc2af095	-0.010433336
196	0x3d5a9bf6	0.053371392
197	0x3d5707f0	0.052497804
198	0x3dd57d96	0.10424344
199	0x3dfb8465	0.12281112
200	0x3d34c300	0.04413128
201	0x3c6e2e5a	0.014537418
202	0x3e0add5a	0.13561001
203	0x3d39bee4	0.045348063
204	0x3d5d938a	0.054095782
205	0x3d7fbd5d	0.06243645
206	0xbb562bd0	-0.0032679923
207	0x3cf62ce3	0.0300507
208	0x3de1036e	0.10986982
209	0x3d834452	0.064095154
210	0x3dd070a7	0.10177737
211	0x3e02a4ad	0.12758131
212	0x3b3aa47c	0.0028479388
213	0xbbf1c7f7	-0.007378574
214	0xbd9ba8d5	-0.076005615
215	0x3e927526	0.28605002
216	0x3dee744e	0.11643277
217	0x3bf42738	0.0074509643
218	0x3e3b7c1d	0.18309064
219	0x3d2a1b1d	0.041529763
220	0x3de8bac1	0.113637455
221	0xbd98211b	-0.07428189
222	0x3d5b0dab	0.05347983
223	0xbd13222f	-0.035921272
224	0xbbcc6616	-0.0062377555
225	0x3edbc2f1	0.42922166
226	0xbc18f407	-0.009335524
227	0x3dcfb0f2	0.101411715
228	0x39861314	0.00025572686
229	0x3c93ebe6	0.018056821
230	0x3e35bb40	0.17747211
231	0x3d08d587	0.03340676
232	0x3d3b4ffb	0.045730572
233	0x3d3fbbe0	0.04681003
234	0x3d1dc8c0	0.03852153
235	0xbbdefb10	-0.0068048313
236	0x3dc3028c	0.0952197
237	0x3d60971a	0.0548316
238	0x3deaf8f7	0.114732675
239	0x3ce7d90d	0.02830174
240	0xbd8ff3fb	-0.070289575
241	0x3d8c77c1	0.06858779
242	0xbb108aff	-0.0022055504
243	0x3c8b1b15	0.016980687
244	0x3d03b96e	0.03215926
245	0x3d5aaa7f	0.053385254
246	0x3ce1f1b2	0.02758107
247	0xbb3e53f1	-0.0029041732
248	0x3c2e1be8	0.010626771
249	0x3de7efac	0.11325011
250	0x3df23667	0.11826783
251	0x3e8c647b	0.2742041
252	0x3cb4349f	0.021997748
253	0xbd274887	-0.04084065
254	0x3e3a42a5	0.18189485
255	0x3d2f60ad	0.042816807
