checkpoint_actor_0.pth (torch_old, 163751 bytes, 10 tensors)

fc1.weight f4 [256, 24]
000000 82 f0 c2 3e 89 72 ad 3d 89 d7 41 bd 35 51 33 3e
       0.38074118 0.084691115 -0.04732469 0.17511447
000010 af 11 dc 3f 40 7d f8 be 18 3a 91 bd 05 38 32 3e
       1.7192897 -0.48533058 -0.07091159 0.17404182
000020 20 f2 30 3f 1a 80 d5 3d be 32 b8 3d 65 49 c1 be
       0.69119453 0.10424824 0.08994053 -0.37751308
000030 18 96 9f 3f 68 6a bd be 57 94 8a 3c 87 d1 92 be
       1.246768 -0.36995244 0.016916437 -0.28675482
000040 ba b4 3c 3f d7 9b e7 ba 3a 0e 98 bd df 68 2a be
       0.73713267 -0.0017670345 -0.074245885 -0.16641568
000050 e7 21 15 3f c1 9e 03 3f 81 e3 a9 bc e2 f1 00 be
       0.58254856 0.51414114 -0.020738365 -0.12592271
000060 90 49 83 3f aa 4e 80 3e 0a 00 13 be 88 99 05 3f
       1.0256824 0.25060016 -0.14355484 0.52187395
000070 02 77 e2 be 47 98 35 3e 77 f2 42 be 23 7c 17 3f
       -0.4423142 0.1773387 -0.19037805 0.5917379
000080 ea 9f 19 3f db 89 36 be da ca 0c be eb 5f da 3d
       0.60009634 -0.17826025 -0.13749257 0.10662826
000090 95 d3 79 bf 27 9a c9 3e 4d fb c4 bd f5 53 85 3d
       -0.97588474 0.3937542 -0.09618244 0.06510154
0000a0 9a bb 57 3f 03 74 e1 3d b6 3a 3b be aa 58 eb 3e
       0.8427063 0.110084556 -0.18284115 0.45966083
0000b0 22 39 4d bf 19 74 0a be 33 0e 24 be a2 fb ff 3e
       -0.801653 -0.1352085 -0.16021042 0.49996668
0000c0 e8 80 f7 3c ec 4a 66 bf 25 d4 91 3d 56 06 28 bf
       0.030212834 -0.8995807 0.071205415 -0.6563467
0000d0 a9 55 34 bf ad e3 10 bf 46 62 10 3e d6 49 2b bf
       -0.7044321 -0.56597406 0.14099988 -0.6690954
0000e0 fe f5 ca 3e b5 a4 55 bf 26 3e 97 3e bb d8 e8 be
       0.39640802 -0.8345445 0.29539603 -0.45477852
0000f0 f4 1c fc be 5d 1d 04 bf 7c 0a 85 3e 45 3c c6 be
       -0.4924084 -0.51607305 0.2598456 -0.38717857
000100 d2 3e 87 3f 6a 7a 7c bf a6 f9 7a 3e bf b1 1c be
       1.0566046 -0.9862429 0.24509296 -0.1530218
000110 85 3b 14 be 8d 28 09 bf ee 25 62 3e bf 40 82 be
       -0.1447583 -0.535775 0.22084782 -0.25440022
000120 ca 5e b9 bc e8 c3 66 3f ae fa c3 3d 07 c9 b9 be
       -0.022628207 0.9014268 0.09569298 -0.36286184
000130 6c 88 08 bd 12 94 60 bf f7 de 8a 3c ef e3 c0 be
       -0.033333227 -0.8772594 0.016952021 -0.376739
000140 0b 48 a9 3e 65 35 9c 3f 75 cd 41 bd 15 27 8e be
       0.33062777 1.2203795 -0.04731508 -0.27764192
000150 b0 7b 8c 3e 35 a0 2d bf 07 0b 93 bd c0 65 ae be
       0.27438116 -0.6782258 -0.07179838 -0.34062004
000160 02 f8 ea 3e 2d 05 2a 3f 18 f8 3e be 7e c0 b9 bf
       0.4589234 0.6641415 -0.18649328 -1.4511869
000170 f4 73 65 3e f1 ed 1b 3e a9 21 47 be c4 f3 ab bf
       0.22407514 0.15227486 -0.19446434 -1.3433766
000180 58 39 91 3f bc 15 3e bd 64 31 1f 3e 2c 4c 27 bf
       1.1345625 -0.046407446 0.15546185 -0.65350604
000190 1b 7d b4 3e df 5a 3e bf e0 72 14 3e 64 30 26 bf
       0.35251698 -0.7435741 0.14496946 -0.6491759
0001a0 09 5d b4 3f 81 dc 4f be a1 36 08 3d 5e 1e 12 bf
       1.4090892 -0.2029896 0.033255223 -0.57077587
0001b0 23 5d 40 3e ff 21 10 bf ea 02 36 bb af 18 18 bf
       0.18785529 -0.56301874 -0.0027772733 -0.59412664
0001c0 bb 52 b1 3f 43 2e 25 be 5c a4 8d bd 59 71 38 bf
       1.3853372 -0.16130929 -0.06916115 -0.72047955
0001d0 76 b0 8a 3d 60 07 6c be b3 df a3 bc 2e e0 42 bf
       0.067719385 -0.23049688 -0.020004129 -0.7612332
0001e0 33 3e 18 3f d3 f4 7f 3e a5 f1 25 be 93 a2 0f 3f
       0.5946991 0.24995737 -0.16205461 0.56107444
0001f0 4f 3c cc bc a3 7a b9 bf d7 9e 18 be c5 ac 0e 3f
       -0.024931101 -1.4490551 -0.14904343 0.55732375
000200 82 60 c0 3e 6d 8c 3a 3e d9 41 8d be 67 b3 80 3e
       0.3757363 0.1821763 -0.275893 0.25136873
000210 d9 8a d3 3e ce d1 26 3e 9c 13 c3 be 0c 97 89 3e
       0.4131687 0.16290972 -0.38100898 0.26873052
000220 77 86 2d 3f 80 d2 2b 3f 96 33 85 3c a7 74 f4 3e
       0.677833 0.6711807 0.01625995 0.4774525
000230 86 c2 0e 3f 6a 74 71 3f fb c0 3f bc 91 3c 02 3f
       0.5576557 0.9431826 -0.011703725 0.50873667
000240 18 c1 21 3d 71 01 73 bf 91 72 59 be 54 7b bb 3d
       0.03949079 -0.94924074 -0.2123511 0.09154382
000250 c2 b9 c2 3e 57 e1 9b bf 3e de 14 be 5d 9f 9c 3d
       0.38032347 -1.2178143 -0.14537904 0.07647584
000260 8d ad 33 be fe 64 8a bf b9 cb 87 be 86 42 96 3e
       -0.17546673 -1.081207 -0.26522616 0.29347628
000270 f2 3e 29 3f 3e 7e 96 bd b5 19 8c be 54 2a c0 3e
       0.6611167 -0.073482975 -0.27363363 0.37532294
000280 69 04 42 be 99 eb 85 bf 14 f5 61 be 68 f8 3f 3e
       -0.18946995 -1.0462524 -0.22066146 0.18747103
000290 ea 35 9d 3f 1e e9 19 3f 00 36 4b be 05 aa 62 3e
       1.2282078 0.60121334 -0.19844818 0.2213517
0002a0 72 cc 84 3d 28 5c 23 40 ae 1a 58 bd 4d e8 5b be
       0.06484307 2.5524998 -0.05275982 -0.21475334
0002b0 d7 77 d1 ba dd 82 37 be 93 9a 6e bd bd ec 86 be
       -0.001598115 -0.17921014 -0.058252882 -0.26352492
0002c0 5a 42 9f 3d 0e 6a 13 40 ac fb 51 be 2c 92 aa 3d
       0.077763274 2.303348 -0.20506161 0.08328661
0002d0 a4 0b b6 3e a6 08 36 bf 42 55 32 be c3 f3 13 3e
       0.35555756 -0.71106946 -0.17415336 0.14448456
0002e0 2c 87 89 3c ee 25 fa 3f 23 3d 9d 3c 06 fc 32 bf
       0.016788088 1.9542825 0.019194191 -0.6991581
0002f0 fb 06 29 3f fe cb 93 bf d0 fe 36 3d f6 71 32 bf
       0.66026276 -1.1546628 0.044676602 -0.6970514
000300 5f 34 67 3f 9a fe 8c 3c 5e 14 b9 bc 73 d1 96 3d
       0.90314287 0.017211247 -0.02259272 0.07364168
000310 83 c5 13 3f f0 15 5b bf 88 20 c3 3c 4a ec 48 3d
       0.57723254 -0.8558035 0.023819223 0.049053468
000320 da df 19 3f 7a df b9 3b 68 a1 4f be c6 3f 42 be
       0.60107195 0.0056723924 -0.20276415 -0.1896964
000330 35 5a 48 3f 81 b7 8a bf fa a2 0d be 94 ed 98 bd
       0.78262645 -1.0837251 -0.13831702 -0.074671894
000340 00 bb 45 3f 87 f0 76 bd 40 0c 1e 3e 0e 97 94 be
       0.77238464 -0.06028798 0.1543436 -0.29021496
000350 e7 cf 57 3f 48 2b 43 bf c6 65 be 3d c7 ab b8 be
       0.8430161 -0.76237917 0.092967555 -0.36068556
000360 c3 6e d3 3d 7b f3 8d bd 97 32 89 3e e3 17 bf bd
       0.103238605 -0.06931206 0.2679641 -0.09330728
000370 05 22 33 3f 95 e1 da be 9f 7e 68 3e e7 d4 c0 bd
       0.69973785 -0.4275023 0.22704552 -0.09415608
000380 73 6f e0 3d f8 69 7b 3c 41 f1 c5 be 43 ac a9 be
       0.10958757 0.015345089 -0.38660625 -0.33139238
000390 d4 02 01 3f d6 6e 98 bf 08 66 c3 be 80 42 9a be
       0.5039494 -1.1908824 -0.3816378 -0.3012886
0003a0 4e 6a 11 bc 5f f4 0f bc d2 16 01 3c a0 ae 97 bd
       -0.008875443 -0.00878629 0.007878976 -0.07406354
0003b0 20 b9 c9 3e 5e bd e1 bf 6d 76 8a 3d 6f 37 ff bc
       0.39399052 -1.7635915 0.06760869 -0.031154362
0003c0 13 ae ae 3f 00 72 c5 3e f4 be de bc 99 79 91 bf
       1.3646873 0.38563538 -0.027190663 -1.1365234
0003d0 55 63 6c 3e c4 09 8c be 7f d9 0a bd 67 65 8c bf
       0.23084767 -0.273512 -0.033898827 -1.0968446
0003e0 90 02 d2 3e 48 8d 41 bf 09 38 f0 3c 7b f7 48 be
       0.4101758 -0.75606203 0.029323595 -0.19625656
0003f0 11 e8 b1 3e 4f e9 42 3f 61 7a 61 3d a1 a5 39 be
       0.34747365 0.7613725 0.05504835 -0.18129589

fc1.bias f4 [256]
000000 f5 ee 8c bf 68 4e 14 be f3 0b 4d bf a4 e0 1a bf
       -1.1010424 -0.14483035 -0.8009636 -0.60499024
000010 05 ae 22 bf 8c 77 b7 bf 1d d9 0a bf c4 03 57 be
       -0.6354678 -1.4333358 -0.5423754 -0.2099753
000020 26 3f 9c be 13 a8 42 bf c1 fa e3 bd 14 ee ee be
       -0.30516928 -0.7603771 -0.11131812 -0.46666014
000030 5f 65 87 be 2f c9 69 bf ad a6 46 bf 46 d6 0b bf
       -0.26444528 -0.91322607 -0.7759808 -0.5462383
000040 e1 cd 00 bf b6 d6 96 3e 70 f4 08 bf 1e 67 16 bf
       -0.50314146 0.29460686 -0.5349798 -0.58751094
000050 e5 69 6b 3e ff 5e 5e bf bb 10 60 bf 2a 6f 6f 3e
       0.22989614 -0.868637 -0.8752553 0.2338225
000060 73 21 bc be ba e7 e8 be f2 5b 30 bf 66 4d 2d bf
       -0.3674427 -0.45489293 -0.688903 -0.67696226
000070 22 33 5d bf ae f6 9c bf e9 c7 da be fc 51 3e bf
       -0.8640615 -1.2262781 -0.42730644 -0.7434385
000080 51 1a 61 bf 9d 26 18 bf 48 2a 83 bf 86 16 c5 be
       -0.8793078 -0.5943392 -1.0247278 -0.38493747
000090 b8 05 a0 bf 97 d5 1c bf c1 1b 78 bf fb 71 ba be
       -1.2501745 -0.6126341 -0.9691735 -0.36415085
0000a0 21 9d 89 bf b8 3c 3d bf f0 3e 63 be 55 3c 2e bf
       -1.0751077 -0.73920774 -0.22191978 -0.6806081
0000b0 93 88 23 be c8 24 5f bf 0c fc 7b be 24 f6 ae bf
       -0.15970068 -0.871655 -0.24607867 -1.3668866
0000c0 f6 e3 68 bf d5 ec 42 bf 40 66 b5 bf 50 a3 96 be
       -0.9097284 -0.76142627 -1.4171829 -0.29421473
0000d0 66 5e 74 bf e7 a3 9f bf 0a 91 8a bf 29 a6 78 bf
       -0.9545654 -1.2471894 -1.0825512 -0.9712854
0000e0 d6 d7 3e bf fc 9c a1 bf 3e d0 5f bf 96 ec 79 bf
       -0.7454809 -1.2626033 -0.8742713 -0.97626626
0000f0 ba 41 43 bf e9 9a 01 bf f0 66 f9 be 11 7d 0a bf
       -0.76272166 -0.50627 -0.48711348 -0.54097086
000100 14 f3 d4 be 2f 25 0c bf d4 2e b2 bf 31 6a 9a bf
       -0.41591704 -0.5474424 -1.3920541 -1.2063657
000110 ba 1e 1d bf cd 9a af be a4 34 92 bf f6 d4 53 bf
       -0.6137501 -0.3429779 -1.1422315 -0.8274683
000120 c7 94 26 bf e0 a6 1e bf 41 c2 1d bf de 21 b1 be
       -0.65070766 -0.6197338 -0.6162453 -0.3459615
000130 28 96 bf be 6b 77 1b 3e ac a9 3b bf 9c 11 39 bf
       -0.37419248 0.15182273 -0.73305774 -0.72292495
000140 04 ea 11 bf 03 18 2b bf 71 fc 82 bf 49 e9 c4 bf
       -0.56997705 -0.66833514 -1.0233289 -1.5383693
000150 74 5b 91 be 0b f6 35 bf 6e 38 92 bf 50 2a c2 be
       -0.28390086 -0.71078557 -1.1423471 -0.37922907
000160 84 74 ff be 60 0b 02 bf 30 f2 b2 be 36 54 f8 be
       -0.49893582 -0.50798607 -0.349504 -0.48501748
000170 99 7a 9d bf 6e ee 16 bf b0 7c 5d bf ca 07 62 bf
       -1.2303039 -0.58957565 -0.86518383 -0.88293135
000180 4c fc 43 be f6 ad 2c bf f6 c1 d9 be ca a6 d2 be
       -0.19139212 -0.67452943 -0.42530793 -0.41142875
000190 aa e0 38 be 0f 38 de be 3c d9 1c bf d0 a8 6e bf
       -0.18054453 -0.43402144 -0.61268973 -0.9322634
0001a0 f7 aa 85 bf c7 a0 43 bd e3 3b 63 bf 3d e1 85 be
       -1.0442799 -0.04776075 -0.88763255 -0.26148406
0001b0 e1 18 c0 bf c2 56 1e bf 9c 15 aa bf 31 8a 44 bf
       -1.5007592 -0.6185113 -1.3287845 -0.76773363
0001c0 58 35 8e bf 86 67 8e bf 37 b8 37 bf ed 81 8f bf
       -1.1110029 -1.1125343 -0.71765465 -1.1211525
0001d0 6d e6 49 bf b2 90 a2 bf 18 a4 9b bf c8 b8 70 bf
       -0.78867227 -1.2700408 -1.2159452 -0.94031954
0001e0 1b 04 96 bf db 0c ee bd e0 97 00 be 98 b5 53 bf
       -1.1720003 -0.11623546 -0.12557936 -0.82698965
0001f0 35 99 63 be 13 0f 38 3e a7 63 5e be ec 6d 99 bf
       -0.22226413 0.179745 -0.21717702 -1.198667
000200 d3 76 d7 be 3d ab 20 bf f0 32 07 bf 60 d6 3a bf
       -0.42082843 -0.6276129 -0.528121 -0.7298336
000210 e9 a5 19 bf 9b 8a ab be 26 40 2c bf 9a 47 0b bf
       -0.60018784 -0.33504185 -0.6728538 -0.5440613
000220 9e d1 a4 bf dd a0 a4 be a7 80 20 bf e9 dc ef bd
       -1.287647 -0.3215398 -0.6269631 -0.11712057
000230 84 83 87 bf a8 fe 7a bf 11 89 0a bf 2b d0 07 bf
       -1.058701 -0.98044825 -0.54115397 -0.53052014
000240 5c 66 42 bf a7 29 54 bf 7e 0e 5e bf 24 fa a9 3d
       -0.7593744 -0.82876056 -0.86740863 0.08299664
000250 ca 2b 69 be 92 2f 3c bf 71 d5 4f be ad d2 be bf
       -0.2277061 -0.73510087 -0.20296265 -1.4908043
000260 3c b5 66 bf b6 2b 98 bf 43 9a 16 bf c0 5b b0 3c
       -0.9012029 -1.188834 -0.58829135 0.021528125
000270 96 42 9a be 08 9e 7e bf cf 90 a9 bf 94 95 09 be
       -0.30128926 -0.99459887 -1.3247317 -0.13435966
000280 fb 30 24 bf 91 ce e2 be 1c fc 8d bf cb 8c 56 bf
       -0.6413724 -0.44298223 -1.1092563 -0.83808583
000290 77 d7 00 bf ff 05 3e bf f2 dd 6d bf ce 79 0e be
       -0.50328773 -0.742279 -0.92916787 -0.13913652
0002a0 82 24 ab bf bb b7 b2 be 7e 37 8c bf 57 a9 a0 bf
       -1.3370516 -0.349058 -1.0954435 -1.2551678
0002b0 06 e5 9c bf 59 32 2d bf 95 ef 94 bf f2 64 f1 3d
       -1.2257392 -0.6765495 -1.1635615 0.11786832
0002c0 e9 f9 a7 bf f8 6a a5 be ce 22 76 bf 0c c7 f7 be
       -1.3123142 -0.32308173 -0.9614686 -0.48394048
0002d0 c3 4f 0e bf 7b c2 4e be d7 2d 47 be a0 6c 1c bf
       -0.55590457 -0.20191376 -0.1945108 -0.6110325
0002e0 77 b9 31 bf c4 bf af bf 5f 7e b4 bf 69 02 92 bf
       -0.6942362 -1.3730397 -1.4101065 -1.1406986
0002f0 ea c3 df 3e a7 68 6f 3e b8 16 5f bf a1 53 14 3e
       0.43704158 0.23379765 -0.8714404 0.14485027
000300 3e 89 24 bf 95 35 a8 bf 52 a7 04 3e 8c 5d 5c bf
       -0.64271915 -1.3141352 0.12954453 -0.8608024
000310 51 29 27 bf 8b d0 55 bf 8e 4d 73 be 1a 4b 09 bf
       -0.6529742 -0.83521336 -0.23760054 -0.5363022
000320 33 d4 bd bf 79 7c 4a bf 70 53 4c bf 34 23 17 bf
       -1.4830383 -0.7909618 -0.79814816 -0.5903809
000330 a0 42 eb be d0 ce ec be 32 b7 8c bf c2 0a 7e 3d
       -0.45949268 -0.46251535 -1.0993407 0.06202198
000340 24 8f 90 3e f6 53 60 bf 64 39 90 bf 56 9e 19 be
       0.28234208 -0.87628114 -1.1267514 -0.15001807
000350 aa 14 30 bf 48 d4 14 bf df e1 81 bf fb 70 2f bf
       -0.6878153 -0.58136415 -1.0147055 -0.6853177
000360 d1 2e af 3d 90 69 04 be 1d f8 15 bf e4 ee 4a bf
       0.085538514 -0.12930894 -0.58581716 -0.7927077
000370 94 4d 70 bf 02 80 ab be 21 2d 89 bc 41 bd f4 be
       -0.93868375 -0.334961 -0.016745152 -0.4780064
000380 ba 2f c2 bf 8e 09 cf be 74 55 4e 3e 31 98 86 bf
       -1.5170815 -0.40436977 0.20149785 -1.0515195
000390 bc c5 00 bf 6f c6 80 bf d8 cc 41 be ef 47 85 bf
       -0.5030172 -1.0060557 -0.18925798 -1.0412577
0003a0 de bf 8a bf f7 cb 0a bf 14 f7 09 c0 c4 23 83 bf
       -1.0839803 -0.54217476 -2.1557055 -1.024529
0003b0 de 0f a5 bf 7e 8b 9e bf 5e 4f 51 be d8 7e d8 be
       -1.2895467 -1.238632 -0.20440432 -0.42284274
0003c0 12 48 8a bf fe 78 5c bf ee dc 95 be e9 c9 97 be
       -1.0803244 -0.8612212 -0.29270118 -0.29646233
0003d0 93 7e a6 bf e9 0b 20 bf 31 16 90 bf 54 40 50 bf
       -1.3007377 -0.62518173 -1.1256772 -0.81348157
0003e0 49 09 9b bf 7f 6a cb be e6 f3 3c bf 1e 9b 16 bf
       -1.2112209 -0.39729688 -0.7380966 -0.5883044
0003f0 6e 14 d1 be 2b 8e 0f bf c5 65 a6 bf 08 04 0f bf
       -0.408359 -0.56076306 -1.2999808 -0.55865526

fc2.weight f4 [128, 256]
000000 2d f6 3b be 2c 9c ae be d2 84 6f 3e c7 a1 82 bd
       -0.18355627 -0.34103525 0.2339051 -0.06378513
000010 92 0b ce be 08 3c 37 bd fa 8d 34 be 71 45 b5 3c
       -0.40243202 -0.044734985 -0.17632285 0.022127839
000020 4e b9 4a be 5e 43 d8 3e 82 2e d0 be 0b d4 70 3f
       -0.1979725 0.42238897 -0.40660483 0.9407355
000030 c2 ca a9 be 94 cf a9 3e 6c b8 09 bd a2 a2 bd be
       -0.33162504 0.33166182 -0.033623144 -0.3703814
000040 cf a4 ba be 7d d6 85 bc 70 bb 06 bf ba 85 0f bc
       -0.36453864 -0.016337628 -0.52629757 -0.00875991
000050 89 f0 5e bf 3d db f2 bd 91 94 c5 3e 89 ac c9 be
       -0.8708578 -0.11858223 0.3858991 -0.39389446
000060 d7 8c 50 bf 60 7a fa 3e fa 7a 69 be 74 e4 22 3f
       -0.81464905 0.4892149 -0.22800818 0.6362984
000070 d8 87 93 be b8 1b 07 3f 47 ff 19 bf 2b 21 5d bf
       -0.28814578 0.5277667 -0.6015515 -0.86378735
000080 1b 04 e1 be 59 c6 cb be b9 96 3b 3e ef a8 98 3e
       -0.43948445 -0.39799765 0.18319215 0.29816386
000090 87 de 71 3f 9e 9c ce 3e cc bf 8f 3e eb 4e b9 bc
       0.94480175 0.40353864 0.28076017 -0.022620639
0000a0 48 08 6e be 4d ba e0 3e cd c3 5a bb 2c a7 30 3f
       -0.23245347 0.43892136 -0.0033380867 0.69005084
0000b0 51 35 26 bf 25 a0 b7 be 84 d4 fb 3d b8 75 f3 bd
       -0.64925104 -0.35864368 0.122963935 -0.118876874
0000c0 84 0c 68 3e c8 ca 6b 3f ca 1b 47 3e 81 a6 bc bd
       0.22661024 0.92106295 0.19444194 -0.092114456
0000d0 9e 21 07 3f 02 4b 7d bf 32 e1 dc 3e 4d 6c 0d bf
       0.5278567 -0.9894258 0.4314056 -0.5524338
0000e0 57 c5 19 3d de 68 a6 3e 35 71 46 bf 3c dd 12 bf
       0.037541714 0.32501882 -0.7751649 -0.57368827
0000f0 a2 42 8c 3e ab d7 53 bf ac ed 8c 3d 98 df a5 3b
       0.27394587 -0.8275096 0.0688127 0.005062055
000100 37 f5 a2 3d 9f f0 64 bf 21 e1 34 bf 5f 7b 8b bd
       0.07956927 -0.8942966 -0.7065602 -0.068106405
000110 47 4b a1 3e 2d 31 81 bd fc 0a 0c 3f 0c 7c 22 3f
       0.31502745 -0.06308208 0.5470426 0.6347053
000120 3f 8b 88 3e dc 09 3f 3e 54 81 1e 3f a9 4a 1f 3e
       0.26668736 0.18656105 0.6191609 0.15555824
000130 e6 df c6 3d 5a eb 30 bf 98 16 ac 3d 1e 61 3f bf
       0.09710674 -0.6910912 0.08402747 -0.74757564
000140 19 89 64 3f 9c 56 dc be 29 6f 78 bd 82 f9 b9 3e
       0.89271694 -0.43034828 -0.060652886 0.36323172
000150 3f 2f a9 3e 6f 70 2a 3e df 55 fa 3d bd 0f 19 bf
       0.33043858 0.16644453 0.1222341 -0.5978964
000160 68 ac 0d bf 33 f5 2d 3f aa 3c 10 3f 96 87 c3 be
       -0.55341196 0.6795227 0.56342566 -0.3818938
000170 41 dd 39 3f 4a 1e 91 be 75 8e 11 bf 78 72 7d be
       0.7260323 -0.2834342 -0.56858 -0.24750698
000180 88 27 64 bf 19 47 e4 be fc 2b dd bd bd 6a 08 bf
       -0.8912282 -0.44585493 -0.10799405 -0.5328787
000190 5d c3 91 be cf 2f 26 be 37 f3 ad 3e 5e 85 2d 3f
       -0.28469363 -0.16229175 0.3397462 0.6778163
0001a0 ca aa 4a 3f 87 58 97 3e 3f 86 b9 3e 77 55 12 3c
       0.79166853 0.29559729 0.36235234 0.008931509
0001b0 03 81 89 3e 0b 17 e7 3e e6 42 68 3f d8 6d 0b bf
       0.2685624 0.45134768 0.9072708 -0.54464483
0001c0 95 bb 25 bd dc 68 1a bf df bf 84 3f 6b 0e cc 3e
       -0.040462095 -0.6031625 1.0371054 0.3985475
0001d0 dd 73 5c 3d f9 ee 17 3f db 11 f7 bd 9f 29 39 be
       0.053821433 0.5934902 -0.120639525 -0.18082283
0001e0 87 04 0d be 1c 05 12 3e 38 eb 0d bf 56 14 12 bf
       -0.13771258 0.14259762 -0.5543704 -0.5706228
0001f0 f2 68 00 3f 24 86 71 be 59 d2 54 be c0 27 fa be
       0.50160134 -0.23586327 -0.20783366 -0.48858452
000200 27 1c 81 be 9a 32 91 be f8 8b 33 3e 32 f7 05 3e
       -0.2521679 -0.28358918 0.17533863 0.13082579
000210 a1 5c 7a 3d 76 cd 9b be 14 49 78 bd 4d 98 b5 be
       0.061123494 -0.30430192 -0.060616568 -0.3546776
000220 c6 5e b2 3e 02 e9 d9 be 38 8d 13 37 17 90 96 be
       0.3483793 -0.42560583 8.794763e-06 -0.29406807
000230 f3 dc fc be f1 81 e3 be 1f 97 93 be ba 34 42 be
       -0.4938732 -0.44435075 -0.28826234 -0.18965426
000240 f9 b3 dc 3d 5a cf a5 be 9e 54 28 3f 57 d3 a9 be
       0.107765146 -0.3238476 0.65754116 -0.33169052
000250 8a 27 19 bf 48 12 99 bd 66 e6 d7 3e a9 b2 f2 be
       -0.59825957 -0.0747419 0.42167968 -0.47401932
000260 43 8d 61 3d 55 00 16 3f fb 0f d9 3b c8 0b 6e 3e
       0.05506636 0.58594257 0.0066242195 0.23246682
000270 03 08 d9 be b4 4f fc be fa c7 ad 3d e8 7a e1 bd
       -0.42388925 -0.4927956 0.08485408 -0.11009771
000280 3e b0 bd bd 7e 6e 99 bf 12 e7 a3 be 1c 50 7e be
       -0.09262131 -1.1986845 -0.3201223 -0.24835247
000290 d0 d0 04 3f 0a ae a5 3e 98 34 af be f2 22 f0 bd
       0.5188112 0.32359344 -0.34219813 -0.11725415
0002a0 df 72 0e bf b7 eb 9f 3e 94 d7 ea be 55 c5 a3 3e
       -0.5564403 0.31234524 -0.45867598 0.3198649
0002b0 25 c0 15 3f 18 ef 3d bd 61 75 78 bf 6f 37 49 3f
       0.58496314 -0.046370596 -0.97054106 0.7860021
0002c0 75 58 a0 3d 08 a5 f8 be 24 e4 fe be cf 37 98 bd
       0.07829372 -0.4856341 -0.49783432 -0.0743252
0002d0 37 e4 cc 3e 56 d5 24 bf 61 84 71 3f d2 cb 9b bf
       0.40017864 -0.64388025 0.9434262 -1.2171576
0002e0 c2 bf 07 3e 70 f6 4b be 14 bb 26 3e 9d fb 08 3f
       0.13256744 -0.19918227 0.16282302 0.5350893
0002f0 66 aa d2 be 30 ab 1c be f4 2e 74 3e 4c 1c df bd
       -0.4114563 -0.15299678 0.23846036 -0.10894069
000300 e5 4a 7a be 90 14 47 3e 6a 88 c3 3c d5 a7 fd be
       -0.24442632 0.19441438 0.023868758 -0.49542108
000310 cd 5c 9f bc f5 7d 6e 3d c0 50 f1 be 63 7d b0 bf
       -0.01945343 0.05822559 -0.4713192 -1.3788265
000320 1d 26 32 bc d9 a7 c6 3e 66 74 1d 3f 4f 2c fa 3d
       -0.010873345 0.38799933 0.61505735 0.122154824
000330 d0 05 31 be 60 5c db be de 3c 3c 3e e3 d0 c8 bd
       -0.17287374 -0.42843914 0.18382594 -0.09805467
000340 e3 f5 34 bf b8 31 4f bf 07 f0 89 bf 25 01 c8 be
       -0.70687693 -0.8093524 -1.0776376 -0.39063373
000350 3c ab 24 3f 44 b4 18 be ba 8b f6 be 2a 20 33 bf
       0.6432378 -0.14912516 -0.48153478 -0.69970953
000360 0b 53 37 bc 09 8d 54 3d 0d 71 2b 3e 54 b9 a4 3e
       -0.011189233 0.051892314 0.16742344 0.32172644
000370 f3 e4 87 bc b3 81 fb bc 5c 96 e4 3d d9 6f 9d be
       -0.016588664 -0.030701494 0.11161491 -0.30749395
000380 fa 31 e4 be 4c 9d 0d be 04 c9 1b be fe 19 49 3d
       -0.4456938 -0.13829535 -0.152134 0.049097054
000390 8b bc 7a bf de 7a 7f be f1 ff 2b bf 30 12 39 3d
       -0.97943944 -0.24949214 -0.6718741 0.04518336
0003a0 33 14 1b 3d c5 20 42 be aa ba 12 3f f0 df dd 3d
       0.03786106 -0.18957813 0.57316077 0.10833728
0003b0 38 8d 99 bf 47 22 87 bf e4 32 88 bd 4d 87 1b 3f
       -1.1996222 -1.0557336 -0.066503316 0.6075333
0003c0 b2 c8 b6 be cc ab 96 be 7d fe 23 be a0 2e 71 be
       -0.35699993 -0.29427946 -0.16015048 -0.23552942
0003d0 2a 08 ae be cf 24 ad 3e 9c 24 68 be 04 71 e0 be
       -0.33990604 0.33817145 -0.22670215 -0.43836224
0003e0 3e 12 97 3e 12 c3 5f bc 74 6a a6 be f0 f6 ac bc
       0.29506105 -0.013657348 -0.32503092 -0.021113843
0003f0 cb 24 d8 bd bf cb 0b 3e d2 fb bf be 3a 50 ec 3d
       -0.10553893 0.13651942 -0.3749681 0.115387395

fc2.bias f4 [128]
000000 0c 96 50 bd 49 cb 8e be 99 e8 08 bf 15 18 60 be
       -0.050924346 -0.2788947 -0.53479916 -0.21884187
000010 94 03 10 bf 40 a6 9a be 88 82 f2 be 26 5c d9 be
       -0.5625546 -0.30204964 -0.47365212 -0.42453116
000020 58 83 64 be a9 96 aa 3d 32 6f 8b be 09 48 80 be
       -0.22315729 0.083295174 -0.27233273 -0.25054958
000030 1e e6 b2 be 1e 81 51 be 9b 5e d0 be 81 a9 27 bd
       -0.3494119 -0.2045941 -0.40697178 -0.040933136
000040 f6 47 53 bd 9b e4 87 be 71 4f 05 bf 1d b2 86 be
       -0.0515823 -0.265416 -0.5207434 -0.26307765
000050 89 24 25 be 0b 92 33 be 85 f2 19 bf 7b 72 a5 bc
       -0.16127218 -0.1753618 -0.6013568 -0.02019619
000060 52 57 fb be 12 92 35 be 99 e1 80 bf 3c b2 bf be
       -0.49090058 -0.17731503 -1.0068847 -0.3744067
000070 4b 21 04 bf f1 9d 19 bf 88 4a 2f be 6d 06 e2 be
       -0.516133 -0.60006624 -0.17118275 -0.44145527
000080 c4 52 23 bd 22 b2 f4 be f2 92 1e bf 22 9e 5c be
       -0.039873853 -0.47792155 -0.6194297 -0.21544698
000090 7e 1b 51 bd 79 79 04 bf 50 ea 01 3e 23 86 dd be
       -0.05105161 -0.5174785 0.1268704 -0.432664
0000a0 b2 86 a0 be cd 8b c9 bd 50 69 16 be ce ce 4a be
       -0.31352764 -0.09841118 -0.14688611 -0.19805452
0000b0 87 60 16 be ee ed 6c be 9c 07 65 bf 13 e5 75 be
       -0.1468526 -0.23137638 -0.89464736 -0.24013166
0000c0 c8 cc 53 be 52 5a b8 3c d1 b0 af be 3f df ef be
       -0.20683587 0.022504006 -0.34314588 -0.4685001
0000d0 d9 3a 6b be 32 ad d7 3d 79 99 da be 80 11 02 3d
       -0.22971667 0.10531081 -0.42695215 0.03175497
0000e0 8d a3 b3 be da 7b ac be 97 57 e3 be eb 7d 05 bd
       -0.35085717 -0.3368824 -0.44402763 -0.032590788
0000f0 0d 0d b7 be c7 40 99 be 37 20 09 be 48 d7 f2 be
       -0.35752144 -0.29932234 -0.13391195 -0.47429872
000100 94 78 b5 bf 45 cd d0 be 42 fa 1f bf 40 87 97 be
       -1.4177423 -0.40781608 -0.6249124 -0.29595375
000110 d1 89 1d bf 38 8b a2 be 59 28 19 bf db 4e 18 be
       -0.61538416 -0.3174684 -0.5982719 -0.14873831
000120 f7 4b 80 bd 88 7a 6f be 2f b6 6e be 65 45 a3 be
       -0.06264489 -0.23386586 -0.23311685 -0.3188888
000130 6b 09 ef be 80 90 07 3e fb 5f 10 bd ca 89 6d be
       -0.46686873 0.13238716 -0.035247784 -0.23197094
000140 c9 46 8a bd 08 8d 28 bf a0 b5 d9 be 50 51 ce bc
       -0.067517824 -0.65840197 -0.4252138 -0.025185257
000150 9f 0a df be 0d 02 94 bc a4 5c 04 3e fc 26 70 be
       -0.4356279 -0.018067384 0.12925965 -0.23452371
000160 2b d5 6a 3d 1f e2 84 3d fe b0 af be b6 5e fa be
       0.0573322 0.06488442 -0.34314722 -0.48900384
000170 0e 6b 72 bf d7 3e 0e 3d 22 47 11 bf 34 27 c3 be
       -0.946946 0.034727897 -0.56749165 -0.38115847
000180 0f 2b 37 bf 65 e3 07 be e7 a5 ec bb d0 73 29 bf
       -0.7155008 -0.13270338 -0.0072219255 -0.6619234
000190 0d 9b 94 be 2b 88 fa be c3 0c 08 3c ac bb a9 be
       -0.29024544 -0.48932013 0.008303824 -0.33150995
0001a0 f2 3b 3c 3d da 79 ed be 50 51 06 bf f7 a2 2a 3d
       0.045955606 -0.46382028 -0.52467823 0.04165932
0001b0 b1 76 20 3e 47 83 8b be b2 3e d8 be 3b 52 7c bd
       0.15670277 -0.27248594 -0.42235333 -0.06160186
0001c0 07 75 e1 be cf ee ed be 66 25 02 bf e9 a7 d4 be
       -0.44034597 -0.4647126 -0.50838315 -0.41534355
0001d0 0c f3 14 be 2a 26 40 bf 8d 80 cc be 4f d3 bb be
       -0.1454584 -0.75058234 -0.39941826 -0.36684653
0001e0 f6 90 27 bf b5 33 b1 3d 19 d0 25 be 99 a6 a6 bd
       -0.6545557 0.086524405 -0.16192664 -0.08137245
0001f0 bc 03 6a be e9 65 15 bf a0 b9 d8 bd 65 73 07 be
       -0.22852987 -0.5835863 -0.1058228 -0.13227613

out.weight f4 [2, 128]
000000 54 74 74 bf e0 0d 88 be 58 db 76 3f 0c e8 2f be
       -0.9549 -0.26573086 0.9642844 -0.17178363
000010 34 14 89 3e 5d fb e8 bd 6e a5 81 bf 6d 7d 18 3e
       0.26773226 -0.11376069 -1.012861 0.14891596
000020 16 68 b5 bd 9e b3 a7 be 68 5c f0 3d 96 5a 0f 3f
       -0.088577434 -0.32754225 0.11736375 0.559976
000030 c6 df 4b bd e6 a8 e0 be 77 37 8f 3f cd 75 ba be
       -0.049773954 -0.4387886 1.1188802 -0.36418
000040 54 fa 8f be 94 83 9c be 7a b3 5a 3e 12 c0 41 bf
       -0.28120673 -0.30569136 0.21357527 -0.756837
000050 6f fc 4d bf 96 0b 40 bf 78 28 8d 3e 1b fd 6d be
       -0.8046331 -0.7501768 0.27569938 -0.23241083
000060 2b 45 01 bf 4b 4a 94 be 0d eb 57 bf df ca 84 3e
       -0.50496167 -0.2896293 -0.84343034 0.25936028
000070 ac 43 50 3f dc c8 8f 3e b2 51 38 3e b2 31 72 bc
       0.8135326 0.2808293 0.17999914 -0.014782356
000080 a5 c5 96 bd 72 60 f5 3e 5f 9d 84 3f 1c 0f 1a 3f
       -0.073619165 0.47925144 1.0360526 0.60179305
000090 7d aa 23 bf fe c4 8c be f9 5d 3a be 45 74 ea 3d
       -0.6393202 -0.27494043 -0.1819991 0.11447958
0000a0 39 2c 2b 3e 94 90 ce bd ec a9 6b 3d bd 85 91 3d
       0.16716088 -0.1008617 0.057535097 0.07105587
0000b0 cb a8 8c 3e 7c 0c c6 3e ef a4 89 3f 28 b7 90 bc
       0.2747253 0.386814 1.0753459 -0.01766546
0000c0 fa d6 08 3e fb 90 06 bf 25 ff 12 bd 4b ca 4a 3d
       0.13363257 -0.5256497 -0.035887856 0.049509328
0000d0 72 18 5f bf 77 da e0 3c ee 7e f8 3e d8 23 b0 3e
       -0.87146676 0.027447922 0.4853434 0.34402347
0000e0 00 76 42 bf 0e a6 f3 3e 62 a2 5a 3f 00 5f ca be
       -0.75961304 0.47587627 0.85404027 -0.39525604
0000f0 24 17 c9 3d d4 39 be be e6 99 9b 3e e1 e1 e7 bd
       0.09818867 -0.37153494 0.30390853 -0.1132238
000100 32 ea 29 bf e1 95 51 3f 16 b1 72 be 92 c3 b9 3e
       -0.6637298 0.8186932 -0.23700365 0.3628202
000110 e1 f8 44 3e c0 ae 2b 3f 55 a5 db 3e ae cb 44 3d
       0.19235565 0.6706352 0.42899576 0.048045807
000120 e1 bc 20 bd 94 e8 80 be 82 62 2d 3d 52 91 38 3d
       -0.03924263 -0.25177443 0.042330272 0.045060463
000130 5a 3b e4 3e 0a 3b be 3d 64 b4 de be ff d7 45 be
       0.44576532 0.092886046 -0.43497002 -0.19320677
000140 8a b6 59 3e 25 dc e7 3e b1 6e a6 3e cb 6f 6c 3e
       0.2126104 0.45285144 0.32506326 0.2308952
000150 40 c5 e1 bd 7a 24 d8 3b c0 70 81 3d b6 8c b3 bd
       -0.110239506 0.006596145 0.063203335 -0.08767073
000160 ad 73 72 be 53 6d 7c 3e a5 2e 9c 3e f5 20 15 3f
       -0.2367694 0.24651079 0.30504337 0.58253413
000170 d9 eb bb 3e b9 a4 3d 3e bb df 39 bf 39 63 32 3f
       0.36703375 0.18519868 -0.7260701 0.6968265
000180 f9 b9 f7 3d 63 d7 a1 be 0f 58 aa 3c 64 90 09 3e
       0.12096018 -0.3160964 0.020793943 0.13433987
000190 44 9f f1 3e fb fd 33 3f 64 be 84 bd fd 15 72 3d
       0.47191823 0.7030942 -0.06481627 0.059103
0001a0 f7 30 b2 be 9f 5b 36 3f 6b 07 02 be 93 5e 09 3f
       -0.34802982 0.7123355 -0.12698142 0.53659934
0001b0 cc d9 da be ca 18 c7 be c9 b3 89 bc 02 76 63 bf
       -0.4274429 -0.388861 -0.016809361 -0.8885194
0001c0 db f0 65 bf 89 c7 b7 3e 39 b7 1b 3d df 4e 31 bf
       -0.8982064 0.3589442 0.03801653 -0.6926097
0001d0 74 41 14 bf 91 84 7e 3f 89 d2 27 bf 56 ba 13 3f
       -0.57912374 0.9942103 -0.65555626 0.577062
0001e0 e6 4c 0e bf 3c 5b d2 be a4 5b e8 bd e9 56 0f bf
       -0.5558609 -0.4108523 -0.11345604 -0.5599199
0001f0 10 5d 2b 3e 6a 14 e0 3e a1 12 bb be d9 21 67 3f
       0.1673472 0.43765575 -0.3653765 0.9028602
000200 a3 27 82 bf 3b ce 1a bf 65 e4 2c 3d a3 77 6f 3e
       -1.0168346 -0.6047093 0.04221 0.23385482
000210 23 59 8c 3d 6b 41 94 bf 01 eb a6 bd 82 56 58 bf
       0.06852939 -1.1582464 -0.08150292 -0.84507
000220 2f 89 a2 be fc d0 13 3e 3e ae 08 bf 7c 31 00 3f
       -0.31745288 0.1443519 -0.5339087 0.5007551
000230 9c 17 62 3f 35 7f 5c bd 8a df 81 3e b4 2c cb 3d
       0.88317275 -0.05383225 0.2536586 0.09920636
000240 a8 c1 6a bf e5 c7 5e be 29 6f 3d bf 0a e2 78 be
       -0.91701746 -0.21755941 -0.7399774 -0.24304977
000250 50 41 35 bf d3 80 01 3e a0 e4 73 3f 28 02 70 be
       -0.70802784 0.12646799 0.9527073 -0.23438323
000260 8c 8d b9 3d 21 ca 50 bf 7e 1e d4 3e b5 a6 16 bf
       0.09060201 -0.81558424 0.41429514 -0.58848125
000270 87 a4 4b 3e e1 8f 87 3e b1 f9 3a 3f 1c 11 5a bf
       0.19886981 0.26476958 0.7303725 -0.85182357
000280 fd 74 df 3e 3a 0b 4e bf 60 c0 29 3e a1 a2 d7 be
       0.43643942 -0.8048588 0.16577291 -0.42116264
000290 6c e3 9f be 1d 62 23 3e d0 b0 78 bf 60 e1 65 3f
       -0.31228197 0.15955396 -0.97144794 0.8979702
0002a0 35 2d 30 3f 5a 12 b5 bf 07 45 52 bf 4c 92 3a be
       0.6881898 -1.4146225 -0.8213658 -0.1821987
0002b0 40 ea 27 bf 23 42 9e be e5 ca 82 3f 6e 45 3c bf
       -0.6559181 -0.30909833 1.0218168 -0.7354344
0002c0 6b fb 00 3f 7e 7e 1b 3d 14 4a 67 3f a6 83 8b 3f
       0.50383633 0.03796243 0.9034741 1.0899551
0002d0 5f 89 2d 3c 8b 68 84 3f e7 49 d5 be 4e 74 1c 3f
       0.010591834 1.0344404 -0.41657946 0.61114967
0002e0 70 55 a3 3e 2b 9d 32 bd a9 64 8b be 12 72 47 3d
       0.3190112 -0.04360692 -0.27225235 0.04869277
0002f0 d3 cd 27 bf 89 af ff bd 48 a3 d2 bd 03 e0 97 bf
       -0.6554844 -0.124846525 -0.1028505 -1.1865238
000300 7b c1 b3 3e c5 e0 c9 3e 46 2b 39 3f 08 ec a9 bd
       0.3510855 0.39429298 0.72331655 -0.082969725
000310 92 e5 a4 bf f5 2a b2 3f 32 e2 35 bf 30 bd 60 bf
       -1.2882559 1.391936 -0.7104827 -0.8778868
000320 9e 9b 7d 3f 50 4e 68 bf 2b 71 1f 3f 86 32 34 3f
       0.9906558 -0.90744495 0.62282056 0.7038959
000330 a8 57 34 3f b1 32 69 bf 56 1d c1 3e f0 c7 91 3e
       0.7044625 -0.91092974 0.37717694 0.28472853
000340 ad 70 79 3f 95 0a ad 3e c0 8c 0d 3f bc f5 42 bf
       0.97437555 0.33797136 0.5529289 -0.7615621
000350 2c 91 77 3f a6 f4 43 3f f2 38 6f bf b7 aa 8b 3e
       0.9670589 0.7654518 -0.93446267 0.27278683
000360 9e 53 d0 be 87 db a9 3e b5 18 0e c0 93 ea 36 3f
       -0.40688795 0.331753 -2.220258 0.7145168
000370 7a 91 40 3f a0 0b cd be 37 a7 5a bf a5 9b 9f 3e
       0.7522198 -0.40047932 -0.854114 0.31173435
000380 22 96 f4 bf 5f 33 37 3e c2 84 2d bf 7e 6c 5a 3f
       -1.9108317 0.1789069 -0.677807 0.85321796
000390 51 90 11 40 30 db d6 3e 10 2d 68 bf 19 4c 30 3f
       2.2744334 0.41964102 -0.9069376 0.68866116
0003a0 ec 26 d3 3e 0e 50 48 3f 51 50 fa be cb af fd bc
       0.41240633 0.78247154 -0.48889402 -0.030967614
0003b0 6f 81 81 be e3 7b c6 bd 2d ca 19 3f 0b 30 cf 3e
       -0.25294062 -0.09691598 0.6007412 0.4046634
0003c0 96 09 96 bf 07 8a 6b 3f 38 29 19 3f 8b c6 fd 3c
       -1.1721675 0.9200749 0.5982852 0.030978462
0003d0 e1 50 5a bf 08 14 f7 3e 44 40 cb be ce 6a 84 3e
       -0.8527966 0.4825747 -0.39697468 0.25862736
0003e0 94 ac 9c be ff 12 59 3d 55 72 91 3f 0f 0c 91 3e
       -0.30600417 0.05299663 1.1363016 0.28329512
0003f0 14 65 f6 bd b3 d8 68 3f 0b 2c b8 3d fd 01 ab be
       -0.12030998 0.90955657 0.089927755 -0.33399954

out.bias f4 [2]
000000 a0 71 ff bc 53 3a b0 3d
       -0.03118211 0.086048745

bn1.weight f4 [256]
000000 3f 70 8d 3f 79 05 dd 3e 0c 02 05 3f 7e 16 cb 3e
       1.104988 0.43168238 0.5195625 0.39665598
000010 68 a8 00 3f 3b 87 92 3e f0 24 36 3e 5d d1 11 3f
       0.5025697 0.28618798 0.17787528 0.5696009
000020 a8 c7 2f 3f e7 56 a7 3e 36 04 4a 3f d1 08 48 3f
       0.68664026 0.3268349 0.78912675 0.7813845
000030 33 bd 56 3f 54 9c 0e 3f 8b 0b f6 3e 5c 86 67 3f
       0.83882445 0.5570729 0.48055682 0.9043939
000040 22 6e 2f 3f ee 12 e0 3e 66 ca 25 3f e2 14 75 3f
       0.68527424 0.43764442 0.6476196 0.9573499
000050 f8 17 99 3f cd 7d 9c 3f e5 ac 1f 3f 6e 65 87 3f
       1.196044 1.2225891 0.6237319 1.0577829
000060 3e 22 3e 3f dd 2e 13 3f a3 ca 1e 3f 0a 03 d8 3e
       0.74271 0.5749338 0.6202795 0.4218982
000070 a4 15 cf 3e 25 31 0b 3f 5a 72 ce 3e 98 9a a1 3d
       0.40446198 0.54371864 0.40321618 0.078908145
000080 28 80 2d 3f e8 01 c5 3e 0c 58 07 3f 5d 17 28 3f
       0.67773676 0.38478017 0.52868724 0.6566065
000090 24 6d f4 3e 0b 82 b1 3e 10 dc 29 3f e6 d6 22 3f
       0.47739518 0.34669527 0.66351414 0.6360916
0000a0 b1 75 3a 3f 8c 9e 14 c0 e7 25 9e 3e e5 35 25 3f
       0.7283583 -2.322177 0.30888292 0.6453536
0000b0 06 7d 2d 3f 9a f6 b3 3f 93 2b 3f bb e5 8f f3 3e
       0.67768896 1.4059632 -0.002917026 0.4757072
0000c0 f2 d4 87 3f de 6d a9 3f dc 49 f9 3e 04 bd 5f bb
       1.0611861 1.3236654 0.48689163 -0.0034139762
0000d0 ff 94 13 3f 0c a7 c8 3f 26 4a d6 be 01 12 26 3f
       0.57649225 1.5675979 -0.41853446 0.6487122
0000e0 a6 60 6c 3f 1f 1d aa 3f 69 ba 21 3f 4a 61 c4 3f
       0.92334974 1.3290137 0.63175064 1.534219
0000f0 9c 78 26 3f 58 a8 49 3f 85 30 02 3f ec 7c d9 bc
       0.65027785 0.787725 0.50855285 -0.026548825
000100 8a 7c 46 3e 6d 1f 6d 3f 6b 11 37 3f d3 6d 22 3f
       0.19383445 0.92626077 0.7151095 0.6344883
000110 ad 95 e9 3e 42 48 0b 3f df 8e cc 3e f0 66 64 3f
       0.45622006 0.5440713 0.39952752 0.8921957
000120 d6 a8 55 3f ca 1a 78 3e 9c 35 04 3f b5 4c 2c 3e
       0.8346075 0.24228969 0.516443 0.16826136
000130 3c 2e e5 3d 9f 90 63 3f 83 64 06 3e 9b e9 3b 3f
       0.11190459 0.8889255 0.1312428 0.7340333
000140 5e ef 02 3e 1b 0a 4c 3f 6b b1 16 3e da 8a b7 3e
       0.12786624 0.7970292 0.14716117 0.35848123
000150 f5 a2 45 3f 74 39 1e 3f 9a 27 b3 3e dc d8 00 3f
       0.7720178 0.61806417 0.3499115 0.503309
000160 95 3e 6e 3e b4 f3 29 3f df 30 e8 3e 42 66 3b 3f
       0.2326606 0.66387486 0.45349786 0.7320291
000170 cc ba 83 3f e0 00 6d 3f 11 b8 61 3f e2 f8 1e 3f
       1.0291381 0.9257946 0.8817149 0.62098515
000180 d7 06 c1 3e b7 1b 40 3e 6e 26 b4 3e b2 3a 1b 3f
       0.3770053 0.18760572 0.3518557 0.60636437
000190 31 58 99 3f 8c e4 f5 3e be 40 21 3f 1d 00 01 40
       1.1980039 0.4802593 0.62989414 2.015632
0001a0 3b 4c 19 3f 34 96 b3 3e f8 da 29 3f 08 c1 14 3f
       0.59881943 0.35075533 0.66349745 0.5810704
0001b0 b5 b5 a3 3f aa 57 d2 3f a4 b8 ff 3f 84 51 1d 3f
       1.2789828 1.6433003 1.9978223 0.6145251
0001c0 46 1c 40 3f 96 d4 8d 3f f7 46 81 3f 42 33 70 3f
       0.7504314 1.1080501 1.0099782 0.93828213
0001d0 05 aa d7 3e f6 07 b2 3f 97 97 12 3f 78 32 a4 3f
       0.42121902 1.390868 0.5726256 1.2827902
0001e0 96 03 3a 3f 49 e4 2b 3e 1c 91 c9 3e 99 47 c9 3e
       0.7266172 0.16786303 0.39368522 0.39312437
0001f0 6e 05 64 3f 0d 93 fe 3e 4b a5 8a 3f eb e9 1b 3e
       0.89070785 0.49721566 1.0831693 0.15225951
000200 ec ef 12 3f a1 ac 0b 3f 1d f9 97 3e 67 05 64 3f
       0.5739734 0.54560286 0.29682246 0.89070743
000210 f3 c5 cf 3e ee c7 f2 3e 0f 3d c1 3e bd 9e 89 3e
       0.4058071 0.4741816 0.37741897 0.2687892
000220 58 42 8d 3f 03 22 e9 3e 38 15 b1 3f f1 ab b0 3f
       1.1035872 0.4553376 1.38346 1.3802472
000230 43 a5 03 3f f9 7a e9 3e 84 34 45 3f 19 22 df 3e
       0.51424044 0.45601633 0.7703326 0.43580702
000240 c1 da a3 be c8 50 94 3f 1d 12 a4 3f 96 18 15 3f
       -0.32002833 1.1587152 1.2818028 0.5824064
000250 42 a4 e5 3e 81 d8 85 3e c8 1a ed 3e 1e 6f a8 3f
       0.4485188 0.26141742 0.46309495 1.315891
000260 b7 13 07 3f 18 9e 90 3f d4 a1 4f 3f c1 f7 b2 3f
       0.5276446 1.1298246 0.81106305 1.3981858
000270 53 0e 10 3f 08 1d 94 3e a5 0c 09 3f dc 8d 8b 3e
       0.5627186 0.289284 0.5353492 0.27256668
000280 63 50 1a 3f ca 96 1c 3f e0 d3 35 3f 6a 1a 47 3f
       0.6027891 0.61167586 0.7102642 0.7777468
000290 4e d7 16 3e fc 6a 0f 3f 99 2a 31 3e 8c 5e 0d 3f
       0.1473057 0.5602262 0.17301406 0.5522239
0002a0 f1 1e 74 3f 94 1e 9b 3e 8a a7 28 3f 7a 53 3b 3f
       0.9535971 0.30296767 0.65880644 0.7317425
0002b0 94 98 5b 3f c5 9e e4 3e a2 76 ea 3e b8 32 33 40
       0.8577969 0.44652382 0.45793635 2.7999706
0002c0 73 8a 08 bf 57 f9 fd 3e 80 c3 ce 3e f5 90 5c 3e
       -0.53336257 0.49604294 0.4038353 0.21539672
0002d0 54 6f 3b 3f 39 a7 47 3f 4f 77 a9 3e fa 6f 27 3f
       0.7321675 0.77989537 0.33098838 0.6540524
0002e0 55 38 75 3e ba 57 06 3f 26 03 8d 3f 3e 16 91 3f
       0.2394727 0.5247761 1.1016586 1.1334913
0002f0 db 60 37 3f 7d 34 81 3e d8 db ae 3f 9c 4e 01 3f
       0.71632165 0.25235358 1.3660841 0.50510573
000300 49 25 33 3f bc 18 a3 3f b9 f7 80 3f 7e ee 30 3f
       0.6997877 1.2741923 1.0075599 0.6911391
000310 4e f0 20 3f ef d6 7d 3e e1 55 ad 3f 69 65 a9 3f
       0.62866676 0.24789022 1.3541833 1.3234073
000320 70 13 6c 3f 97 77 fd 3e a9 71 3a 3f c0 c3 a9 3e
       0.9221716 0.49505302 0.7282968 0.33157158
000330 34 1e 42 3f 5f 6d 21 3f ae a2 cb 3f 03 fd 10 3f
       0.75827336 0.6305751 1.5909021 0.56636065
000340 2c 11 2a 3f 30 31 ab 3f 08 55 0b 3f 79 ab 41 3f
       0.6643245 1.3374386 0.5442662 0.7565227
000350 46 b0 e3 3e 66 ed 0c 3f 33 32 c1 3e 1c 3b 2e 3e
       0.44470423 0.5504974 0.3773361 0.17014736
000360 bc 00 60 3e 95 46 65 3f 86 8d 86 3e 8c 40 45 3e
       0.2187528 0.89560825 0.2627985 0.19262904
000370 70 92 ef 3e 51 70 27 3f ef 52 0f 3f 65 c1 1c 3f
       0.4679141 0.65405756 0.5598592 0.61232597
000380 db 1b b2 3e ce a7 c7 3e 72 4c 32 3f ac 8a c1 3e
       0.34786877 0.38995212 0.69647896 0.3780111
000390 5e c5 64 3f 68 0e f9 3e ee 0a 20 3f 33 23 5b 3f
       0.8936366 0.48643804 0.6251668 0.85600585
0003a0 69 31 e6 3f 29 68 ef 3e 58 e5 64 3f cc 52 14 3e
       1.7983829 0.46759155 0.8941245 0.1448471
0003b0 e9 b2 73 3f 17 78 25 3f dc 88 81 3f a4 dc 05 40
       0.9519487 0.6463637 1.0119891 2.0915918
0003c0 0c c3 f2 3e 5a 68 13 3f 24 1a 0b bb 54 32 25 3f
       0.47414434 0.575811 -0.0021225298 0.6452992
0003d0 3e 51 20 3f ad 9e 79 3f 2e ce 18 3f db d2 a2 3e
       0.62623966 0.97507745 0.59689605 0.31801495
0003e0 69 c8 42 3f 9f e2 6b 3f 31 9f fb 3e 27 98 58 3f
       0.7608705 0.9214267 0.4914489 0.84607166
0003f0 e4 b1 b2 3f f5 60 b4 3e cb ec 72 3f bd 4b 3d 3f
       1.3960538 0.35230222 0.9489257 0.7394369

bn1.bias f4 [256]
000000 85 68 01 3f 11 d4 62 be 7a f7 d1 3d 8a 94 34 3e
       0.5055011 -0.2215121 0.102522805 0.17634788
000010 52 55 f5 3d 29 f2 bf 3d 65 06 f4 3c dc 2e 12 3e
       0.11979164 0.0937236 0.029788205 0.14275688
000020 06 48 9f 3e b2 8f 4c 3d d4 c0 3f 3e f4 bd 85 3e
       0.31109637 0.049941726 0.18725902 0.26121485
000030 e6 54 89 3e 08 f6 f3 3c 08 84 f4 3d 11 96 c9 3e
       0.26822585 0.029780403 0.119392455 0.39372304
000040 42 0c c1 3e 60 9a 51 3e b8 d8 2f 3e 09 79 ab 3e
       0.37704664 0.20469046 0.17172515 0.3349078
000050 24 06 2b 3f d9 3a 41 3f c9 55 3a 3e c6 fd 0a 3e
       0.66806245 0.7548042 0.18196787 0.1357337
000060 96 1d 96 3e ba d6 e9 bd bd 01 8d 3e ff f1 16 3d
       0.29319447 -0.11417909 0.2754039 0.03685188
000070 86 b3 30 3d 31 f6 57 3e 5f 78 9d 3e 6f ee 68 3d
       0.043139957 0.21090008 0.30755898 0.056868013
000080 dd 4c 04 3f c3 2e 87 3e 1c 84 a1 3d e5 3f 50 3e
       0.51679784 0.26402864 0.07886526 0.20336874
000090 b7 e7 3b ba 26 41 a6 bd 66 d2 8d 3e 3d 88 84 3e
       -0.0007168012 -0.08117895 0.27699584 0.25885192
0000a0 e9 96 4c 3e 33 33 cc 3e d5 58 dd bd 33 c7 9f 3e
       0.19979443 0.39882812 -0.10807959 0.31206664
0000b0 c8 64 c3 3e af 3c b5 3e 4d 0e 85 3a 2a 6b c9 bc
       0.38162827 0.3539786 0.0010151357 -0.024587233
0000c0 65 9b 29 bf 3a c1 f5 3e 7d d1 a7 3e ad c1 e7 bb
       -0.6625274 0.47998983 0.32777014 -0.0070726485
0000d0 3c 3f 6d 3e 3d b0 f1 3e 90 ee 86 bd 97 a6 41 3f
       0.23168653 0.47204772 -0.06588471 0.7564482
0000e0 40 95 9e 3e cd 0e ab 3d 6b 35 5f 3e 03 fb f7 3e
       0.30973244 0.083524324 0.21797721 0.48433694
0000f0 0e cb a9 3c 30 9d b7 3e 74 0a 66 3e 62 f6 49 bc
       0.020726707 0.35862112 0.22464925 -0.012326809
000100 e0 1a 31 3e 95 de 13 3f 0d 77 ba 3e 1b 18 a9 3e
       0.17295408 0.5776151 0.36418954 0.33026204
000110 19 24 b3 3e 36 86 55 bc 0e 20 e5 bd e9 06 f9 3e
       0.34988478 -0.013032487 -0.111877546 0.48638085
000120 4e 94 02 be 68 cb 95 3d 6a 68 5e 3e 1b f4 5d bd
       -0.12751886 0.07314187 0.21719518 -0.054187875
000130 6d ee fd 3c df 71 a9 3e 03 a0 ff 3c f0 37 25 3f
       0.03099748 0.3309469 0.03120423 0.6453848
000140 53 33 27 3d bd 4c 89 3e f0 6b 81 3e f5 21 1d 3e
       0.04082043 0.2681636 0.25277662 0.15344985
000150 9f 32 da 3e 31 14 4d bd 21 d7 23 3e 89 f0 98 3d
       0.42616746 -0.050068084 0.16000034 0.074677534
000160 cc a3 0d bd d1 ac 24 3e 6d da 68 3e 35 ab 6d 3e
       -0.034580037 0.16081549 0.22739573 0.23209842
000170 b9 07 b2 bb a8 4a d9 3d 95 ea ec 3e cb e8 3d 3e
       -0.0054330495 0.10609943 0.46272722 0.18545835
000180 35 70 ab 3d d8 72 4d 3f 22 7b c4 bd f0 a6 39 3e
       0.08371011 0.8025336 -0.09593798 0.18130088
000190 6d 95 34 3e 35 b2 81 3e 27 54 c1 3e 2c 0a cb 3e
       0.17635126 0.25331274 0.37759516 0.39656198
0001a0 c4 21 00 bf d3 37 02 3d 2d 10 4b 3e 59 2c 56 3d
       -0.5005152 0.03179152 0.1983039 0.052288387
0001b0 14 c8 01 3f 69 c5 c5 3e 30 87 18 3a fb 67 07 3f
       0.5069592 0.38627174 0.00058184844 0.52893037
0001c0 b6 d1 d2 3d 46 32 37 be 62 8e da 3e 55 38 6b 3c
       0.102939054 -0.17890272 0.42686754 0.014356692
0001d0 5d ca 44 3e 93 49 a7 bd 53 ba 55 3e cf 8f 98 3c
       0.1921782 -0.0816833 0.20871858 0.01862326
0001e0 f1 6e d9 bc ae 4f 97 3c e8 dd 89 3d 97 ec 52 3c
       -0.026542159 0.018470611 0.067317784 0.01287379
0001f0 73 36 a1 3e da a2 e4 3d 9d 05 46 3f f3 b0 c2 3d
       0.31486854 0.11163874 0.77352315 0.09506407
000200 36 3e 8d 3e 61 1a 9b 3d ab e9 8a 3e cd 7f 47 bf
       0.27586526 0.07573391 0.271314 -0.77929384
000210 88 72 b0 3f f0 3e 2a 3e 3a d6 ae bd 3c 3c 1c 3e
       1.3784952 0.16625571 -0.08536954 0.15257353
000220 b9 34 db 3b 3d 93 d5 3e 58 15 59 3f ba 83 69 3e
       0.0066896346 0.41713896 0.8479819 0.22804156
000230 bb 09 93 3e 6a 82 e1 3e 5a 03 93 3e e4 40 87 3e
       0.2871836 0.4404481 0.28713495 0.26416695
000240 2d 43 a1 3c 1d af c8 3e e3 97 59 bd cd fd 2e 3e
       0.019685352 0.391961 -0.053123366 0.17089005
000250 5d 78 a9 3e 56 ed 28 3e b7 93 17 3d b5 b3 11 be
       0.33099642 0.16496786 0.037006106 -0.14228709
000260 0d c2 1c 3e cd 17 9f bd f2 04 be 3e ba 8b 96 3d
       0.153084 -0.077682115 0.37113148 0.073508695
000270 3e d5 01 3f 7c d5 53 3d 69 f8 51 3e 94 fc fa 3d
       0.50716007 0.051717266 0.20504917 0.12255207
000280 4e 69 17 3e a7 00 6e 3e be 84 17 3e a5 cd 96 3e
       0.14786264 0.23242436 0.14796731 0.2945377
000290 5a 83 57 be 2f e0 c9 3d 07 23 82 3d bf ff 9c 3e
       -0.210462 0.09857213 0.06354337 0.3066387
0002a0 35 b8 8c 3d b5 1a 80 3e cf ff 8e 3d 57 17 64 3e
       0.06871072 0.25020376 0.06982385 0.22274528
0002b0 b9 8b 2c 3e aa 6b 32 3e 65 96 74 3e cc 14 a8 be
       0.16850175 0.17423883 0.23885496 -0.32828367
0002c0 84 6d 22 be fb 1d 11 3f d4 90 93 3e 04 97 f4 3d
       -0.1586209 0.5668637 0.28821433 0.119428664
0002d0 7e 87 47 3e b4 95 26 3e 99 86 d7 3d dd 29 2b 3e
       0.1948528 0.16268045 0.10523719 0.16715188
0002e0 f9 bc 2d bc bc f9 72 3e dc 09 c3 3d a9 5e 72 bc
       -0.010604137 0.23728079 0.09523365 -0.014793077
0002f0 04 75 0e 3e fe 7c 0e 3d 0e 4a 0f 3f d8 43 24 3d
       0.13911825 0.03478717 0.55972373 0.040103763
000300 96 73 58 3e 15 65 28 3f 9a 3c c3 bd e4 73 53 3e
       0.21137843 0.6577924 -0.09533043 0.20649678
000310 c0 ed a5 3e 4a dc 84 bd 7b ff 87 3e f0 76 f8 3e
       0.3240795 -0.06487329 0.26562104 0.48528242
000320 ea 3f 07 3d f0 61 0a 3e 40 72 6d 3e 94 2e 22 bd
       0.033019938 0.13513923 0.23188114 -0.0395952
000330 c2 38 a3 3e c2 80 09 3d dc 4e 93 be 0d 99 e0 3d
       0.3187924 0.03357006 -0.28771102 0.10966692
000340 eb 14 7c 3e bf 45 51 3e 2a 3f 00 3e d2 64 1d 3f
       0.24617355 0.20436762 0.12524095 0.61481965
000350 b7 8b d4 3d d0 25 7f 3e 0a ef 4a 3f d8 c2 5e bd
       0.10378211 0.24916768 0.79270995 -0.054385036
000360 80 78 44 3c cc 30 05 3f 71 8b 5b 3e 03 79 8b bd
       0.01199162 0.52027583 0.21439911 -0.068101905
000370 69 b6 da bc 41 bf 0d 3e f3 67 8d 3e d5 58 b6 3c
       -0.026698308 0.13842489 0.2761837 0.022259155
000380 61 53 a5 3d 02 5e 96 3e 1f 62 df 3d 20 ae 24 3e
       0.08072544 0.29368597 0.10907387 0.16082048
000390 89 2f 64 3e f1 bf 6a 3e 83 46 a7 3e de c1 93 3e
       0.22283758 0.22924782 0.32670984 0.28858846
0003a0 43 6b 83 be 2a cd 47 3e 62 02 1a be 2c ef a6 3d
       -0.25667772 0.19511858 -0.15039971 0.08151087
0003b0 a4 5f aa 3e 88 02 b5 3e f2 83 5b 3e 77 9b 90 3b
       0.33276093 0.35353494 0.21437052 0.004413064
0003c0 0b 3d 94 3e 20 b3 5c 3e e8 fc 94 bd db 69 17 3f
       0.28952822 0.21552706 -0.072748005 0.591459
0003d0 b2 33 03 3e ea 57 9a be e4 17 2d 3e 69 ac be 3d
       0.12812689 -0.30145198 0.16903645 0.093102284
0003e0 b4 66 d4 be 86 f5 c1 3d 12 e8 13 3e 08 dc 24 3f
       -0.41484606 0.09470658 0.14443997 0.6439824
0003f0 ba 27 56 3e ae 8a 4c 3d 9d e4 ac 3e 82 34 cd 3e
       0.20913592 0.049936943 0.33768168 0.40079123
