checkpoint_critic_1.pth (torch_old, 224939 bytes, 11 tensors)

fc1.weight f4 [256, 52]
00000000: e26c 433d 6ee7 4dbd 1075 7bbc dfd9 503b
00000010: 317d 3b3d 7538 153d 1baa 833c 099e baba
00000020: f3db 223d 219a 0ebc 9d92 9fbc aa5d 413a
00000030: 4f53 a6bd 08ab 9f3c 00a1 b13c 34de a8bc
00000040: 3cca 683e 2e72 c1bd f086 58bc 30a6 ca3c
00000050: 5044 ddbd 5652 73bd 6185 8a3c ccda cdbc
00000060: 4968 08bc 178e b63c 359f 963a 7c03 a23b
00000070: 0b82 ddbc 972b e03d dba4 57bb 90ff 6c3c
00000080: 49f6 533c 45fd 193c 67e3 44bc d9af 8bbb
00000090: 4f8c 943c 9572 d7bb 677b 3f3c bbdc 7e3c
000000a0: 8d1e 3f3c adc1 65bd 3e6d 833c ccae cf3c
000000b0: ce66 363e 8ba9 44bd b137 78bc 0b5a 00bd
000000c0: c03d 28bd 0a77 17bd 2228 853d 8882 233d
000000d0: d9c7 87bd a1de a23d 11fd f23c 9e88 8e3a
000000e0: 9744 923c b743 21be 1437 cebc 4125 9c3c
000000f0: c62a 473b b6e2 9b3c c2f2 2b3c b7b9 9d3d
00000100: 8fc6 113d b611 8b3d fb7f 1e3d 7f07 913c
00000110: a175 c53d c67b 80bd 16cf bdbb 0923 c3bd
00000120: 3344 dfbc 97e6 193e aa9e f1bc aad0 933c
00000130: 2610 0a3e 0be1 febc df69 1c3b 078e edbc
00000140: a57f dabd b042 15be c167 bebb e40a 453c
00000150: 481f b73d 4ae7 45be bfd8 92bc 9e0c 673c
00000160: 0f7d 29bd 7fc5 563d 90c2 de3c f3b0 acbc
00000170: f2a6 013d c721 1fbe c6cf 07bd 1bab a4bc
00000180: e73b 4dbd 954e 083e 25cc a93c 14d0 723d
00000190: 0bab a03c eca2 95bd a24e 483e b444 4a3e
000001a0: 6325 cf3a fc3e 053e c31d e93b 19b7 8c3d
000001b0: eab0 ed3c 45b0 7c3d 152b 5cbc b099 b6bc
000001c0: 5bb6 74bd cf74 863d 9257 90bb 7589 05bb
000001d0: 6281 363d 815d 943a e084 293c 5a23 57bc
000001e0: 0589 51bd 0210 493e 6a0e 1d3c 60f5 b0bd
000001f0: 2217 8abd 8d09 94be 7e7f 2eba e6dd d53c
00000200: 2e14 863c 4ff8 72bc 3956 a2b9 dd77 343c
00000210: d175 14bb 18e4 0a3e 58f4 57bb f432 1dbd
00000220: 3836 3dbc af6c 353d 108f 133d 6948 8c3d
00000230: 325b cfbc db2e 9dbd 460e 0abd 8e92 09bd
00000240: fbab 64bd 153e 313e 90e8 cc3b c634 7a3d
00000250: 40cf 813d 1199 99be b808 bbb9 702c 2d3e
00000260: f832 193e 3a0a e5bc eb78 02bd f1c9 413e
00000270: 5283 ddbd 763f 5c3e 02fc 1abd 62c7 ab3c
00000280: 3705 363d d86d 84bc f128 863c 669f 8ebd
00000290: 3563 30bd 48fe eb3d 7f04 efbc 5ea8 83bd
000002a0: 8fab c43c d93e d33c e251 6d3d 76b8 b0bd
000002b0: b7d6 63bc 29fb 4e3e 5c23 9a3d 1b08 5cbd
000002c0: fac6 cb3d 6f9d 7abc 1690 a43d d40f 0abd
000002d0: 2c23 dbbc da0c f53c a4eb 97bc e9bb efbc
000002e0: 1848 cebc 2e17 40bc 8e61 96bc 371e 7dbc
000002f0: b549 133d 599e 733c 70ac 6e3d 1502 a83b
00000300: c8be e4bd 6979 62bd fbbf 57bd 96b4 a73c
00000310: c0f3 803d fcc8 923b 45eb eebc f663 c9b9
00000320: 75fc 0dbc c88e 4e3d 1b81 19bd 4172 91bd
00000330: ba6b 9a3e 18a8 af3d eb1c 203e ef59 7b3e
00000340: 9713 e03d 6412 253d 18eb 0a3d f61c f9bb
00000350: c39c 5a3d d9cc 28be 641f 8e3a 1233 123d
00000360: 9eea 9a3c 9211 823d 0d48 f7bc ef4b e83d
00000370: 7848 623d 2706 a2bd c569 113c b2fd e13d
00000380: 8bd5 513d 8599 d33d d6a1 b0bc ba0b ad3d
00000390: 722e 01bb e093 df3c bcea fcbc 92b9 623d
000003a0: d174 b63d 9e08 943d 65fe c43c 57bd 44bd
000003b0: 39b8 a9bb 0d76 3bbe 0c65 a73c 7029 88bd
000003c0: 36fa de3c 85ba e7bb 1774 c2bc bcdd e2b9
000003d0: 4811 90bc a622 a2bd b4f8 533c aa36 ab3b
000003e0: c565 b23c d4c4 b23c 2fb8 163c fa14 b13c
000003f0: 3ab7 99bc ee4d 29bd 87cc d33c 046f 913d
0.04771126 -0.050269537 -0.015347734 0.0031868143 0.04577369 0.036430795 0.016072324 -0.0014237772
0.03976054 -0.008703739 -0.01947909 0.0007376323 -0.081213586 0.019490734 0.021683216 -0.020613767
0.22733396 -0.09445606 -0.013215765 0.024737448 -0.10804045 -0.059404694 0.016909303 -0.025128745
-0.008325645 0.02228455 0.0011491539 0.004944263 -0.027039548 0.10945814 -0.0032904658 0.014465228
0.012937137 0.009398763 -0.012017108 -0.004262906 0.01813331 -0.0065749385 0.011687136 0.015555556
0.011664999 -0.056092907 0.016043302 0.025351904 0.17812654 -0.04801325 -0.015149997 -0.03133587
-0.041074514 -0.03697876 0.06501795 0.039919406 -0.06629915 0.07952619 0.029661687 0.0010874455
0.017854972 -0.15748487 -0.025172748 0.019060733 0.0030390485 0.019029003 0.01049489 0.07701438
0.03558975 0.067904875 0.03869627 0.01770377 0.096415766 -0.06273608 -0.005792509 -0.09528167
-0.0272542 0.1502937 -0.029494602 0.018043835 0.13482723 -0.031113168 0.0023866815 -0.028998388
-0.106688775 -0.1457622 -0.0058107083 0.012026522 0.08941513 -0.19326511 -0.017925618 0.014102129
-0.04137903 0.05243444 0.027192384 -0.02108047 0.031653352 -0.15540229 -0.033157133 -0.02010112
-0.050105955 0.13311227 0.020727227 0.05928047 0.01961281 -0.073064655 0.19561246 0.1975277
0.0015803989 0.13012308 0.0071141436 0.068708606 0.029015023 0.06169154 -0.013438006 -0.02229008
-0.05974422 0.06565248 -0.0044049704 -0.002037612 0.044556983 0.001131937 0.010346621 -0.013130987
-0.051156063 0.19635013 0.009585956 -0.086405516 -0.067426935 -0.28913537 -0.0006656571 0.026106786
0.016367044 -0.014829709 -0.0003096329 0.011014906 -0.0022653232 0.13563573 -0.0032952037 -0.03837867
-0.011548571 0.044293102 0.036025107 0.06849749 -0.02531204 -0.076749526 -0.03370502 -0.03358703
-0.055828076 0.17308839 0.0062533095 0.061085485 0.06338358 -0.29999593 -0.00035673915 0.16911483
0.1496085 -0.027958978 -0.031853598 0.18924691 -0.10816063 0.21508583 -0.03783799 0.020969097
0.044438567 -0.016165659 0.016376944 -0.069639966 -0.04306336 0.1152311 -0.029176949 -0.06428598
0.024007587 0.025786804 0.057939418 -0.08628933 -0.0139061725 0.20212997 0.075262755 -0.053718667
0.09950061 -0.015296324 0.08035295 -0.0337065 -0.02675017 0.029913355 -0.01854498 -0.029264407
-0.025180861 -0.0117242765 -0.018357065 -0.015449098 0.035958964 0.014869296 0.058269918 0.0051272013
-0.11169201 -0.055291567 -0.05267332 0.020471852 0.062964916 0.0044795256 -0.02916492 -0.00038412184
-0.0086661475 0.050429136 -0.03747664 -0.0710187 0.30160314 0.08576983 0.15636031 0.24546026
0.109412365 0.04030074 0.03391561 -0.0076023294 0.053372156 -0.16484393 0.0010843095 0.035693236
0.018910702 0.063510075 -0.030185724 0.11342608 0.055244893 -0.0791133 0.008875315 0.11034717
0.05122904 0.10332016 -0.021561544 0.08449502 -0.0019711521 0.027292192 -0.030873649 0.055352755
0.08909 0.07228206 0.024047086 -0.04803213 -0.0051794318 -0.18306752 0.020433925 -0.066485286
0.02721892 -0.0070717954 -0.023736997 -0.00043271284 -0.017586365 -0.07916765 0.012937713 0.0052250223
0.021777043 0.02182237 0.009199186 0.021616448 -0.018764127 -0.041334085 0.025854362 0.07101253

fc1.bias f4 [256]
00000000: 653b 06be 3a75 3ebe 9200 383e 3634 003e
00000010: f501 483d 969b a3bd 58a4 81be c5ed f7bd
00000020: df5d 09be 9619 54be 07f1 b6be 827e d3bb
00000030: 1108 a23c e4c9 febd 6452 c43d 24eb 783d
00000040: 9073 7ebc 0443 a838 dba8 05bd 5bbb df3d
00000050: cedb 383e 4e8e 1e3e 05ea 73bd ac29 513d
00000060: e8d1 71be c29f 64bc 9e9b a13d a2af 7abd
00000070: 6828 9f3d 7701 4abb 4f2a d1bc 5d45 aa3d
00000080: dc9d e0bd b2bf af3d 158a d7bd df90 97bd
00000090: 2a42 b4bd 9b8f 81be 322a 07be bfe0 2dbd
000000a0: 3168 3a3d 7baf adbe ff5d 1cbd af56 07be
000000b0: 267b 9dbd 7b05 98be 8157 05be 9170 d0bd
000000c0: a9b9 dabe d261 69bd c4ac 07bd 7f58 713d
000000d0: 0f35 37be 4b39 2fbd 0dbe a1bc 74bb db3d
000000e0: e111 59bd 1306 cebd 1c05 bfbc 7976 8fbe
000000f0: 8e63 66bd c5f2 62be dc76 70be 02d7 a83d
00000100: 0cdc 21bd 045f 2ebe b645 c93d a4d0 bcbd
00000110: c40b 923d 10a6 13bc 5815 2cbe 37a8 4ebe
00000120: 0393 52be d4b3 00be 170e 5f3c c558 b9bc
00000130: 6b56 e23c 7dce 32bb 3d62 51be 3b6a 91be
00000140: e210 87be eb74 823e 9da6 eabc 4ec3 2cbe
00000150: 1423 14bd 0b61 71bd 58ec 933d 5de3 5fbd
00000160: 7cb6 8cbd 7281 9fbd bd7f 09be ca27 9ebe
00000170: 0375 65be 3dca 0b3e ef01 08be 64a3 abbd
00000180: 53f4 98bd 5c57 ca3a 7f86 ffbb 90fc 9c3d
00000190: d8bc 8b3c 8325 5abe b1e9 b23d 3af1 47bc
000001a0: 4878 f7bc abe2 58bd acd6 82be 2cf1 7a3d
000001b0: 181a 27be 5f74 89be 6ea3 4fbe 7eeb 27bd
000001c0: b91c 7a3d 4324 1cbe d851 743d f0a2 d1bc
000001d0: d0da 513c 5d5b 1cbe ed0c f1bb 987f 11be
000001e0: 2910 033d 6c13 8ebd f423 16be 4134 293e
000001f0: 0ef1 6abd 27cc 99bc 2b8f 76be 0218 6dbd
00000200: 6008 5639 20b2 08be b418 013e 5520 0a3d
00000210: e690 efbd a0a5 b1bd c330 3b3d 184e febc
00000220: 45d5 4ebd eb5e 18be 37e2 59bd af88 7b3d
00000230: dcfc 8e3d 41d4 0f3d 3327 b03d 396a 67bd
00000240: 9694 91be 87b6 08bd 861d b9bd a55a 123e
00000250: 98ce 86bc 3759 3c3c e66a 65bd 91bb 3dbe
00000260: 00e6 89b8 f36e 5fbd 6af8 1dbe 1da7 393d
00000270: e611 913c 68d7 c5bd 2cf2 01bd 5764 28be
00000280: 2b5f 1abe d9f2 433c a839 b1bc 757d 233c
00000290: 5808 313d 451b 1e3b d276 46be 83b2 d2bd
000002a0: f704 18be 3f7c 863d cee1 903d ef67 adbd
000002b0: 10f0 37be 1523 86be 00c0 b83a d245 1b3e
000002c0: e4f4 dd3c 9e67 88bd 86ea a43d 071d 54be
000002d0: 6fee e53d aed8 31be 945a d2bd fee4 003c
000002e0: dd4a ac3c 0627 4cbd 7d1c 963b c4c0 3c3d
000002f0: cb21 9c3c 192c f7bc ce42 aaba af3e afbd
00000300: af06 88be ef3d eabd b7bf 06be da1c d63d
00000310: 6e5b aa3c fa24 16be 861b 5c3d daaa 55be
00000320: 8d28 b23c 779b 50bc 02c5 85bd 488e e73c
00000330: 37af a23d 187d 2fbd f71c a83d bad9 193d
00000340: 2cc6 c63d c653 22bc 4bb0 c2bd 7155 7abd
00000350: 0c2f 093e db34 18be 1944 1fbe 633f a6bc
00000360: 2bea 99bd f17e 0c3e 75bd 6fbe dad2 5e3d
00000370: f79e 30be eb78 083e 110e 89be 2b06 19bd
00000380: 54df 063e b77f 30be 4081 d23a 433b fb3d
00000390: 2118 113d 5b8e 2dbd 1ca7 c03d 6e84 103d
000003a0: ccd3 22bd 7a0a 5f3d 16a4 47bc d269 34be
000003b0: 0f1e e8bd e57b 2fbe 6ad2 89bd 2ee1 49bc
000003c0: 5b7d 833d 2047 0d3e f111 e5bd d2b5 44be
000003d0: 03cb ecbd 63ef 40be 8f03 acbd 7e40 ff3d
000003e0: 7ecc f7bd b139 3ebd 9662 4f3d affa d3bc
000003f0: 7642 8c3d 981f 25bd 3f9e 7bbc 029d a3be
-0.13108595 -0.18599406 0.17968968 0.12519917 0.04882999 -0.0798866 -0.25320697 -0.12105898
-0.13414715 -0.20712885 -0.35730764 -0.00645429 0.019779237 -0.12440851 0.09586027 0.060771123
-0.015530482 8.023347e-05 -0.032631736 0.10924407 0.18052599 0.15483972 -0.05954935 0.051065132
-0.23615229 -0.013954105 0.0789101 -0.061202653 0.07771379 -0.0030823627 -0.02553287 0.08314011
-0.10967609 0.08581485 -0.10524384 -0.07400679 -0.08801682 -0.25304875 -0.1319969 -0.042450663
0.04550952 -0.33922943 -0.03817558 -0.13216661 -0.07689504 -0.2969168 -0.13021661 -0.1017772
-0.42719772 -0.056978054 -0.033123747 0.058922287 -0.17891334 -0.04277925 -0.019743944 0.10729113
-0.052995566 -0.10059752 -0.023317866 -0.28020075 -0.056247286 -0.22162922 -0.23482841 0.082441345
-0.039516494 -0.17028433 0.098277494 -0.092194825 0.0713115 -0.00901176 -0.16805017 -0.20181356
-0.20563893 -0.12568599 0.013614199 -0.022625336 0.027629098 -0.002728372 -0.20447631 -0.2840136
-0.26380068 0.25479826 -0.0286439 -0.16871378 -0.036166266 -0.058930438 0.07222813 -0.05466019
-0.06870744 -0.077883616 -0.13427635 -0.30889732 -0.22407918 0.13651367 -0.13281988 -0.08380774
-0.07468476 0.0015437412 -0.0077980156 0.0766536 0.017057821 -0.21303372 0.08735979 -0.012203509
-0.030208722 -0.052950542 -0.25554407 0.061265156 -0.16318548 -0.26846597 -0.20277187 -0.040996067
0.06106255 -0.15248208 0.059648365 -0.02559039 0.012808517 -0.15269227 -0.007356277 -0.1420883
0.031997833 -0.06937298 -0.14662153 0.1652384 -0.057358794 -0.018774105 -0.24078052 -0.057884224
0.0002041175 -0.133492 0.1260708 0.03372224 -0.11697559 -0.086741686 0.0457008 -0.031043097
-0.05049636 -0.14879958 -0.05319425 0.06140965 0.06981823 0.03511453 0.08601227 -0.056497786
-0.28433675 -0.033377197 -0.09038834 0.1429239 -0.016455933 0.01149588 -0.05601015 -0.18528582
-6.57551e-05 -0.05454917 -0.15426794 0.045325387 0.01770873 -0.09660226 -0.031725094 -0.16444527
-0.15075366 0.011959755 -0.021633938 0.009978642 0.043220848 0.002412514 -0.19381264 -0.10287955
-0.14845644 0.06566667 0.07074319 -0.084670894 -0.1796267 -0.2619864 0.0014095306 0.15163353
0.027094312 -0.066603884 0.08052544 -0.20714198 0.11227118 -0.17367813 -0.10271183 0.007867096
0.021031791 -0.049841903 0.004581033 0.046082273 0.019059082 -0.030172395 -0.001298988 -0.08556878
-0.265676 -0.11437594 -0.13159071 0.10454722 0.02079555 -0.14662543 0.053737186 -0.20865956
0.021747852 -0.012732378 -0.06531717 0.028266087 0.07943576 -0.042843908 0.082086496 0.037561156
0.09705767 -0.009907668 -0.095062815 -0.06111664 0.13396853 -0.14863913 -0.15553321 -0.020293897
-0.07515367 0.137203 -0.23412116 0.054400302 -0.1724814 0.13327377 -0.26768544 -0.037359398
0.1317113 -0.1723622 0.0016060248 0.12267163 0.0354234 -0.04237209 0.094068736 0.035282545
-0.039752766 0.05445335 -0.012185117 -0.17618492 -0.11333858 -0.17137106 -0.067295864 -0.012321753
0.06420394 0.13796663 -0.11185063 -0.19209984 -0.11562159 -0.18841319 -0.08399116 0.12463473
-0.12099551 -0.046441738 0.05063113 -0.025876371 0.06848614 -0.040313333 -0.015357553 -0.31955725

fc2.weight f4 [128, 256]
00000000: ff43 353e 1045 7e3c 4c14 87bc bd26 dc3d
00000010: 1b09 9a3d f598 423d c703 95bd 8f95 6fbe
00000020: 92f6 9e3c 4a3e 973e 7528 843d ac8e 5abc
00000030: a82a 02bc 691d 0b3d 17a1 243c ea5e 803d
00000040: 3923 62bd c9d3 12bd c79d 3f3d e163 39bd
00000050: fb32 703c 4795 8a3d b9c1 99bd 2f4a 06bd
00000060: de9a 3f3e aebb 19bc 306d f5bc 3850 ae3b
00000070: 482a ddbd 6a68 5bbb a352 653c 9359 763d
00000080: ef6f 32bd ed82 74bc 13db 32bd c3cc efbd
00000090: 694c b63b 392b ef3d a4a2 913d 2a9b 90bc
000000a0: 9140 f73c 2eac a8bd 911e 90bd da8a db3c
000000b0: 0ecc c8bb fabb ba3d c9cf a9bc 7389 db3d
000000c0: cd54 85bd 52f7 4b3e 8a33 1fbc 109a 6abb
000000d0: 0188 3d3d 317e 86bd 0fed a0bd 4215 19bd
000000e0: 26eb c6bd 4bb4 f53c 4e41 03bd d1e3 233d
000000f0: ed4b 043e d82a c63c a3df 71bd e410 9abd
00000100: 5113 c43d a67f dabd 7743 03be 6bd8 94bc
00000110: 9e31 173c c312 f4bd 0440 81bd e480 4abc
00000120: e322 81bd 1e69 813d af6e 25bd 37c8 c0bc
00000130: 30e3 4e3b 0383 ddbb 6594 6fbd 21cf 483d
00000140: 80c5 af3c 81aa b73d efb5 39be 698f 8dbc
00000150: a2f3 d53d 5933 84bc c626 02be b2f5 82bd
00000160: bffc fabc c849 20bd 75a5 b63d 36a4 97bc
00000170: b3b4 103e 2c59 bb3a 6744 81bd 8186 133d
00000180: 9ae0 99bd 07d0 a33d e3bd 00bd 1334 663d
00000190: a118 2bbd 1c44 ddbc 68f9 323d a263 e4bb
000001a0: ea54 21bd 6a35 523d 25e6 dd3d 4ba5 91bb
000001b0: 65fc 973d b091 cbbc 82e7 0abe 8899 1e3d
000001c0: dfff a3bd aef6 43be 341f d4bd 31c3 8c3c
000001d0: c743 bf3c 4fa2 09bc 049f 3abd 5a6c 10bb
000001e0: 2652 8cbd 647b 74bc 1639 093e ad02 d1bc
000001f0: 6d6b ab3c 0fc0 50bd 9cfa ea3d b162 05be
00000200: 4b4c 963b aa7e 39be c143 84bc 840f 37bd
00000210: 97b8 933d 988d d5bb 499e 973d 0731 9bbd
00000220: 130d cf3c f935 c63c 9609 0a3d 289f 1abb
00000230: 854e 973b 5459 da3b 2c3d 07bd f96e 28bd
00000240: b18e d73d e007 043d 20f8 63bb f790 0ebd
00000250: 2f43 a93c 2a3d 4f3c e24d 453c c456 8cbd
00000260: 83e2 b4bd f720 7bba 823d 2a3c 03df 25bd
00000270: 388a 193e ce81 5abd d4aa 0cbd 781e 393e
00000280: 7d85 9d3d bbe6 11bd 8d10 093e a785 97bd
00000290: 798b 043d 4336 213d 1afc 6dbc 5014 31bd
000002a0: f699 c4bc 7d66 303d 4e16 113d 35b8 463d
000002b0: bca1 4bbd 3766 74bd 9d4b 8ebc 7e72 833c
000002c0: cd4a 9ebc 0f42 9dbd f1b0 9cbd 84be 05bd
000002d0: c0af 0d3e dacd e03d 62de b7bd 2301 b2bc
000002e0: 99ed 93bd 6b91 203d bb64 973d 86b6 953c
000002f0: 516c abbd 8a77 15be 9f0c a8bd 7c33 efba
00000300: 8913 a13c de70 e43d af9e 15bd c927 453c
00000310: 04e2 ffba 1014 de3d 8054 d5bd 495a 6b3d
00000320: 30a5 a3bd b383 243e 5817 423d d804 98bd
00000330: 535f 6a3d ede7 5cbc b3e4 e53d 3717 41bd
00000340: d0a5 cfbd 01ef 45bc b1a5 2cbd 0a85 0e3e
00000350: 9fa0 d33d a418 4f3d 3cf3 003d 538b 18bb
00000360: ff3e 02bd aadd 02bd bcbe 37bd d494 4c3d
00000370: ca71 a2bc 8b97 b2bd 85af b23d 799f adbd
00000380: 593c cdbc 4b8b 503d 0cf1 7c3d 46cb 6bbd
00000390: ec96 63bc ecdf 90bd 04a7 843d 75b0 e1bd
000003a0: 0118 193d bb5d 79bd 7ebe df3d e0f9 133d
000003b0: a3df f73c c831 36bd 6407 59bb 8e9f 473e
000003c0: 9ce6 28bd 99e9 08be 62ff 2ebe eb7d 00bc
000003d0: bd69 0a3e 79e0 32b7 3e6e 0c3e 2aa6 c2bd
000003e0: a32f a03d eab4 1abb f439 753a f1b4 a43d
000003f0: 7f4e f2bd 5ab8 43bd 18f4 cd3d 0f69 8a3d
0.1770172 0.0155193955 -0.01648917 0.10749576 0.07521268 0.047509152 -0.07276111 -0.23396896
0.019404683 0.2953971 0.06453029 -0.01333968 -0.00794474 0.033963595 0.010048172 0.062681034
-0.055209372 -0.035846505 0.046781328 -0.045261268 0.014660592 0.06766754 -0.07507653 -0.03278559
0.18711421 -0.009383125 -0.029959291 0.0053196214 -0.1079908 -0.0033478984 0.013996753 0.06014402
-0.04356378 -0.014923793 -0.043665957 -0.11708977 0.005563308 0.11678166 0.07111099 -0.017652113
0.030182155 -0.08235966 -0.0703708 0.026799608 -0.006127841 0.09117885 -0.020728962 0.10719576
-0.06510315 0.19918564 -0.009716878 -0.0035797395 0.04627228 -0.06567038 -0.07857715 -0.03737379
-0.0971282 0.029993197 -0.0320447 0.040012185 0.12919588 0.024190351 -0.059051167 -0.07522753
0.09573997 -0.10668878 -0.12818705 -0.018169602 0.009228138 -0.11917641 -0.06311038 -0.0123598315
-0.06305482 0.06318878 -0.04038876 -0.02353297 0.003156852 -0.0067600026 -0.05849113 0.04902566
0.02145648 0.08968068 -0.18135808 -0.017280297 0.1044686 -0.016137766 -0.12710103 -0.06394519
-0.030638097 -0.039132863 0.08918277 -0.018510919 0.14131431 0.0014293543 -0.06311875 0.036016945
-0.075135425 0.079986624 -0.03143109 0.056202006 -0.041771535 -0.027010016 0.043694884 -0.006969885
-0.03938762 0.05132047 0.10834912 -0.0044447533 0.07421187 -0.024849743 -0.13564876 0.038720638
-0.08007788 -0.1913707 -0.10357514 0.017182918 0.023347748 -0.008400514 -0.045561805 -0.0022037239
-0.06851606 -0.014921997 0.13400683 -0.025513971 0.020925248 -0.05096441 0.11473581 -0.13025929
0.0045867315 -0.18114725 -0.016145589 -0.04469253 0.07212942 -0.0065171234 0.074032374 -0.075777106
0.025274789 0.024195658 0.033700548 -0.00235934 0.0046175146 0.006663481 -0.033017322 -0.041121457
0.10525263 0.032234073 -0.0034785345 -0.034806218 0.020661918 0.01264886 0.0120424945 -0.06852487
-0.08832266 -0.0009579802 0.010390641 -0.040495884 0.14994133 -0.053346448 -0.034342602 0.18078029
0.076914765 -0.035620432 0.1338522 -0.07398539 0.032359574 0.03935839 -0.014525438 -0.043232262
-0.023999196 0.04306649 0.035421662 0.048515517 -0.04971479 -0.059667792 -0.01737004 0.016045805
-0.019322777 -0.07678615 -0.076509364 -0.032652393 0.13836575 0.10976763 -0.08977963 -0.021729058
-0.072230525 0.03920118 0.0739226 0.01827551 -0.08370269 -0.14596382 -0.08205532 -0.0018249596
0.019662635 0.1115434 -0.036528286 0.012033411 -0.0019522314 0.1084367 -0.10416508 0.05745915
-0.079904914 0.16065864 0.047385544 -0.07422799 0.057219815 -0.01348303 0.112252615 -0.04714128
-0.10139048 -0.012080909 -0.042150203 0.13917938 0.103333704 0.05056061 0.031481966 -0.0023276403
-0.03179836 -0.031949677 -0.044859633 0.04994662 -0.01982965 -0.08720311 0.08724884 -0.084776826
-0.02505319 0.05091409 0.061753318 -0.057566904 -0.013890963 -0.0707396 0.06477168 -0.11019985
0.037376408 -0.060880404 0.109250054 0.03612697 0.030258005 -0.04448107 -0.0033115977 0.19494459
-0.04123555 -0.1337036 -0.17089608 -0.007842521 0.13516898 -1.0661891e-05 0.13713929 -0.095043495
0.07821586 -0.0023606368 0.0009354644 0.08042324 -0.11831378 -0.047783233 0.10056323 0.067583196

fc2.bias f4 [128]
00000000: fc00 0a3d 0c70 f4bd ed55 1fbd 85cd 8fbd
00000010: cca4 ea3b 3183 23bd 9b06 2bbd 3f43 09bd
00000020: 4028 6a3d d0b6 d2bd 62d7 26bd 0761 e4bd
00000030: 4eda 453d 75db 02be 64a6 533d 9eba 16bd
00000040: 9966 503d 34c3 dbbd 7799 03be ac44 acbd
00000050: 12af 1a3d 47b7 ed3b 506e 773d b8a7 bc3c
00000060: 157c d5bc 7db1 fcb9 270e 35bc 9a51 78bd
00000070: d19e ec3c 68d7 1e3d 7fff acbc 6895 a4bd
00000080: c282 733c 42aa 81bd eea4 1e3d bda8 df3c
00000090: cca1 95bb 6934 b3bc 07fd e0ba 6318 c03d
000000a0: 9e09 313d db5f 8cbd 29cf e13c ab68 9bbd
000000b0: 0727 a03c 979c aebc e56f 05bd 1466 0ebd
000000c0: 82c9 65bb 3ed1 663c 9f10 d13b d22f c23c
000000d0: f1fc 73bd f226 efbc 8426 cfbd 1ad2 963b
000000e0: c22c cbbc f81f acbc 95a9 fa3c a470 1d3d
000000f0: 9e29 95bd 043d 813d 1fce 2bbe ffb8 2f3d
00000100: 7548 633c 2e3f 80bd 8271 c7bd 3739 293b
00000110: bced dd3b dd87 c8bb 4037 b43c 114c 19bd
00000120: 3475 8c3a d693 30bd 9b8c f1bd bdeb 14be
00000130: 58f0 f53b ee88 f3bb 11cf f2bd c733 76bd
00000140: a8ad 14bd ca53 033c a6ee 71bd e7b9 233d
00000150: 2e77 0dbe ca67 9fbd 73e3 7fbd dbf1 fdbc
00000160: 8edf 323d 92bf 103d 03be e0bc 72eb 82bd
00000170: 443a 453d f262 babd 3f6c 20bd 5195 0dbd
00000180: b74e dcbb dd1c 77bd 48fd b2bc 24b5 3b3d
00000190: 1385 e8bc 7134 cbbd 61ef afbc 6952 c2bc
000001a0: 512f 33bd e3fe 17bc 2847 8d3c cb03 9a3d
000001b0: 0adc 8ebc 4235 48bd 52bb 0c3c 2a11 b63d
000001c0: 2d64 f03c 9d97 6fbd 9d5b 0a3e 9664 5dbd
000001d0: baf1 023d bc25 3ebd 540f bcbd 0006 823d
000001e0: d4c1 573c ea9e fcbd db53 05bd 2dca d53c
000001f0: a5b6 49bb 2ff2 ad3d d533 6bbc d2a1 7fbd
0.033692345 -0.11935434 -0.038900305 -0.070216216 0.0071607586 -0.039920036 -0.041754346 -0.033511396
0.05716729 -0.10288775 -0.04073275 -0.11151319 0.048303895 -0.12779029 0.051672354 -0.036799066
0.050879095 -0.107305914 -0.12851511 -0.084115356 0.037764616 0.0072545144 0.060407937 0.023029193
-0.026060143 -0.00048197425 -0.011050737 -0.060624696 0.028884323 0.038779646 -0.021117924 -0.080363095
0.014862718 -0.06331302 0.038731508 0.02730214 -0.004566407 -0.021875577 -0.0017165252 0.093796514
0.043222062 -0.068542205 0.027564602 -0.07588323 0.01954986 -0.021314902 -0.032577414 -0.034765318
-0.0035062735 0.014087973 0.006380155 0.023704443 -0.059567396 -0.029193375 -0.10114768 0.004602683
-0.024801616 -0.021011338 0.030598441 0.0384375 -0.072833285 0.06310466 -0.16777848 0.042901035
0.013872256 -0.062620506 -0.09738447 0.0025821456 0.006772725 -0.006119712 0.021999002 -0.03742606
0.0010716082 -0.043109737 -0.117943965 -0.14543052 0.007505458 -0.007432095 -0.11855901 -0.060107972
-0.036298424 0.008015582 -0.059065484 0.039972212 -0.13814995 -0.07783468 -0.06247277 -0.030999115
0.04367023 0.035338946 -0.027434355 -0.06392564 0.04815127 -0.091009036 -0.03916573 -0.034566227
-0.0067232507 -0.06033026 -0.02184929 0.045827046 -0.028383767 -0.09922112 -0.02147645 -0.023720937
-0.043746296 -0.009277078 0.017245844 0.07520255 -0.017438907 -0.048878916 0.0085895825 0.088899925
0.029344643 -0.0584942 0.1351151 -0.054051004 0.03196881 -0.046422705 -0.09182611 0.06348801
0.013168771 -0.12334998 -0.032550674 0.026097381 -0.003077903 0.084934585 -0.014355619 -0.062410183

fc3.weight f4 [64, 128]
00000000: 13d5 603d 0bb2 d83d 3b94 9d3c 750b 2f3c
00000010: 4ae5 2cbe 299c 383d bcae b6bd 462e 863d
00000020: 4bf1 703d ae88 a13d 1718 a6bd 135c a63c
00000030: e0e4 01be e59b c33d 1b84 cd3c d974 9ebd
00000040: b126 0cbb ea62 4bbe eeff 48bd 03ce fcbc
00000050: 9108 713d a558 fb3a ea66 a6bc 778d 92bd
00000060: ef0d 0bbe 94cf a13d 85e1 bbbd e679 a83d
00000070: 80c3 1dbc 915f 543d 92eb 933d 4c76 843d
00000080: 8d11 8a3c deb3 283e b898 333b 7858 e5bd
00000090: a0f2 b0bd b56b 09be 471a 28be b81c c6bd
000000a0: 4930 43bd 885b e239 2048 713c dbdc 513d
000000b0: 62d3 7bbd 9166 e2bc ce7f d1bd 9499 5d3d
000000c0: 4276 9e3d ec82 a53d 4b2a 9f3d b86b d0be
000000d0: e3ad adbd f550 a2bd 86cb 2dbd 8196 30bd
000000e0: 347c 0a3d f3c7 28bd eea6 033e 5cb1 1d3e
000000f0: e080 2d3d ccb2 6cbd a3f2 86bd ce68 c5bd
00000100: 2a6f b73c 1907 b93d 2e78 803c 17ea 8abd
00000110: 8359 9fbd b764 ce3c 88ca a83d 0e9d 333d
00000120: 677d 2cbc 6e08 623d cd32 813d b563 bd3d
00000130: 9406 383d e9ce adbd 3543 26be b50a aabc
00000140: f32c 18bd f5b1 0ebe 77eb 803d c317 efbd
00000150: 2d1e 7abd 1dcb b13d f24d 91be 1e25 c9bc
00000160: 0487 bb3d 742b ec3d 23a4 fa3b aa70 a33c
00000170: 270f 8abd 98b8 15be a32a 3b39 9f25 0c3d
00000180: 80f5 ecbc 5d0c adbd 4840 073e fc1a 13be
00000190: 6f5e 573d 1748 ef3d 0174 0fbe 8061 143e
000001a0: 136a fbbd 810c 27bd 89d7 ffbc ac3d e6ba
000001b0: 8844 153c 9361 04be 85ce 493d cded ea3d
000001c0: aa26 8e3d 3838 a5bd 3c6f 2ebe 8ddb b0bd
000001d0: 825d fe3d 2a93 00bd 9a9e 93bc 9bf4 853d
000001e0: 0bfd 9bbd 8d2d 273e a739 33bd ef39 8ebe
000001f0: 6df1 8a3d a10c 71bd 8017 67bd 1edc e3bd
00000200: f53a 52be d322 71bd 6832 8b3d c1f8 fe3d
00000210: 007a 6c3c 1797 95be d646 c5bb 08d6 423e
00000220: 5de4 c23b 1052 d73c fc9d 95bd 9f76 7c3c
00000230: 3667 1dbd 0845 b13d 2761 66bc c136 1e3e
00000240: f91b 793d 2880 e6bd 96e3 1dbe 1d84 973d
00000250: 551a a9bd 595b 35bc d553 89bb 49de 853d
00000260: 6116 89be 6441 2abe 404e 52bc 735b b3bd
00000270: f623 f13d 1c9c 2ebe 70ae 223d 6500 bebd
00000280: 3c9c d53d d71e 68bd ff4c 14bd 586d 713d
00000290: 0500 8ebc 224e 713c fc2a 333b 153d f1bc
000002a0: a05d 80bc db21 40bd 6847 553d a117 4c3e
000002b0: 9f9c 14be 2c34 0a3e a303 01bd 789d 2dbe
000002c0: d8ea 5b3e c1b4 ab3d 1205 673d d5df 0a3e
000002d0: 63d5 613d a4e8 d63d 2608 163c e7ae b73d
000002e0: fbee 09be 4a14 46be 20de 8e3d 0112 babd
000002f0: accb 1bbc 1bf8 c03d f8a3 f1bd d515 c9bd
00000300: d3b3 7cbd 4586 53bd 9d09 2f3e 5cba 97bd
00000310: af0c b53c 6f30 a3bd daa6 bf3b a028 13bc
00000320: 5786 3c3d ba1d debd de53 00bd c65c b6bd
00000330: 08d6 c63c 835f f0bc 3306 58bc b2fe a6bb
00000340: 1805 a8bd 209e 213d ca6f 8dbc 4797 a1bd
00000350: b6e7 81bd c1b4 a9be fb01 5fbe 0a1a c2bd
00000360: 1de7 4cbd c32f c53b 7fd8 13bd ae42 f2bc
00000370: d91b fcbc e42d 5dbd 285d 863c ee11 4d3e
00000380: 93fd 05be 3c61 ed3d 4a25 233d a585 1fbe
00000390: f4d7 11bd 8ff7 a63d 33b7 23be 8196 f63d
000003a0: ce80 0c3c f7bf 0dbe 9779 93bd 24a4 03be
000003b0: 9ae6 7dbe bc9a eabc 60bc 1d3b 2c6c 6dbe
000003c0: 9bb4 c2bd a1d3 1dbe ec90 24be 9cf9 8c3d
000003d0: 732a 81bd 40ec 4cbd 66cf ddbd ead1 c6bd
000003e0: e6a7 e7bd f161 b8bb c549 84bd 28ab f5bd
000003f0: 7527 b1bd 9679 92be 5056 51bc 13b2 09bd
0.054890703 0.10580834 0.01923572 0.010683884 -0.16884342 0.0450708 -0.08920047 0.06551795
0.058823865 0.07887398 -0.081100635 0.020307576 -0.12684965 0.09551219 0.025087407 -0.07737131
-0.0021385367 -0.19861951 -0.0490722 -0.030859953 0.05884606 0.0019176198 -0.020312745 -0.071558885
-0.13579534 0.079009205 -0.09173874 0.08226375 -0.00962913 0.05184895 0.07222666 0.06467876
0.016854072 0.16474864 0.002740426 -0.11198515 -0.08640027 -0.13419993 -0.16416274 -0.096734464
-0.04765347 0.00043174275 0.014726669 0.051236015 -0.061480887 -0.027636798 -0.10229455 0.05410154
0.077374 0.08081612 0.077717386 -0.40707183 -0.08480432 -0.079255976 -0.042430423 -0.04311228
0.033809856 -0.04120631 0.12856647 0.15399688 0.042359233 -0.0577877 -0.06589248 -0.096391305
0.022391874 0.09034557 0.015682306 -0.0678293 -0.07780745 0.025194509 0.08241755 0.04385095
-0.010527945 0.05518382 0.063085176 0.09247533 0.04492815 -0.084867306 -0.16236575 -0.020757059
-0.037152242 -0.13935073 0.06294911 -0.11674454 -0.061063934 0.08681319 -0.2837978 -0.024553832
0.091566116 0.115317255 0.007648961 0.019951183 -0.06741171 -0.14621198 0.00017849593 0.034215566
-0.028925657 -0.08449624 0.13208115 -0.14365762 0.052580293 0.11683672 -0.14009096 0.14490318
-0.122760914 -0.04078341 -0.031230705 -0.0017565987 0.009110577 -0.12927847 0.049269218 0.11471138
0.06940968 -0.080673635 -0.1703462 -0.08635626 0.12420179 -0.031390347 -0.018019963 0.065407954
-0.076166235 0.1632597 -0.043756153 -0.27778575 0.067843296 -0.058849934 -0.056418896 -0.111259684
-0.20530303 -0.0588711 0.067967236 0.1244979 0.014433384 -0.29216835 -0.006020407 0.19026959
0.005947633 0.026284248 -0.07305524 0.015409141 -0.038428508 0.08655745 -0.014061249 0.15450574
0.060817692 -0.112549126 -0.15418848 0.073982455 -0.082569756 -0.011069142 -0.0041909018 0.06536538
-0.26774886 -0.16626507 -0.012836039 -0.08757677 0.11774437 -0.17051739 0.039717138 -0.09277419
0.1043019 -0.056670036 -0.03620624 0.05894217 -0.017333994 0.014728101 0.0027338853 -0.029448071
-0.015669644 -0.046907287 0.05207005 0.19930889 -0.14512871 0.13496464 -0.03149761 -0.16954601
0.21476305 0.083840854 0.05640132 0.13561948 0.055135142 0.104935914 0.009157216 0.08968907
-0.1347007 -0.19343677 0.06975961 -0.09085465 -0.009509008 0.09422322 -0.11798853 -0.09818617
-0.06169493 -0.05164172 0.17093511 -0.07408592 0.022100775 -0.07968222 0.0058487477 -0.008981854
0.046026554 -0.10845514 -0.031329982 -0.08904414 0.02427198 -0.029342419 -0.013185072 -0.00509628
-0.082040966 0.03945744 -0.01726522 -0.07890182 -0.063430235 -0.33145717 -0.21778099 -0.09477623
-0.050025094 0.0060176565 -0.03609514 -0.029572811 -0.030774998 -0.053998843 0.016401842 0.20026371
-0.13085012 0.115908116 0.039830483 -0.15578325 -0.03560634 0.08152687 -0.15987854 0.12040425
0.008575631 -0.1384276 -0.07200926 -0.12855583 -0.24794999 -0.028638236 0.002406858 -0.23185796
-0.09507104 -0.15412761 -0.16070908 0.06883547 -0.06306925 -0.050029993 -0.10830574 -0.09708007
-0.11311321 -0.00562691 -0.06459383 -0.11995536 -0.08650104 -0.28608388 -0.012776926 -0.03361709

fc3.bias f4 [64]
00000000: fe32 21bc 31fa cbbc d4c7 4ebd 9ca7 50bd
00000010: 1cd2 b2bd 9b4c 8c3a 3052 713d dbb6 cf3c
00000020: 0ec0 43bd 2682 043e eef6 243d e999 5cbd
00000030: 01bc b1bd 2fcb 863d f3a4 92bd beb5 e5bd
00000040: 00de a43b 8f1f 453c 1d52 82bd 6b56 d73d
00000050: 6d0e 80bd ee41 0d3e 7442 333d 60c0 8ebd
00000060: 70b7 9a3d d64c a13c 78af 9a3c 6c0a c03c
00000070: e227 3f3b 3b9f d93d 10ea a0bd ccc7 523c
00000080: 68bd 9a3d e719 0b3d df3f cf3b 7842 96bd
00000090: e9a0 5bbc c61a babc aded 05bd c2bc 9a3d
000000a0: baee c63d 4cfb d5bd 9dd8 9abd be02 c3bd
000000b0: 459d cabc 07c9 14bc 61b0 373d c3c0 87bc
000000c0: f37a c9bc 21c4 06bd 0a0c f3bc 272e 2c3d
000000d0: 6b6d ed3d 06ff 60bd 31d3 a43d 9557 7c3d
000000e0: c0d8 c73c 70c8 e83d e824 923b 18d7 f2bc
000000f0: c191 3a3c 522f 023c b6ee 883c 9654 f4bc
-0.009838818 -0.024899574 -0.05048354 -0.050941095 -0.087314814 0.0010703983 0.05891627 0.025355747
-0.04779058 0.12940273 0.040274553 -0.053857718 -0.08678437 0.06581723 -0.07160368 -0.11216305
0.0050313473 0.01203145 -0.06363318 0.1051453 -0.062527515 0.13794681 0.043764547 -0.06970286
0.07554519 0.019689959 0.018882498 0.02344247 0.002916806 0.10626074 -0.07857144 0.012865018
0.075556576 0.03396025 0.0063247527 -0.07336897 -0.013405063 -0.022717845 -0.03269737 0.07555534
0.09713502 -0.10448322 -0.07560847 -0.095220074 -0.024733195 -0.009081132 0.044845942 -0.016571408
-0.02459476 -0.032901887 -0.029668827 0.0420362 0.115931354 -0.05493071 0.08048094 0.061606962
0.024395347 0.113663554 0.004459966 -0.02964358 0.0113872895 0.007945852 0.016715389 -0.02982549

fc4.weight f4 [1, 64]
00000000: 8d39 fc3d cbf6 94be 2283 403e 07ab 4f3e
00000010: 7fa0 0abd 6e79 823d 0685 7fbd 5aef 0abd
00000020: af78 4fbd 82ab babd 16e9 81bc ff58 14be
00000030: bd31 c9bc 845d dfbc 7ca5 a9bd 4f37 0a3d
00000040: 5db4 babc 4a5c ed3d 791d d23d 6ab2 82bd
00000050: 289b 133d 9a20 c6bc 5d37 99bd be26 4e3e
00000060: 26c3 9fbd 60c1 07bd 7d2f abbc d6b1 3bbd
00000070: 6236 ea3c 20a6 93bc 1efe 36be 3ef0 6dbd
00000080: 827c 2a3d 4a8e 9fbd aad9 19bd de08 59bd
00000090: 18f9 fa3c 4d61 b7bd 6733 fcbc 309b 963d
000000a0: 2139 c93c 30df 78be 6ff3 c73d 71e6 213e
000000b0: 92ae 34be cfa0 5b3d 152b 3e3e 4ab7 f33c
000000c0: c7f0 cbbc f2b1 2a3e 37b6 f2bd b64c 4e3d
000000d0: 5d83 b9bc f1bf ec3d d34e 71bc f102 fb3c
000000e0: 29fb 22bd 1a14 d4bc d054 4fbd 7f5b 2f3d
000000f0: 5b2d bc3d fe30 183d 272a ddbd 7fde d3bc
0.123156644 -0.29094538 0.18800023 0.20280086 -0.033844467 0.06370817 -0.06238272 -0.03391967
-0.050652202 -0.09114744 -0.015858214 -0.14487074 -0.02455985 -0.027266271 -0.08283517 0.033744153
-0.022791082 0.11589868 0.10259528 -0.06381686 0.03603664 -0.024185468 -0.07481263 0.20131966
-0.078008935 -0.0331434 -0.020896668 -0.045823894 0.028590385 -0.01802355 -0.17870376 -0.05809044
0.041622646 -0.07790811 -0.037561096 -0.052986972 0.030636355 -0.089541055 -0.03078623 0.073538184
0.024563374 -0.2430389 0.09763228 0.15810563 -0.17644718 0.053620156 0.18571122 0.029750485
-0.024895085 0.16669443 -0.11851161 0.050366126 -0.022645647 0.115600474 -0.014728266 0.030641051
-0.039790306 -0.025888491 -0.050617993 0.042811867 0.09188338 0.037156098 -0.107990555 -0.02586293

bn1.weight f4 [256]
00000000: 4f70 2c3f 7012 8c3e 4a8c 2a3f cf9c 433f
00000010: 1589 bb3e fffd 423e c810 ba3e df8f a63e
00000020: dbdd 043f 84a3 653f 0f03 4d3f 47f3 31be
00000030: 9f53 553f 8e18 573f 5094 033f e897 453f
00000040: 7881 ca3e c088 133e 733c 3f3f 07ad 0b3f
00000050: 7003 3e3f f3da a13e 9c8f 103f cbfc cc3e
00000060: 0b59 6b3e dd74 e13e 924f 403f f9a3 b53e
00000070: 29e8 fd3e bcab 303f fb24 783e 68d4 dc3e
00000080: f79a 443e 3c82 a33e b905 083f d131 3b3f
00000090: 3617 a33e 6216 0a3f a8ac 813e cde5 9d3e
000000a0: d6e2 2c3f bf07 283f e9ee 933e a71e f13e
000000b0: 672a 173e 2fd5 483f 98d9 d13e c3e3 003f
000000c0: 4e0b 403f ad66 6a3e 0b14 bb3e 243d 2b3f
000000d0: e88b 403f d28f 5f3f e66a d03e ff72 243f
000000e0: 7e68 043f 6189 8c3e 261a 533f 9aac 543f
000000f0: e1f6 9b3e 6bfe ad3e 13ff 323f 9279 7e3e
00000100: 62f4 ee3e d643 b93e 5d89 613f 59bc 9b3e
00000110: 9b99 463f 2ee9 b03e e33e 9d3e de10 193e
00000120: 49c1 153f b7e1 6e3f 0c9e f03e 17e0 2c3f
00000130: 2687 3e3f 61e3 b03d f6a4 033f 6728 303f
00000140: f28e 003f ebfd 913e ff4a d33e 5b59 343f
00000150: fbdc c33e cd23 083f 60fb 0d3f 4279 a33e
00000160: 7956 7e3e 85ec 263e 53f9 463f c564 813e
00000170: bd75 403f 85a6 183f 837a bb3e 0446 733f
00000180: d0c8 583f f9ab 313e 1819 273f 3a3d 203e
00000190: 0a6d 2e3f 2d4e b73e b40f 633e d0c5 303f
000001a0: afd1 a13e 54b9 133f c7d3 643f f18b 8c3e
000001b0: eeec 6f3e f981 333f ba84 643e e8cf 333f
000001c0: ec38 0c3f a0ce 473f c340 1b3f cba6 1b3f
000001d0: b63c 1d3e 2171 a43e b565 113f 1a89 893f
000001e0: 6842 cf3e 560e 623e 9f6b 673e 76e6 ef3e
000001f0: 3b08 883e 4801 ff3e 9e4e a13e 161a a33e
00000200: 2275 103f 735a 253e 43fb 173f f035 933e
00000210: 2a1e d03e b5a0 493e 9514 e43e 84da 373e
00000220: 8265 8a3e be48 0d3f 45ac a23e d67e 103f
00000230: 8502 3d3f b21d 2d3f dd3b 913e cc5a 5e3f
00000240: cae3 743f 3bfe 533e 10a5 333f 4fa6 be3e
00000250: b399 d73e 5a83 003e 24c3 133f 703f 1c3e
00000260: 838b 323f ecd6 873e 49d0 103f df65 543e
00000270: 089b c13e 5375 183f 8ca7 533f feac fe3e
00000280: d008 313f c393 113f d7fc 543e b398 e13e
00000290: 9755 533f 18e8 443e d760 633f 179c f23e
000002a0: a877 263f 9a7a 9a3e 4ac7 e73e fe59 cc3e
000002b0: b137 b03e 750d 253f 2f5b f03e 5e25 223f
000002c0: c139 bf3e b218 583f 2923 103f 9d85 9f3e
000002d0: cef6 183f b666 fb3e 108a a13e 8ede 263f
000002e0: 2954 663f d3c8 263f 9d31 ac3e 0eda 1b3f
000002f0: 1427 133f 861a 363f 5b2d b13e c124 213f
00000300: 0d09 da3e 3be3 d83e 5e84 733e 7cb8 bf3e
00000310: 3e85 453f cdaa d93e e61c 843f 990c 093f
00000320: 8f72 933e 676f ff3e 5eef 1a3f 5200 483f
00000330: 1070 1b3f 17dd 573f 4ddc fb3e 0c37 0f3f
00000340: 0522 813e 6723 8b3e 99ea 2f3f 3a84 fe3e
00000350: 6ede f93e 9d91 353e 9caa 943e a5e9 043f
00000360: 1c7f 323f d7d2 423f ed5b b73e 8453 043f
00000370: 979a 9f3e 4a86 303f 80a3 af3e e7e6 473e
00000380: 2570 923e 3838 f43e d9b9 e63e f471 c83e
00000390: d549 3f3f 0ffc 9f3e cf4c f83e 7a02 593e
000003a0: 41b0 0d3f f8a7 3e3e 23e6 893e 0351 293f
000003b0: a884 113f 7507 273f 2177 b23e 9c69 993e
000003c0: 1a43 b33e 9175 113f 90b2 643e 881b 413f
000003d0: 258e 013f c01a 813f 1b44 fa3e e71e 993e
000003e0: 57fe 193f 8d8c 463f 649b 573f 3bc3 b23e
000003f0: 1312 f93e 3390 0b3f 707c 0c3f cfbf 9b3e
0.6735887 0.27357817 0.66620314 0.76411146 0.36628023 0.19042204 0.36340928 0.3253164
0.51901025 0.8970263 0.8008279 -0.17377959 0.8333072 0.8402184 0.5139818 0.77184916
0.39551902 0.14407635 0.74701613 0.54560894 0.74223995 0.31612357 0.5646913 0.40036616
0.22983186 0.44034472 0.75121415 0.35476664 0.49591187 0.69012046 0.24232857 0.43130803
0.1919974 0.31935298 0.5313373 0.7312289 0.31853646 0.53940403 0.2532704 0.30839387
0.67533624 0.6563682 0.2889321 0.47093698 0.14762269 0.7845029 0.40986323 0.50347537
0.7501725 0.2289073 0.3653873 0.6689017 0.7521348 0.8732883 0.40706557 0.6423797
0.5172194 0.27448562 0.82461774 0.8307587 0.3046179 0.33983168 0.6992046 0.24851063
0.46670824 0.36184567 0.88100225 0.30417135 0.77578133 0.34552902 0.3071204 0.1494784
0.58498055 0.93313164 0.4699558 0.67529434 0.7442497 0.08637119 0.51423585 0.6881165
0.5021812 0.28514037 0.41268155 0.70448846 0.38254532 0.5317963 0.5546169 0.3192845
0.24837674 0.16301163 0.7772419 0.25272194 0.75179654 0.5962909 0.36616907 0.9502871
0.84681416 0.17350759 0.65272665 0.15648356 0.6813513 0.3580183 0.22173959 0.6905184
0.31605288 0.57704663 0.89385647 0.27450517 0.23430225 0.701202 0.22316256 0.70239115
0.54774356 0.7804966 0.60645694 0.6080138 0.1535519 0.3211756 0.5679582 1.0744965
0.4048035 0.22075781 0.22599648 0.46855515 0.2656878 0.49805665 0.31505293 0.3185584
0.5642873 0.16147785 0.5936777 0.2875209 0.40648013 0.19690211 0.44546953 0.17954451
0.2703057 0.5518912 0.31772056 0.56443536 0.7383197 0.67623436 0.28365985 0.86857295
0.9566008 0.2070245 0.7017374 0.37236258 0.4210945 0.12550107 0.57719636 0.15258574
0.6974413 0.2653116 0.5656782 0.20741986 0.37813592 0.5955402 0.8267753 0.49741358
0.6915407 0.5686609 0.20799576 0.44061813 0.82552475 0.19229162 0.8881964 0.47384712
0.6502633 0.30171663 0.45269233 0.3991241 0.3441749 0.6447366 0.46944568 0.6333827
0.3734875 0.8441268 0.5630365 0.31156626 0.59751594 0.491018 0.31550646 0.6518334
0.8997217 0.65150183 0.33631602 0.608796 0.57481503 0.7113422 0.34604916 0.62946707
0.4258503 0.42360863 0.23780963 0.37445438 0.77156436 0.42513123 1.0321319 0.5353485
0.2879834 0.4988968 0.60521495 0.7812549 0.6071787 0.8432173 0.49191514 0.5594337
0.25221267 0.27175447 0.6871734 0.49710256 0.48802513 0.17731328 0.29036415 0.51919013
0.69725204 0.76102966 0.3581232 0.51689935 0.3117263 0.6895491 0.34304428 0.19521676
0.28601184 0.47699142 0.45063666 0.3914944 0.74722034 0.31246993 0.484961 0.21192351
0.5534707 0.18618762 0.26933393 0.6613924 0.5684304 0.65245754 0.34856513 0.29963386
0.35012132 0.5682002 0.22333741 0.75432634 0.5060752 1.0086288 0.48880085 0.2990639
0.60153717 0.77558213 0.8422148 0.34914574 0.48646602 0.54516906 0.54877377 0.30419776

bn1.bias f4 [256]
00000000: de90 2c3d eac5 9a3c ef5c 9cbd 9d95 a6bd
00000010: d8f3 82bd 91e0 3fb8 6e77 4f3d 5771 943c
00000020: 1c4c 8dbc 2cbf c13d 5eaf 3b3d 6797 0fbd
00000030: fd54 aa3d cacb 85bd 187f b73c 238c 173e
00000040: 9473 873d 3b5b 513d b291 33bc 87c6 833d
00000050: bb5c 1c3e fb30 0bbd a240 6c3b 4e93 7c3d
00000060: 6c5b 2cbd 822a e0bc 2e8f f33c 5fd1 b9bc
00000070: 56bd 80bd 030e 1d3c c43b 8f3d 5fcb 543d
00000080: 5342 04bb 2830 813d 632a b83d 2713 d53c
00000090: 3931 043d 8ec1 f93d 8f1b c7bc 387c f4bc
000000a0: c79c 0c3e 6a04 123c 2f73 e93d 8c76 25bd
000000b0: 4e64 003d 8ddb 8d3c 82c4 bdbb 94c7 003d
000000c0: 5290 6b3d 091c ce3c 0c12 9cbb 1083 3b3d
000000d0: 0ba7 e43c 412a eabd 74d6 53bd 725c 03bd
000000e0: 18ea b0bd 19c6 15bd 3c41 3b3b a1e8 01bd
000000f0: 86ed 6f3d 6e64 03bd 67f3 e83d 4067 073e
00000100: 5b7d 82bd eecd 863c e125 7d3d a114 cf3d
00000110: b8ac 343d ded4 853d d50c c23d 81ba 1dbd
00000120: ea25 7a3c 29cd 263e 3d05 f4bc 744c 3b3d
00000130: 1286 bd3d 3893 8d3c b5ce cc3c 05e1 87bb
00000140: 0cc5 703c 9789 9b3d e30f 063e e5d4 be3d
00000150: 2508 033d b7c4 2dbd ba6c d83c f478 ea3d
00000160: dc50 cebb d093 dd3b b1cd 773d 1793 f1bc
00000170: b972 8cbc 0bce 0e3d 66e7 593d 086c 253e
00000180: 1c79 f83c 9a68 d43b 4b7c 6a3c fe26 923c
00000190: d08e a2bb 7c23 5abc 9ea5 013d c39d 9a3c
000001a0: 56a9 773d bd5f ecbd 9bbc ea3d b020 9c3b
000001b0: cf71 97bc 264b 28bc 092b 9a3d 8347 2e3d
000001c0: 06b8 973d c085 ae3d 0564 cabd 9151 8ebc
000001d0: 39cf e53b 3410 15bd 4609 24bc 979d 9cbc
000001e0: f23b fbbc 5618 8abd 43b2 0b3d acbb 8bbc
000001f0: 65d5 0c3d 20e3 ad3d e45e 313d fc95 be39
00000200: 4777 27bd e5db 47bd 7a31 ba3d 7f4b 833d
00000210: 0769 2e3c dd63 c43c 731c 523d 64e8 0ebe
00000220: 5f67 24bc 64f5 4c3d b7dc c1bd 0088 a13d
00000230: 6d80 4dbd 6ba7 b83d 7a79 1ebd 70ee c13d
00000240: 2783 ff3d c369 f33c 1c24 193d 86cf 18bd
00000250: ebaf e9bb 6b03 4abb 836c 223e 5370 f93c
00000260: 46ae a1bc 0254 e83d f665 9d3c 1561 163c
00000270: b7e4 813d af09 bd3c 615d 613d a1d4 c13c
00000280: 56cd 62bc 7af4 20bd 5e0b 893d 3a50 0bbc
00000290: 941b 443c ceb1 65bd f40a 083d ee21 96bd
000002a0: 7403 09bd d869 3b3d 2fda 573d 5df1 5c3d
000002b0: 9256 39bb c620 033d 75ec 233b e81a 8ebd
000002c0: 6e2a adbd d38a b93c 0016 a5bd 28e0 823d
000002d0: da1d 683d 8e86 283e 69b0 a1bd ece5 79bb
000002e0: bf62 d83d 38bc 29bc 32a3 003e 96c2 5e3d
000002f0: 971d a63d 1316 943d e68c 083d 68ee a7bd
00000300: 2a68 22ba 25c8 603d 166b 3bbc a2e4 0fbd
00000310: f893 b43d c295 edbc 546c 6f3d 67e6 1d3d
00000320: 905b 0b3c 26cf 5fbd c5fb 4ebd 6857 e23d
00000330: 8bc6 69bc 76af d43d a356 5bbd 7001 723d
00000340: 7481 873d 4562 aabd 7249 ca3c 36ab 823c
00000350: 4ccc acbd 9a89 ad3d bb43 77bc 44db 763d
00000360: 273c 623d 78e7 34bd ae01 d43d 342c 1ebd
00000370: 3479 003d d639 853d 1b7c 043d d8ef 693c
00000380: f3d3 533d e582 d8bd fb59 25bd 68fc 8fbd
00000390: e226 7dbd e1c5 44bd bef0 7cbb 42b2 a3bc
000003a0: 976f 2abd c711 f03d 0692 01be 8675 8dbc
000003b0: c4ab 903d 3bb0 1b3e d25b c33c b5e9 b03d
000003c0: 38fd c6bc a14f 9d3b f1af 6b3c a8ee 0f3d
000003d0: d598 99bd e2a6 a33d d228 223b 853d 5a3d
000003e0: a2c0 363d 0694 ad3d 32b5 c73d f611 a93c
000003f0: c768 23bd 1892 653d 6bd1 023e 2b8d bc3c
0.042130344 0.0188932 -0.07634913 -0.08134005 -0.06394166 -4.5747092e-05 0.050651006 0.01812045
-0.017248206 0.09460291 0.04582154 -0.035056498 0.083169915 -0.0653301 0.02239947 0.14799552
0.06613842 0.051112395 -0.010960029 0.064343505 0.15269749 -0.03398226 0.0036049266 0.06166392
-0.042079374 -0.02736402 0.02973136 -0.022682844 -0.06286113 0.00958586 0.06993821 0.051951762
-0.0020181134 0.06308013 0.089924596 0.02601011 0.032273505 0.12195121 -0.024305133 -0.029844388
0.13731681 0.008912185 0.11398923 -0.04039626 0.031345658 0.017316604 -0.005791248 0.031440333
0.05751068 0.025159853 -0.0047628935 0.045779288 0.027911684 -0.114338405 -0.05171819 -0.032070585
-0.086384 -0.036565874 0.0028572818 -0.031715993 0.05857613 -0.0320782 0.1137455 0.1322298
-0.06371566 0.016455617 0.061803702 0.101113565 0.04411003 0.06534742 0.09475104 -0.038507942
0.0152678285 0.162892 -0.029787654 0.04572721 0.092540875 0.017282113 0.02500091 -0.0041466975
0.014695417 0.075946026 0.13091998 0.0931795 0.03199019 -0.04242393 0.026419032 0.11448851
-0.0062962603 0.0067620054 0.060498897 -0.029489083 -0.017144548 0.034864467 0.053199194 0.16154492
0.030331187 0.006482196 0.01431186 0.017840859 -0.0049608722 -0.013314124 0.031652085 0.018874055
0.060464226 -0.11541698 0.11461755 0.004764639 -0.018486885 -0.010271823 0.075277396 0.042548668
0.074081466 0.085216045 -0.098823585 -0.017372878 0.0070132283 -0.036392406 -0.010011977 -0.019118113
-0.030668233 -0.06742923 0.03410555 -0.017057262 0.034383196 0.08490586 0.043303385 0.0003635137
-0.040885236 -0.048793692 0.09091468 0.06410884 0.010645158 0.0239734 0.051296663 -0.13955837
-0.010034411 0.05003871 -0.09465926 0.07887268 -0.050171304 0.090163074 -0.038690068 0.094693065
0.12476187 0.029713517 0.037387952 -0.037307285 -0.0071315668 -0.0030824791 0.15861706 0.030449068
-0.01973642 0.11344148 0.019213658 0.00917842 0.06342452 0.023075907 0.055020694 0.02366096
-0.013842901 -0.03929565 0.06691621 -0.008503014 0.011969466 -0.05607777 0.03321357 -0.0733069
-0.03345056 0.045755237 0.05269831 0.05394112 -0.002828036 0.032013677 0.0025012766 -0.06938726
-0.084553584 0.022649204 -0.08060837 0.06390411 0.056669094 0.16457579 -0.07894976 -0.003813143
0.10565709 -0.010359816 0.12562254 0.05438479 0.081111126 0.07230773 0.033337496 -0.08199769
-0.0006195331 0.054878373 -0.0114391055 -0.03513015 0.08817285 -0.029002074 0.05845292 0.038549807
0.008505717 -0.05464091 -0.050533075 0.11051828 -0.014268528 0.10385029 -0.05354942 0.059083402
0.06616488 -0.08319525 0.024693225 0.01595078 -0.08437404 0.08473511 -0.015091832 0.0602677
0.055233147 -0.04416606 0.10351883 -0.038616374 0.03136559 0.06505172 0.03234492 0.014278375
0.051715802 -0.10571841 -0.040369015 -0.070305645 -0.06180466 -0.048040275 -0.0038595642 -0.01998246
-0.041610327 0.11722141 -0.1265336 -0.017267954 0.07064012 0.15203945 0.023847494 0.08638326
-0.024290666 0.0048007523 0.014385209 0.03513971 -0.074998535 0.07990815 0.002474357 0.053281326
0.044617303 0.08475499 0.09751357 0.020638447 -0.039894845 0.05604753 0.12775199 0.023016533

bn1.running_mean f4 [256]
00000000: 928c a33d 0a97 763e 6896 e53e 0e69 0a40
00000010: 8bfc b33d 1467 6a3e c16e 753f 26e2 953d
00000020: 9792 a93e ce4c a73e 1536 2f3f 1cc3 9d3c
00000030: 5460 913e 51a7 4d40 14aa f23f 1b1a 0340
00000040: a85c 883f 312f 453f 59b2 943d 3ca3 073c
00000050: 0616 1340 299a 173f 77c3 093f bafc f33e
00000060: 2fb0 5a3d c71c af3f 03e7 dc3f 1d4f c73e
00000070: 0c1f 583f 3c97 f23f d7c1 9a3e 91f1 323e
00000080: 0d37 493e 23a6 083f 803f df3f 900e 6c3d
00000090: 644b 443e f234 cf3e 5473 a43e 0f97 a03d
000000a0: 03df 0e40 457c 443f 8eb0 ea3e 6163 f63f
000000b0: d19f 7b3d 379f 953e d78e d63e 8e1a 6d3f
000000c0: 82f1 5b3f f308 193f 61a4 833e 2093 713f
000000d0: a85d 913f 26a2 833f 9b39 193f b444 853e
000000e0: 747f cb3e 86a9 813f 41e5 803e 683a 3c3f
000000f0: 348f 613f 2b0f 8640 ea98 e83d 9bb3 4940
00000100: 9560 dc3e 8e2f bc3e a9c9 f83e 131c 983f
00000110: 8320 1040 5592 673f 16bc 973f 57df b93f
00000120: d701 3d3f 81db 253f 1216 043f d38d bc3e
00000130: 7345 3240 8d40 9e3f 0717 583f 18bd 093f
00000140: f0bb 453f 7839 af3d 2163 0740 578f 0840
00000150: a5a9 2a3e 1311 bd3f d36d 283f 19ac ca3f
00000160: e5cc 663e 1d66 8e3e 4eaa 143f 231c 5d3f
00000170: 23fd 4f3f 116b 213f 1495 df3f 78a4 2240
00000180: 9fbc 3440 e556 8f3c 8c1b ee3e d9ce 3f3f
00000190: 6b66 643f 5ee4 433d 37e1 853e e50c 463f
000001a0: bab8 7b3d f2f3 f53e 2180 2e3e 9103 3340
000001b0: 9be4 dc3d 0242 cb3f 0882 353e 1953 9d3f
000001c0: 4492 993f 78d1 ad3d 5bf3 b13f 1eb4 6e3f
000001d0: cf18 293f c728 2c3e 8787 843f 096f 233e
000001e0: cb98 cc3d 8e23 b13e 1dc1 e83e 4b18 2c3e
000001f0: a3a6 6c3f cadd 4240 eac0 043f 7fd6 ae3e
00000200: 2f53 373f b4ae 173e 42f4 103f adfc 7440
00000210: 6b2a 4d3e e526 7e3e 87d4 d33e 7382 973f
00000220: 29bb c83d e8e9 443f 65c7 e33f 0cf7 493e
00000230: f1cc 823f 97a5 1f40 5dbd f53e c920 e03e
00000240: 36ec 413f 789c ce3e 14e6 e43e 1abd 913f
00000250: bf45 1f3f a8e4 443e de27 f53f 140f 043f
00000260: 6c22 a340 d5ae 8c3f a8e4 7d3f 751d 013d
00000270: e62f b73f ea87 de3e 3e76 3f3f a1d3 ea3e
00000280: f0e3 2040 2db2 b63f e3df 2c3f a95a e93f
00000290: 9fa9 fd3c 0ebc 973f b7cc f53f 66dc 3440
000002a0: 8316 cb3e be6e a83b db77 c53f 8b3d 383f
000002b0: 123d 143f fb9e c640 803b 303f 3ea0 f13e
000002c0: e946 a93f 54d4 d13f f0c5 0e3f 7b14 be3e
000002d0: a379 833e 5c81 163f c961 9a3e 2ada b83e
000002e0: 5eb8 c23f d145 c23e 6d8f 753f 0712 5a40
000002f0: 942d 1540 5c8f 8e3f 94a5 f53e b6c5 a23f
00000300: 4da6 633f b12b 563f 0fa0 ca3c 0564 8d3e
00000310: 0948 8f3f d843 213e e372 1940 90ee fe3e
00000320: 5216 063f a80b ea3e cd07 783f c052 053f
00000330: b1c0 1040 d3b3 693f 3a4d 2a3f 190e 9a3f
00000340: bb8c 603e b1f9 c93e bb6b d53f 16bc c93d
00000350: 450f 103f 991f 3d3f e7a5 323e 85f1 273e
00000360: ef07 d53f 321f 9a3e 84b6 bc3e 2d02 8e3f
00000370: 66c2 363f f01d 993f b2fb 923f a318 993d
00000380: 8374 1640 e84d 4c3f 0d8a 8940 e620 773e
00000390: 3174 253d fa55 1c3f 71ae 943e 9e74 7f3e
000003a0: 958f b43f d895 ee3d 4d12 f63e e680 693f
000003b0: 6533 a93f 4320 003f aad1 1b3f 5254 f83e
000003c0: 707d ba3d daa9 013e f74b ba3e 9a44 933f
000003d0: 4455 cd3e 6379 943f e70b b73e a3db 7e3d
000003e0: d194 863f 61be 5840 fc29 923f fbc5 d43f
000003f0: e2e0 0540 fc3a 4a3f 6d70 3d3f 3eb0 df3e
0.07985796 0.24081054 0.44841313 2.162662 0.08788403 0.22890884 0.9587212 0.07318525
0.33119652 0.32675785 0.684419 0.019258074 0.28393805 3.2133372 1.8958154 2.0484684
1.0653276 0.77025133 0.072605796 0.008278664 2.2982192 0.59219605 0.5381388 0.47653753
0.053390678 1.3680657 1.7257999 0.38927546 0.84422374 1.8952403 0.30226013 0.17474963
0.19649906 0.53378505 1.7441254 0.057631075 0.19169384 0.40470082 0.32119238 0.07841312
2.2323616 0.7675212 0.45837826 1.9249078 0.06143171 0.29223034 0.41905853 0.92618644
0.85915387 0.5977928 0.2571135 0.9436512 1.1356707 1.0283859 0.59853524 0.2602898
0.39745677 1.012986 0.25174907 0.7352662 0.88109136 4.1893516 0.11357291 3.1515872
0.43042436 0.3675503 0.48591354 1.1883568 2.2519844 0.9045766 1.1854274 1.4521283
0.7383093 0.6478806 0.51596177 0.36826953 2.7854888 1.2363449 0.84410137 0.5380416
0.77239895 0.08555883 2.1154253 2.1337488 0.16666277 1.4770836 0.6579258 1.583377
0.22539099 0.2781228 0.58072364 0.8637106 0.8124563 0.63053995 1.746737 2.5412884
2.8240125 0.01749749 0.46505392 0.74925 0.8921878 0.04782521 0.26148388 0.77363425
0.061455466 0.48037678 0.17041065 2.7970927 0.107857905 1.5879519 0.17725384 1.2290984
1.1997762 0.084872186 1.3902391 0.93243587 0.6605348 0.1681243 1.035386 0.15960325
0.099900804 0.3459744 0.45459834 0.16806142 0.9244177 3.044787 0.51856863 0.34148023
0.71611303 0.14812738 0.5662271 3.827922 0.20035712 0.24819525 0.41373083 1.1836685
0.09801323 0.7691941 1.7795225 0.19723147 1.0218793 2.4944818 0.47996035 0.43775013
0.75751054 0.4035375 0.44706786 1.1385834 0.622158 0.1922785 1.9152792 0.5158551
5.097952 1.0990855 0.99177027 0.031522233 1.4311492 0.4346307 0.747898 0.45864585
2.5139122 1.4273125 0.67529124 1.8230792 0.03096467 1.1854265 1.9203099 2.825952
0.39665613 0.0051401546 1.5427202 0.7196891 0.57905686 6.206907 0.6884079 0.47192568
1.3224765 1.6392922 0.5577078 0.37125 0.2567874 0.58791137 0.3015273 0.36103946
1.5212514 0.3794389 0.95921975 3.4073503 2.3309069 1.11375 0.4797789 1.2716587
0.8892563 0.8366042 0.024734525 0.2761537 1.1193858 0.15748537 2.3976371 0.49791384
0.5237781 0.45712018 0.96886903 0.5207939 2.261761 0.91290015 0.6652409 1.2035552
0.21928684 0.39448312 1.6673502 0.09850328 0.562733 0.7387634 0.17446099 0.16400726
1.6643046 0.30101925 0.36857998 1.1094414 0.7139038 1.1962261 1.1483061 0.07475402
2.3508613 0.79806376 4.298102 0.24133644 0.040394012 0.6106869 0.29039338 0.2494683
1.4106318 0.11649674 0.48060837 0.9121231 1.3218809 0.5004923 0.60866797 0.4850183
0.091059566 0.1266245 0.36386082 1.150531 0.40104115 1.1599544 0.35751268 0.06222118
1.0514165 3.3866198 1.1419063 1.6622919 2.0918508 0.78996253 0.73999673 0.4368915
